{"format": "layers-model", "generatedBy": "keras v2.2.4", "convertedBy": "TensorFlow.js Converter v1.2.2.1", "modelTopology": {"keras_version": "2.2.4", "backend": "tensorflow", "model_config": {"class_name": "Model", "config": {"name": "retinanet", "layers": [{"name": "input_1", "class_name": "InputLayer", "config": {"batch_input_shape": [null, 512, 512, 3], "dtype": "float32", "sparse": false, "name": "input_1"}, "inbound_nodes": []}, {"name": "conv1", "class_name": "Conv2D", "config": {"name": "conv1", "trainable": true, "filters": 64, "kernel_size": [7, 7], "strides": [2, 2], "padding": "same", "data_format": "channels_last", "dilation_rate": [1, 1], "activation": "linear", "use_bias": false, "kernel_initializer": {"class_name": "VarianceScaling", "config": {"scale": 1.0, "mode": "fan_avg", "distribution": "uniform", "seed": null}}, "bias_initializer": {"class_name": "Zeros", "config": {}}, "kernel_regularizer": null, "bias_regularizer": null, "activity_regularizer": null, "kernel_constraint": null, "bias_constraint": null}, "inbound_nodes": [[["input_1", 0, 0, {}]]]}, {"name": "bn_conv1", "class_name": "BatchNormalization", "config": {"name": "bn_conv1", "trainable": false, "axis": 3, "momentum": 0.99, "epsilon": 1e-05, "center": true, "scale": true, "beta_initializer": {"class_name": "Zeros", "config": {}}, "gamma_initializer": {"class_name": "Ones", "config": {}}, "moving_mean_initializer": {"class_name": "Zeros", "config": {}}, "moving_variance_initializer": {"class_name": "Ones", "config": {}}, "beta_regularizer": null, "gamma_regularizer": null, "beta_constraint": null, "gamma_constraint": null, "freeze": true}, "inbound_nodes": [[["conv1", 0, 0, {}]]]}, {"name": "conv1_relu", "class_name": "Activation", "config": {"name": "conv1_relu", "trainable": true, "activation": "relu"}, "inbound_nodes": [[["bn_conv1", 0, 0, {}]]]}, {"name": "pool1", "class_name": "MaxPooling2D", "config": {"name": "pool1", "trainable": true, "pool_size": [3, 3], "padding": "same", "strides": [2, 2], "data_format": "channels_last"}, "inbound_nodes": [[["conv1_relu", 0, 0, {}]]]}, {"name": "res2a_branch2a", "class_name": "Conv2D", "config": {"name": "res2a_branch2a", "trainable": true, "filters": 64, "kernel_size": [1, 1], "strides": [1, 1], "padding": "valid", "data_format": "channels_last", "dilation_rate": [1, 1], "activation": "linear", "use_bias": false, "kernel_initializer": {"class_name": "VarianceScaling", "config": {"scale": 2.0, "mode": "fan_in", "distribution": "normal", "seed": null}}, "bias_initializer": {"class_name": "Zeros", "config": {}}, "kernel_regularizer": null, "bias_regularizer": null, "activity_regularizer": null, "kernel_constraint": null, "bias_constraint": null}, "inbound_nodes": [[["pool1", 0, 0, {}]]]}, {"name": "bn2a_branch2a", "class_name": "BatchNormalization", "config": {"name": "bn2a_branch2a", "trainable": false, "axis": 3, "momentum": 0.99, "epsilon": 1e-05, "center": true, "scale": true, "beta_initializer": {"class_name": "Zeros", "config": {}}, "gamma_initializer": {"class_name": "Ones", "config": {}}, "moving_mean_initializer": {"class_name": "Zeros", "config": {}}, "moving_variance_initializer": {"class_name": "Ones", "config": {}}, "beta_regularizer": null, "gamma_regularizer": null, "beta_constraint": null, "gamma_constraint": null, "freeze": true}, "inbound_nodes": [[["res2a_branch2a", 0, 0, {}]]]}, {"name": "res2a_branch2a_relu", "class_name": "Activation", "config": {"name": "res2a_branch2a_relu", "trainable": true, "activation": "relu"}, "inbound_nodes": [[["bn2a_branch2a", 0, 0, {}]]]}, {"name": "padding2a_branch2b", "class_name": "ZeroPadding2D", "config": {"name": "padding2a_branch2b", "trainable": true, "padding": [[1, 1], [1, 1]], "data_format": "channels_last"}, "inbound_nodes": [[["res2a_branch2a_relu", 0, 0, {}]]]}, {"name": "res2a_branch2b", "class_name": "Conv2D", "config": {"name": "res2a_branch2b", "trainable": true, "filters": 64, "kernel_size": [3, 3], "strides": [1, 1], "padding": "valid", "data_format": "channels_last", "dilation_rate": [1, 1], "activation": "linear", "use_bias": false, "kernel_initializer": {"class_name": "VarianceScaling", "config": {"scale": 2.0, "mode": "fan_in", "distribution": "normal", "seed": null}}, "bias_initializer": {"class_name": "Zeros", "config": {}}, "kernel_regularizer": null, "bias_regularizer": null, "activity_regularizer": null, "kernel_constraint": null, "bias_constraint": null}, "inbound_nodes": [[["padding2a_branch2b", 0, 0, {}]]]}, {"name": "bn2a_branch2b", "class_name": "BatchNormalization", "config": {"name": "bn2a_branch2b", "trainable": false, "axis": 3, "momentum": 0.99, "epsilon": 1e-05, "center": true, "scale": true, "beta_initializer": {"class_name": "Zeros", "config": {}}, "gamma_initializer": {"class_name": "Ones", "config": {}}, "moving_mean_initializer": {"class_name": "Zeros", "config": {}}, "moving_variance_initializer": {"class_name": "Ones", "config": {}}, "beta_regularizer": null, "gamma_regularizer": null, "beta_constraint": null, "gamma_constraint": null, "freeze": true}, "inbound_nodes": [[["res2a_branch2b", 0, 0, {}]]]}, {"name": "res2a_branch2b_relu", "class_name": "Activation", "config": {"name": "res2a_branch2b_relu", "trainable": true, "activation": "relu"}, "inbound_nodes": [[["bn2a_branch2b", 0, 0, {}]]]}, {"name": "res2a_branch2c", "class_name": "Conv2D", "config": {"name": "res2a_branch2c", "trainable": true, "filters": 256, "kernel_size": [1, 1], "strides": [1, 1], "padding": "valid", "data_format": "channels_last", "dilation_rate": [1, 1], "activation": "linear", "use_bias": false, "kernel_initializer": {"class_name": "VarianceScaling", "config": {"scale": 2.0, "mode": "fan_in", "distribution": "normal", "seed": null}}, "bias_initializer": {"class_name": "Zeros", "config": {}}, "kernel_regularizer": null, "bias_regularizer": null, "activity_regularizer": null, "kernel_constraint": null, "bias_constraint": null}, "inbound_nodes": [[["res2a_branch2b_relu", 0, 0, {}]]]}, {"name": "res2a_branch1", "class_name": "Conv2D", "config": {"name": "res2a_branch1", "trainable": true, "filters": 256, "kernel_size": [1, 1], "strides": [1, 1], "padding": "valid", "data_format": "channels_last", "dilation_rate": [1, 1], "activation": "linear", "use_bias": false, "kernel_initializer": {"class_name": "VarianceScaling", "config": {"scale": 2.0, "mode": "fan_in", "distribution": "normal", "seed": null}}, "bias_initializer": {"class_name": "Zeros", "config": {}}, "kernel_regularizer": null, "bias_regularizer": null, "activity_regularizer": null, "kernel_constraint": null, "bias_constraint": null}, "inbound_nodes": [[["pool1", 0, 0, {}]]]}, {"name": "bn2a_branch2c", "class_name": "BatchNormalization", "config": {"name": "bn2a_branch2c", "trainable": false, "axis": 3, "momentum": 0.99, "epsilon": 1e-05, "center": true, "scale": true, "beta_initializer": {"class_name": "Zeros", "config": {}}, "gamma_initializer": {"class_name": "Ones", "config": {}}, "moving_mean_initializer": {"class_name": "Zeros", "config": {}}, "moving_variance_initializer": {"class_name": "Ones", "config": {}}, "beta_regularizer": null, "gamma_regularizer": null, "beta_constraint": null, "gamma_constraint": null, "freeze": true}, "inbound_nodes": [[["res2a_branch2c", 0, 0, {}]]]}, {"name": "bn2a_branch1", "class_name": "BatchNormalization", "config": {"name": "bn2a_branch1", "trainable": false, "axis": 3, "momentum": 0.99, "epsilon": 1e-05, "center": true, "scale": true, "beta_initializer": {"class_name": "Zeros", "config": {}}, "gamma_initializer": {"class_name": "Ones", "config": {}}, "moving_mean_initializer": {"class_name": "Zeros", "config": {}}, "moving_variance_initializer": {"class_name": "Ones", "config": {}}, "beta_regularizer": null, "gamma_regularizer": null, "beta_constraint": null, "gamma_constraint": null, "freeze": true}, "inbound_nodes": [[["res2a_branch1", 0, 0, {}]]]}, {"name": "res2a", "class_name": "Add", "config": {"name": "res2a", "trainable": true}, "inbound_nodes": [[["bn2a_branch2c", 0, 0, {}], ["bn2a_branch1", 0, 0, {}]]]}, {"name": "res2a_relu", "class_name": "Activation", "config": {"name": "res2a_relu", "trainable": true, "activation": "relu"}, "inbound_nodes": [[["res2a", 0, 0, {}]]]}, {"name": "res2b_branch2a", "class_name": "Conv2D", "config": {"name": "res2b_branch2a", "trainable": true, "filters": 64, "kernel_size": [1, 1], "strides": [1, 1], "padding": "valid", "data_format": "channels_last", "dilation_rate": [1, 1], "activation": "linear", "use_bias": false, "kernel_initializer": {"class_name": "VarianceScaling", "config": {"scale": 2.0, "mode": "fan_in", "distribution": "normal", "seed": null}}, "bias_initializer": {"class_name": "Zeros", "config": {}}, "kernel_regularizer": null, "bias_regularizer": null, "activity_regularizer": null, "kernel_constraint": null, "bias_constraint": null}, "inbound_nodes": [[["res2a_relu", 0, 0, {}]]]}, {"name": "bn2b_branch2a", "class_name": "BatchNormalization", "config": {"name": "bn2b_branch2a", "trainable": false, "axis": 3, "momentum": 0.99, "epsilon": 1e-05, "center": true, "scale": true, "beta_initializer": {"class_name": "Zeros", "config": {}}, "gamma_initializer": {"class_name": "Ones", "config": {}}, "moving_mean_initializer": {"class_name": "Zeros", "config": {}}, "moving_variance_initializer": {"class_name": "Ones", "config": {}}, "beta_regularizer": null, "gamma_regularizer": null, "beta_constraint": null, "gamma_constraint": null, "freeze": true}, "inbound_nodes": [[["res2b_branch2a", 0, 0, {}]]]}, {"name": "res2b_branch2a_relu", "class_name": "Activation", "config": {"name": "res2b_branch2a_relu", "trainable": true, "activation": "relu"}, "inbound_nodes": [[["bn2b_branch2a", 0, 0, {}]]]}, {"name": "padding2b_branch2b", "class_name": "ZeroPadding2D", "config": {"name": "padding2b_branch2b", "trainable": true, "padding": [[1, 1], [1, 1]], "data_format": "channels_last"}, "inbound_nodes": [[["res2b_branch2a_relu", 0, 0, {}]]]}, {"name": "res2b_branch2b", "class_name": "Conv2D", "config": {"name": "res2b_branch2b", "trainable": true, "filters": 64, "kernel_size": [3, 3], "strides": [1, 1], "padding": "valid", "data_format": "channels_last", "dilation_rate": [1, 1], "activation": "linear", "use_bias": false, "kernel_initializer": {"class_name": "VarianceScaling", "config": {"scale": 2.0, "mode": "fan_in", "distribution": "normal", "seed": null}}, "bias_initializer": {"class_name": "Zeros", "config": {}}, "kernel_regularizer": null, "bias_regularizer": null, "activity_regularizer": null, "kernel_constraint": null, "bias_constraint": null}, "inbound_nodes": [[["padding2b_branch2b", 0, 0, {}]]]}, {"name": "bn2b_branch2b", "class_name": "BatchNormalization", "config": {"name": "bn2b_branch2b", "trainable": false, "axis": 3, "momentum": 0.99, "epsilon": 1e-05, "center": true, "scale": true, "beta_initializer": {"class_name": "Zeros", "config": {}}, "gamma_initializer": {"class_name": "Ones", "config": {}}, "moving_mean_initializer": {"class_name": "Zeros", "config": {}}, "moving_variance_initializer": {"class_name": "Ones", "config": {}}, "beta_regularizer": null, "gamma_regularizer": null, "beta_constraint": null, "gamma_constraint": null, "freeze": true}, "inbound_nodes": [[["res2b_branch2b", 0, 0, {}]]]}, {"name": "res2b_branch2b_relu", "class_name": "Activation", "config": {"name": "res2b_branch2b_relu", "trainable": true, "activation": "relu"}, "inbound_nodes": [[["bn2b_branch2b", 0, 0, {}]]]}, {"name": "res2b_branch2c", "class_name": "Conv2D", "config": {"name": "res2b_branch2c", "trainable": true, "filters": 256, "kernel_size": [1, 1], "strides": [1, 1], "padding": "valid", "data_format": "channels_last", "dilation_rate": [1, 1], "activation": "linear", "use_bias": false, "kernel_initializer": {"class_name": "VarianceScaling", "config": {"scale": 2.0, "mode": "fan_in", "distribution": "normal", "seed": null}}, "bias_initializer": {"class_name": "Zeros", "config": {}}, "kernel_regularizer": null, "bias_regularizer": null, "activity_regularizer": null, "kernel_constraint": null, "bias_constraint": null}, "inbound_nodes": [[["res2b_branch2b_relu", 0, 0, {}]]]}, {"name": "bn2b_branch2c", "class_name": "BatchNormalization", "config": {"name": "bn2b_branch2c", "trainable": false, "axis": 3, "momentum": 0.99, "epsilon": 1e-05, "center": true, "scale": true, "beta_initializer": {"class_name": "Zeros", "config": {}}, "gamma_initializer": {"class_name": "Ones", "config": {}}, "moving_mean_initializer": {"class_name": "Zeros", "config": {}}, "moving_variance_initializer": {"class_name": "Ones", "config": {}}, "beta_regularizer": null, "gamma_regularizer": null, "beta_constraint": null, "gamma_constraint": null, "freeze": true}, "inbound_nodes": [[["res2b_branch2c", 0, 0, {}]]]}, {"name": "res2b", "class_name": "Add", "config": {"name": "res2b", "trainable": true}, "inbound_nodes": [[["bn2b_branch2c", 0, 0, {}], ["res2a_relu", 0, 0, {}]]]}, {"name": "res2b_relu", "class_name": "Activation", "config": {"name": "res2b_relu", "trainable": true, "activation": "relu"}, "inbound_nodes": [[["res2b", 0, 0, {}]]]}, {"name": "res2c_branch2a", "class_name": "Conv2D", "config": {"name": "res2c_branch2a", "trainable": true, "filters": 64, "kernel_size": [1, 1], "strides": [1, 1], "padding": "valid", "data_format": "channels_last", "dilation_rate": [1, 1], "activation": "linear", "use_bias": false, "kernel_initializer": {"class_name": "VarianceScaling", "config": {"scale": 2.0, "mode": "fan_in", "distribution": "normal", "seed": null}}, "bias_initializer": {"class_name": "Zeros", "config": {}}, "kernel_regularizer": null, "bias_regularizer": null, "activity_regularizer": null, "kernel_constraint": null, "bias_constraint": null}, "inbound_nodes": [[["res2b_relu", 0, 0, {}]]]}, {"name": "bn2c_branch2a", "class_name": "BatchNormalization", "config": {"name": "bn2c_branch2a", "trainable": false, "axis": 3, "momentum": 0.99, "epsilon": 1e-05, "center": true, "scale": true, "beta_initializer": {"class_name": "Zeros", "config": {}}, "gamma_initializer": {"class_name": "Ones", "config": {}}, "moving_mean_initializer": {"class_name": "Zeros", "config": {}}, "moving_variance_initializer": {"class_name": "Ones", "config": {}}, "beta_regularizer": null, "gamma_regularizer": null, "beta_constraint": null, "gamma_constraint": null, "freeze": true}, "inbound_nodes": [[["res2c_branch2a", 0, 0, {}]]]}, {"name": "res2c_branch2a_relu", "class_name": "Activation", "config": {"name": "res2c_branch2a_relu", "trainable": true, "activation": "relu"}, "inbound_nodes": [[["bn2c_branch2a", 0, 0, {}]]]}, {"name": "padding2c_branch2b", "class_name": "ZeroPadding2D", "config": {"name": "padding2c_branch2b", "trainable": true, "padding": [[1, 1], [1, 1]], "data_format": "channels_last"}, "inbound_nodes": [[["res2c_branch2a_relu", 0, 0, {}]]]}, {"name": "res2c_branch2b", "class_name": "Conv2D", "config": {"name": "res2c_branch2b", "trainable": true, "filters": 64, "kernel_size": [3, 3], "strides": [1, 1], "padding": "valid", "data_format": "channels_last", "dilation_rate": [1, 1], "activation": "linear", "use_bias": false, "kernel_initializer": {"class_name": "VarianceScaling", "config": {"scale": 2.0, "mode": "fan_in", "distribution": "normal", "seed": null}}, "bias_initializer": {"class_name": "Zeros", "config": {}}, "kernel_regularizer": null, "bias_regularizer": null, "activity_regularizer": null, "kernel_constraint": null, "bias_constraint": null}, "inbound_nodes": [[["padding2c_branch2b", 0, 0, {}]]]}, {"name": "bn2c_branch2b", "class_name": "BatchNormalization", "config": {"name": "bn2c_branch2b", "trainable": false, "axis": 3, "momentum": 0.99, "epsilon": 1e-05, "center": true, "scale": true, "beta_initializer": {"class_name": "Zeros", "config": {}}, "gamma_initializer": {"class_name": "Ones", "config": {}}, "moving_mean_initializer": {"class_name": "Zeros", "config": {}}, "moving_variance_initializer": {"class_name": "Ones", "config": {}}, "beta_regularizer": null, "gamma_regularizer": null, "beta_constraint": null, "gamma_constraint": null, "freeze": true}, "inbound_nodes": [[["res2c_branch2b", 0, 0, {}]]]}, {"name": "res2c_branch2b_relu", "class_name": "Activation", "config": {"name": "res2c_branch2b_relu", "trainable": true, "activation": "relu"}, "inbound_nodes": [[["bn2c_branch2b", 0, 0, {}]]]}, {"name": "res2c_branch2c", "class_name": "Conv2D", "config": {"name": "res2c_branch2c", "trainable": true, "filters": 256, "kernel_size": [1, 1], "strides": [1, 1], "padding": "valid", "data_format": "channels_last", "dilation_rate": [1, 1], "activation": "linear", "use_bias": false, "kernel_initializer": {"class_name": "VarianceScaling", "config": {"scale": 2.0, "mode": "fan_in", "distribution": "normal", "seed": null}}, "bias_initializer": {"class_name": "Zeros", "config": {}}, "kernel_regularizer": null, "bias_regularizer": null, "activity_regularizer": null, "kernel_constraint": null, "bias_constraint": null}, "inbound_nodes": [[["res2c_branch2b_relu", 0, 0, {}]]]}, {"name": "bn2c_branch2c", "class_name": "BatchNormalization", "config": {"name": "bn2c_branch2c", "trainable": false, "axis": 3, "momentum": 0.99, "epsilon": 1e-05, "center": true, "scale": true, "beta_initializer": {"class_name": "Zeros", "config": {}}, "gamma_initializer": {"class_name": "Ones", "config": {}}, "moving_mean_initializer": {"class_name": "Zeros", "config": {}}, "moving_variance_initializer": {"class_name": "Ones", "config": {}}, "beta_regularizer": null, "gamma_regularizer": null, "beta_constraint": null, "gamma_constraint": null, "freeze": true}, "inbound_nodes": [[["res2c_branch2c", 0, 0, {}]]]}, {"name": "res2c", "class_name": "Add", "config": {"name": "res2c", "trainable": true}, "inbound_nodes": [[["bn2c_branch2c", 0, 0, {}], ["res2b_relu", 0, 0, {}]]]}, {"name": "res2c_relu", "class_name": "Activation", "config": {"name": "res2c_relu", "trainable": true, "activation": "relu"}, "inbound_nodes": [[["res2c", 0, 0, {}]]]}, {"name": "res3a_branch2a", "class_name": "Conv2D", "config": {"name": "res3a_branch2a", "trainable": true, "filters": 128, "kernel_size": [1, 1], "strides": [2, 2], "padding": "valid", "data_format": "channels_last", "dilation_rate": [1, 1], "activation": "linear", "use_bias": false, "kernel_initializer": {"class_name": "VarianceScaling", "config": {"scale": 2.0, "mode": "fan_in", "distribution": "normal", "seed": null}}, "bias_initializer": {"class_name": "Zeros", "config": {}}, "kernel_regularizer": null, "bias_regularizer": null, "activity_regularizer": null, "kernel_constraint": null, "bias_constraint": null}, "inbound_nodes": [[["res2c_relu", 0, 0, {}]]]}, {"name": "bn3a_branch2a", "class_name": "BatchNormalization", "config": {"name": "bn3a_branch2a", "trainable": false, "axis": 3, "momentum": 0.99, "epsilon": 1e-05, "center": true, "scale": true, "beta_initializer": {"class_name": "Zeros", "config": {}}, "gamma_initializer": {"class_name": "Ones", "config": {}}, "moving_mean_initializer": {"class_name": "Zeros", "config": {}}, "moving_variance_initializer": {"class_name": "Ones", "config": {}}, "beta_regularizer": null, "gamma_regularizer": null, "beta_constraint": null, "gamma_constraint": null, "freeze": true}, "inbound_nodes": [[["res3a_branch2a", 0, 0, {}]]]}, {"name": "res3a_branch2a_relu", "class_name": "Activation", "config": {"name": "res3a_branch2a_relu", "trainable": true, "activation": "relu"}, "inbound_nodes": [[["bn3a_branch2a", 0, 0, {}]]]}, {"name": "padding3a_branch2b", "class_name": "ZeroPadding2D", "config": {"name": "padding3a_branch2b", "trainable": true, "padding": [[1, 1], [1, 1]], "data_format": "channels_last"}, "inbound_nodes": [[["res3a_branch2a_relu", 0, 0, {}]]]}, {"name": "res3a_branch2b", "class_name": "Conv2D", "config": {"name": "res3a_branch2b", "trainable": true, "filters": 128, "kernel_size": [3, 3], "strides": [1, 1], "padding": "valid", "data_format": "channels_last", "dilation_rate": [1, 1], "activation": "linear", "use_bias": false, "kernel_initializer": {"class_name": "VarianceScaling", "config": {"scale": 2.0, "mode": "fan_in", "distribution": "normal", "seed": null}}, "bias_initializer": {"class_name": "Zeros", "config": {}}, "kernel_regularizer": null, "bias_regularizer": null, "activity_regularizer": null, "kernel_constraint": null, "bias_constraint": null}, "inbound_nodes": [[["padding3a_branch2b", 0, 0, {}]]]}, {"name": "bn3a_branch2b", "class_name": "BatchNormalization", "config": {"name": "bn3a_branch2b", "trainable": false, "axis": 3, "momentum": 0.99, "epsilon": 1e-05, "center": true, "scale": true, "beta_initializer": {"class_name": "Zeros", "config": {}}, "gamma_initializer": {"class_name": "Ones", "config": {}}, "moving_mean_initializer": {"class_name": "Zeros", "config": {}}, "moving_variance_initializer": {"class_name": "Ones", "config": {}}, "beta_regularizer": null, "gamma_regularizer": null, "beta_constraint": null, "gamma_constraint": null, "freeze": true}, "inbound_nodes": [[["res3a_branch2b", 0, 0, {}]]]}, {"name": "res3a_branch2b_relu", "class_name": "Activation", "config": {"name": "res3a_branch2b_relu", "trainable": true, "activation": "relu"}, "inbound_nodes": [[["bn3a_branch2b", 0, 0, {}]]]}, {"name": "res3a_branch2c", "class_name": "Conv2D", "config": {"name": "res3a_branch2c", "trainable": true, "filters": 512, "kernel_size": [1, 1], "strides": [1, 1], "padding": "valid", "data_format": "channels_last", "dilation_rate": [1, 1], "activation": "linear", "use_bias": false, "kernel_initializer": {"class_name": "VarianceScaling", "config": {"scale": 2.0, "mode": "fan_in", "distribution": "normal", "seed": null}}, "bias_initializer": {"class_name": "Zeros", "config": {}}, "kernel_regularizer": null, "bias_regularizer": null, "activity_regularizer": null, "kernel_constraint": null, "bias_constraint": null}, "inbound_nodes": [[["res3a_branch2b_relu", 0, 0, {}]]]}, {"name": "res3a_branch1", "class_name": "Conv2D", "config": {"name": "res3a_branch1", "trainable": true, "filters": 512, "kernel_size": [1, 1], "strides": [2, 2], "padding": "valid", "data_format": "channels_last", "dilation_rate": [1, 1], "activation": "linear", "use_bias": false, "kernel_initializer": {"class_name": "VarianceScaling", "config": {"scale": 2.0, "mode": "fan_in", "distribution": "normal", "seed": null}}, "bias_initializer": {"class_name": "Zeros", "config": {}}, "kernel_regularizer": null, "bias_regularizer": null, "activity_regularizer": null, "kernel_constraint": null, "bias_constraint": null}, "inbound_nodes": [[["res2c_relu", 0, 0, {}]]]}, {"name": "bn3a_branch2c", "class_name": "BatchNormalization", "config": {"name": "bn3a_branch2c", "trainable": false, "axis": 3, "momentum": 0.99, "epsilon": 1e-05, "center": true, "scale": true, "beta_initializer": {"class_name": "Zeros", "config": {}}, "gamma_initializer": {"class_name": "Ones", "config": {}}, "moving_mean_initializer": {"class_name": "Zeros", "config": {}}, "moving_variance_initializer": {"class_name": "Ones", "config": {}}, "beta_regularizer": null, "gamma_regularizer": null, "beta_constraint": null, "gamma_constraint": null, "freeze": true}, "inbound_nodes": [[["res3a_branch2c", 0, 0, {}]]]}, {"name": "bn3a_branch1", "class_name": "BatchNormalization", "config": {"name": "bn3a_branch1", "trainable": false, "axis": 3, "momentum": 0.99, "epsilon": 1e-05, "center": true, "scale": true, "beta_initializer": {"class_name": "Zeros", "config": {}}, "gamma_initializer": {"class_name": "Ones", "config": {}}, "moving_mean_initializer": {"class_name": "Zeros", "config": {}}, "moving_variance_initializer": {"class_name": "Ones", "config": {}}, "beta_regularizer": null, "gamma_regularizer": null, "beta_constraint": null, "gamma_constraint": null, "freeze": true}, "inbound_nodes": [[["res3a_branch1", 0, 0, {}]]]}, {"name": "res3a", "class_name": "Add", "config": {"name": "res3a", "trainable": true}, "inbound_nodes": [[["bn3a_branch2c", 0, 0, {}], ["bn3a_branch1", 0, 0, {}]]]}, {"name": "res3a_relu", "class_name": "Activation", "config": {"name": "res3a_relu", "trainable": true, "activation": "relu"}, "inbound_nodes": [[["res3a", 0, 0, {}]]]}, {"name": "res3b1_branch2a", "class_name": "Conv2D", "config": {"name": "res3b1_branch2a", "trainable": true, "filters": 128, "kernel_size": [1, 1], "strides": [1, 1], "padding": "valid", "data_format": "channels_last", "dilation_rate": [1, 1], "activation": "linear", "use_bias": false, "kernel_initializer": {"class_name": "VarianceScaling", "config": {"scale": 2.0, "mode": "fan_in", "distribution": "normal", "seed": null}}, "bias_initializer": {"class_name": "Zeros", "config": {}}, "kernel_regularizer": null, "bias_regularizer": null, "activity_regularizer": null, "kernel_constraint": null, "bias_constraint": null}, "inbound_nodes": [[["res3a_relu", 0, 0, {}]]]}, {"name": "bn3b1_branch2a", "class_name": "BatchNormalization", "config": {"name": "bn3b1_branch2a", "trainable": false, "axis": 3, "momentum": 0.99, "epsilon": 1e-05, "center": true, "scale": true, "beta_initializer": {"class_name": "Zeros", "config": {}}, "gamma_initializer": {"class_name": "Ones", "config": {}}, "moving_mean_initializer": {"class_name": "Zeros", "config": {}}, "moving_variance_initializer": {"class_name": "Ones", "config": {}}, "beta_regularizer": null, "gamma_regularizer": null, "beta_constraint": null, "gamma_constraint": null, "freeze": true}, "inbound_nodes": [[["res3b1_branch2a", 0, 0, {}]]]}, {"name": "res3b1_branch2a_relu", "class_name": "Activation", "config": {"name": "res3b1_branch2a_relu", "trainable": true, "activation": "relu"}, "inbound_nodes": [[["bn3b1_branch2a", 0, 0, {}]]]}, {"name": "padding3b1_branch2b", "class_name": "ZeroPadding2D", "config": {"name": "padding3b1_branch2b", "trainable": true, "padding": [[1, 1], [1, 1]], "data_format": "channels_last"}, "inbound_nodes": [[["res3b1_branch2a_relu", 0, 0, {}]]]}, {"name": "res3b1_branch2b", "class_name": "Conv2D", "config": {"name": "res3b1_branch2b", "trainable": true, "filters": 128, "kernel_size": [3, 3], "strides": [1, 1], "padding": "valid", "data_format": "channels_last", "dilation_rate": [1, 1], "activation": "linear", "use_bias": false, "kernel_initializer": {"class_name": "VarianceScaling", "config": {"scale": 2.0, "mode": "fan_in", "distribution": "normal", "seed": null}}, "bias_initializer": {"class_name": "Zeros", "config": {}}, "kernel_regularizer": null, "bias_regularizer": null, "activity_regularizer": null, "kernel_constraint": null, "bias_constraint": null}, "inbound_nodes": [[["padding3b1_branch2b", 0, 0, {}]]]}, {"name": "bn3b1_branch2b", "class_name": "BatchNormalization", "config": {"name": "bn3b1_branch2b", "trainable": false, "axis": 3, "momentum": 0.99, "epsilon": 1e-05, "center": true, "scale": true, "beta_initializer": {"class_name": "Zeros", "config": {}}, "gamma_initializer": {"class_name": "Ones", "config": {}}, "moving_mean_initializer": {"class_name": "Zeros", "config": {}}, "moving_variance_initializer": {"class_name": "Ones", "config": {}}, "beta_regularizer": null, "gamma_regularizer": null, "beta_constraint": null, "gamma_constraint": null, "freeze": true}, "inbound_nodes": [[["res3b1_branch2b", 0, 0, {}]]]}, {"name": "res3b1_branch2b_relu", "class_name": "Activation", "config": {"name": "res3b1_branch2b_relu", "trainable": true, "activation": "relu"}, "inbound_nodes": [[["bn3b1_branch2b", 0, 0, {}]]]}, {"name": "res3b1_branch2c", "class_name": "Conv2D", "config": {"name": "res3b1_branch2c", "trainable": true, "filters": 512, "kernel_size": [1, 1], "strides": [1, 1], "padding": "valid", "data_format": "channels_last", "dilation_rate": [1, 1], "activation": "linear", "use_bias": false, "kernel_initializer": {"class_name": "VarianceScaling", "config": {"scale": 2.0, "mode": "fan_in", "distribution": "normal", "seed": null}}, "bias_initializer": {"class_name": "Zeros", "config": {}}, "kernel_regularizer": null, "bias_regularizer": null, "activity_regularizer": null, "kernel_constraint": null, "bias_constraint": null}, "inbound_nodes": [[["res3b1_branch2b_relu", 0, 0, {}]]]}, {"name": "bn3b1_branch2c", "class_name": "BatchNormalization", "config": {"name": "bn3b1_branch2c", "trainable": false, "axis": 3, "momentum": 0.99, "epsilon": 1e-05, "center": true, "scale": true, "beta_initializer": {"class_name": "Zeros", "config": {}}, "gamma_initializer": {"class_name": "Ones", "config": {}}, "moving_mean_initializer": {"class_name": "Zeros", "config": {}}, "moving_variance_initializer": {"class_name": "Ones", "config": {}}, "beta_regularizer": null, "gamma_regularizer": null, "beta_constraint": null, "gamma_constraint": null, "freeze": true}, "inbound_nodes": [[["res3b1_branch2c", 0, 0, {}]]]}, {"name": "res3b1", "class_name": "Add", "config": {"name": "res3b1", "trainable": true}, "inbound_nodes": [[["bn3b1_branch2c", 0, 0, {}], ["res3a_relu", 0, 0, {}]]]}, {"name": "res3b1_relu", "class_name": "Activation", "config": {"name": "res3b1_relu", "trainable": true, "activation": "relu"}, "inbound_nodes": [[["res3b1", 0, 0, {}]]]}, {"name": "res3b2_branch2a", "class_name": "Conv2D", "config": {"name": "res3b2_branch2a", "trainable": true, "filters": 128, "kernel_size": [1, 1], "strides": [1, 1], "padding": "valid", "data_format": "channels_last", "dilation_rate": [1, 1], "activation": "linear", "use_bias": false, "kernel_initializer": {"class_name": "VarianceScaling", "config": {"scale": 2.0, "mode": "fan_in", "distribution": "normal", "seed": null}}, "bias_initializer": {"class_name": "Zeros", "config": {}}, "kernel_regularizer": null, "bias_regularizer": null, "activity_regularizer": null, "kernel_constraint": null, "bias_constraint": null}, "inbound_nodes": [[["res3b1_relu", 0, 0, {}]]]}, {"name": "bn3b2_branch2a", "class_name": "BatchNormalization", "config": {"name": "bn3b2_branch2a", "trainable": false, "axis": 3, "momentum": 0.99, "epsilon": 1e-05, "center": true, "scale": true, "beta_initializer": {"class_name": "Zeros", "config": {}}, "gamma_initializer": {"class_name": "Ones", "config": {}}, "moving_mean_initializer": {"class_name": "Zeros", "config": {}}, "moving_variance_initializer": {"class_name": "Ones", "config": {}}, "beta_regularizer": null, "gamma_regularizer": null, "beta_constraint": null, "gamma_constraint": null, "freeze": true}, "inbound_nodes": [[["res3b2_branch2a", 0, 0, {}]]]}, {"name": "res3b2_branch2a_relu", "class_name": "Activation", "config": {"name": "res3b2_branch2a_relu", "trainable": true, "activation": "relu"}, "inbound_nodes": [[["bn3b2_branch2a", 0, 0, {}]]]}, {"name": "padding3b2_branch2b", "class_name": "ZeroPadding2D", "config": {"name": "padding3b2_branch2b", "trainable": true, "padding": [[1, 1], [1, 1]], "data_format": "channels_last"}, "inbound_nodes": [[["res3b2_branch2a_relu", 0, 0, {}]]]}, {"name": "res3b2_branch2b", "class_name": "Conv2D", "config": {"name": "res3b2_branch2b", "trainable": true, "filters": 128, "kernel_size": [3, 3], "strides": [1, 1], "padding": "valid", "data_format": "channels_last", "dilation_rate": [1, 1], "activation": "linear", "use_bias": false, "kernel_initializer": {"class_name": "VarianceScaling", "config": {"scale": 2.0, "mode": "fan_in", "distribution": "normal", "seed": null}}, "bias_initializer": {"class_name": "Zeros", "config": {}}, "kernel_regularizer": null, "bias_regularizer": null, "activity_regularizer": null, "kernel_constraint": null, "bias_constraint": null}, "inbound_nodes": [[["padding3b2_branch2b", 0, 0, {}]]]}, {"name": "bn3b2_branch2b", "class_name": "BatchNormalization", "config": {"name": "bn3b2_branch2b", "trainable": false, "axis": 3, "momentum": 0.99, "epsilon": 1e-05, "center": true, "scale": true, "beta_initializer": {"class_name": "Zeros", "config": {}}, "gamma_initializer": {"class_name": "Ones", "config": {}}, "moving_mean_initializer": {"class_name": "Zeros", "config": {}}, "moving_variance_initializer": {"class_name": "Ones", "config": {}}, "beta_regularizer": null, "gamma_regularizer": null, "beta_constraint": null, "gamma_constraint": null, "freeze": true}, "inbound_nodes": [[["res3b2_branch2b", 0, 0, {}]]]}, {"name": "res3b2_branch2b_relu", "class_name": "Activation", "config": {"name": "res3b2_branch2b_relu", "trainable": true, "activation": "relu"}, "inbound_nodes": [[["bn3b2_branch2b", 0, 0, {}]]]}, {"name": "res3b2_branch2c", "class_name": "Conv2D", "config": {"name": "res3b2_branch2c", "trainable": true, "filters": 512, "kernel_size": [1, 1], "strides": [1, 1], "padding": "valid", "data_format": "channels_last", "dilation_rate": [1, 1], "activation": "linear", "use_bias": false, "kernel_initializer": {"class_name": "VarianceScaling", "config": {"scale": 2.0, "mode": "fan_in", "distribution": "normal", "seed": null}}, "bias_initializer": {"class_name": "Zeros", "config": {}}, "kernel_regularizer": null, "bias_regularizer": null, "activity_regularizer": null, "kernel_constraint": null, "bias_constraint": null}, "inbound_nodes": [[["res3b2_branch2b_relu", 0, 0, {}]]]}, {"name": "bn3b2_branch2c", "class_name": "BatchNormalization", "config": {"name": "bn3b2_branch2c", "trainable": false, "axis": 3, "momentum": 0.99, "epsilon": 1e-05, "center": true, "scale": true, "beta_initializer": {"class_name": "Zeros", "config": {}}, "gamma_initializer": {"class_name": "Ones", "config": {}}, "moving_mean_initializer": {"class_name": "Zeros", "config": {}}, "moving_variance_initializer": {"class_name": "Ones", "config": {}}, "beta_regularizer": null, "gamma_regularizer": null, "beta_constraint": null, "gamma_constraint": null, "freeze": true}, "inbound_nodes": [[["res3b2_branch2c", 0, 0, {}]]]}, {"name": "res3b2", "class_name": "Add", "config": {"name": "res3b2", "trainable": true}, "inbound_nodes": [[["bn3b2_branch2c", 0, 0, {}], ["res3b1_relu", 0, 0, {}]]]}, {"name": "res3b2_relu", "class_name": "Activation", "config": {"name": "res3b2_relu", "trainable": true, "activation": "relu"}, "inbound_nodes": [[["res3b2", 0, 0, {}]]]}, {"name": "res3b3_branch2a", "class_name": "Conv2D", "config": {"name": "res3b3_branch2a", "trainable": true, "filters": 128, "kernel_size": [1, 1], "strides": [1, 1], "padding": "valid", "data_format": "channels_last", "dilation_rate": [1, 1], "activation": "linear", "use_bias": false, "kernel_initializer": {"class_name": "VarianceScaling", "config": {"scale": 2.0, "mode": "fan_in", "distribution": "normal", "seed": null}}, "bias_initializer": {"class_name": "Zeros", "config": {}}, "kernel_regularizer": null, "bias_regularizer": null, "activity_regularizer": null, "kernel_constraint": null, "bias_constraint": null}, "inbound_nodes": [[["res3b2_relu", 0, 0, {}]]]}, {"name": "bn3b3_branch2a", "class_name": "BatchNormalization", "config": {"name": "bn3b3_branch2a", "trainable": false, "axis": 3, "momentum": 0.99, "epsilon": 1e-05, "center": true, "scale": true, "beta_initializer": {"class_name": "Zeros", "config": {}}, "gamma_initializer": {"class_name": "Ones", "config": {}}, "moving_mean_initializer": {"class_name": "Zeros", "config": {}}, "moving_variance_initializer": {"class_name": "Ones", "config": {}}, "beta_regularizer": null, "gamma_regularizer": null, "beta_constraint": null, "gamma_constraint": null, "freeze": true}, "inbound_nodes": [[["res3b3_branch2a", 0, 0, {}]]]}, {"name": "res3b3_branch2a_relu", "class_name": "Activation", "config": {"name": "res3b3_branch2a_relu", "trainable": true, "activation": "relu"}, "inbound_nodes": [[["bn3b3_branch2a", 0, 0, {}]]]}, {"name": "padding3b3_branch2b", "class_name": "ZeroPadding2D", "config": {"name": "padding3b3_branch2b", "trainable": true, "padding": [[1, 1], [1, 1]], "data_format": "channels_last"}, "inbound_nodes": [[["res3b3_branch2a_relu", 0, 0, {}]]]}, {"name": "res3b3_branch2b", "class_name": "Conv2D", "config": {"name": "res3b3_branch2b", "trainable": true, "filters": 128, "kernel_size": [3, 3], "strides": [1, 1], "padding": "valid", "data_format": "channels_last", "dilation_rate": [1, 1], "activation": "linear", "use_bias": false, "kernel_initializer": {"class_name": "VarianceScaling", "config": {"scale": 2.0, "mode": "fan_in", "distribution": "normal", "seed": null}}, "bias_initializer": {"class_name": "Zeros", "config": {}}, "kernel_regularizer": null, "bias_regularizer": null, "activity_regularizer": null, "kernel_constraint": null, "bias_constraint": null}, "inbound_nodes": [[["padding3b3_branch2b", 0, 0, {}]]]}, {"name": "bn3b3_branch2b", "class_name": "BatchNormalization", "config": {"name": "bn3b3_branch2b", "trainable": false, "axis": 3, "momentum": 0.99, "epsilon": 1e-05, "center": true, "scale": true, "beta_initializer": {"class_name": "Zeros", "config": {}}, "gamma_initializer": {"class_name": "Ones", "config": {}}, "moving_mean_initializer": {"class_name": "Zeros", "config": {}}, "moving_variance_initializer": {"class_name": "Ones", "config": {}}, "beta_regularizer": null, "gamma_regularizer": null, "beta_constraint": null, "gamma_constraint": null, "freeze": true}, "inbound_nodes": [[["res3b3_branch2b", 0, 0, {}]]]}, {"name": "res3b3_branch2b_relu", "class_name": "Activation", "config": {"name": "res3b3_branch2b_relu", "trainable": true, "activation": "relu"}, "inbound_nodes": [[["bn3b3_branch2b", 0, 0, {}]]]}, {"name": "res3b3_branch2c", "class_name": "Conv2D", "config": {"name": "res3b3_branch2c", "trainable": true, "filters": 512, "kernel_size": [1, 1], "strides": [1, 1], "padding": "valid", "data_format": "channels_last", "dilation_rate": [1, 1], "activation": "linear", "use_bias": false, "kernel_initializer": {"class_name": "VarianceScaling", "config": {"scale": 2.0, "mode": "fan_in", "distribution": "normal", "seed": null}}, "bias_initializer": {"class_name": "Zeros", "config": {}}, "kernel_regularizer": null, "bias_regularizer": null, "activity_regularizer": null, "kernel_constraint": null, "bias_constraint": null}, "inbound_nodes": [[["res3b3_branch2b_relu", 0, 0, {}]]]}, {"name": "bn3b3_branch2c", "class_name": "BatchNormalization", "config": {"name": "bn3b3_branch2c", "trainable": false, "axis": 3, "momentum": 0.99, "epsilon": 1e-05, "center": true, "scale": true, "beta_initializer": {"class_name": "Zeros", "config": {}}, "gamma_initializer": {"class_name": "Ones", "config": {}}, "moving_mean_initializer": {"class_name": "Zeros", "config": {}}, "moving_variance_initializer": {"class_name": "Ones", "config": {}}, "beta_regularizer": null, "gamma_regularizer": null, "beta_constraint": null, "gamma_constraint": null, "freeze": true}, "inbound_nodes": [[["res3b3_branch2c", 0, 0, {}]]]}, {"name": "res3b3", "class_name": "Add", "config": {"name": "res3b3", "trainable": true}, "inbound_nodes": [[["bn3b3_branch2c", 0, 0, {}], ["res3b2_relu", 0, 0, {}]]]}, {"name": "res3b3_relu", "class_name": "Activation", "config": {"name": "res3b3_relu", "trainable": true, "activation": "relu"}, "inbound_nodes": [[["res3b3", 0, 0, {}]]]}, {"name": "res4a_branch2a", "class_name": "Conv2D", "config": {"name": "res4a_branch2a", "trainable": true, "filters": 256, "kernel_size": [1, 1], "strides": [2, 2], "padding": "valid", "data_format": "channels_last", "dilation_rate": [1, 1], "activation": "linear", "use_bias": false, "kernel_initializer": {"class_name": "VarianceScaling", "config": {"scale": 2.0, "mode": "fan_in", "distribution": "normal", "seed": null}}, "bias_initializer": {"class_name": "Zeros", "config": {}}, "kernel_regularizer": null, "bias_regularizer": null, "activity_regularizer": null, "kernel_constraint": null, "bias_constraint": null}, "inbound_nodes": [[["res3b3_relu", 0, 0, {}]]]}, {"name": "bn4a_branch2a", "class_name": "BatchNormalization", "config": {"name": "bn4a_branch2a", "trainable": false, "axis": 3, "momentum": 0.99, "epsilon": 1e-05, "center": true, "scale": true, "beta_initializer": {"class_name": "Zeros", "config": {}}, "gamma_initializer": {"class_name": "Ones", "config": {}}, "moving_mean_initializer": {"class_name": "Zeros", "config": {}}, "moving_variance_initializer": {"class_name": "Ones", "config": {}}, "beta_regularizer": null, "gamma_regularizer": null, "beta_constraint": null, "gamma_constraint": null, "freeze": true}, "inbound_nodes": [[["res4a_branch2a", 0, 0, {}]]]}, {"name": "res4a_branch2a_relu", "class_name": "Activation", "config": {"name": "res4a_branch2a_relu", "trainable": true, "activation": "relu"}, "inbound_nodes": [[["bn4a_branch2a", 0, 0, {}]]]}, {"name": "padding4a_branch2b", "class_name": "ZeroPadding2D", "config": {"name": "padding4a_branch2b", "trainable": true, "padding": [[1, 1], [1, 1]], "data_format": "channels_last"}, "inbound_nodes": [[["res4a_branch2a_relu", 0, 0, {}]]]}, {"name": "res4a_branch2b", "class_name": "Conv2D", "config": {"name": "res4a_branch2b", "trainable": true, "filters": 256, "kernel_size": [3, 3], "strides": [1, 1], "padding": "valid", "data_format": "channels_last", "dilation_rate": [1, 1], "activation": "linear", "use_bias": false, "kernel_initializer": {"class_name": "VarianceScaling", "config": {"scale": 2.0, "mode": "fan_in", "distribution": "normal", "seed": null}}, "bias_initializer": {"class_name": "Zeros", "config": {}}, "kernel_regularizer": null, "bias_regularizer": null, "activity_regularizer": null, "kernel_constraint": null, "bias_constraint": null}, "inbound_nodes": [[["padding4a_branch2b", 0, 0, {}]]]}, {"name": "bn4a_branch2b", "class_name": "BatchNormalization", "config": {"name": "bn4a_branch2b", "trainable": false, "axis": 3, "momentum": 0.99, "epsilon": 1e-05, "center": true, "scale": true, "beta_initializer": {"class_name": "Zeros", "config": {}}, "gamma_initializer": {"class_name": "Ones", "config": {}}, "moving_mean_initializer": {"class_name": "Zeros", "config": {}}, "moving_variance_initializer": {"class_name": "Ones", "config": {}}, "beta_regularizer": null, "gamma_regularizer": null, "beta_constraint": null, "gamma_constraint": null, "freeze": true}, "inbound_nodes": [[["res4a_branch2b", 0, 0, {}]]]}, {"name": "res4a_branch2b_relu", "class_name": "Activation", "config": {"name": "res4a_branch2b_relu", "trainable": true, "activation": "relu"}, "inbound_nodes": [[["bn4a_branch2b", 0, 0, {}]]]}, {"name": "res4a_branch2c", "class_name": "Conv2D", "config": {"name": "res4a_branch2c", "trainable": true, "filters": 1024, "kernel_size": [1, 1], "strides": [1, 1], "padding": "valid", "data_format": "channels_last", "dilation_rate": [1, 1], "activation": "linear", "use_bias": false, "kernel_initializer": {"class_name": "VarianceScaling", "config": {"scale": 2.0, "mode": "fan_in", "distribution": "normal", "seed": null}}, "bias_initializer": {"class_name": "Zeros", "config": {}}, "kernel_regularizer": null, "bias_regularizer": null, "activity_regularizer": null, "kernel_constraint": null, "bias_constraint": null}, "inbound_nodes": [[["res4a_branch2b_relu", 0, 0, {}]]]}, {"name": "res4a_branch1", "class_name": "Conv2D", "config": {"name": "res4a_branch1", "trainable": true, "filters": 1024, "kernel_size": [1, 1], "strides": [2, 2], "padding": "valid", "data_format": "channels_last", "dilation_rate": [1, 1], "activation": "linear", "use_bias": false, "kernel_initializer": {"class_name": "VarianceScaling", "config": {"scale": 2.0, "mode": "fan_in", "distribution": "normal", "seed": null}}, "bias_initializer": {"class_name": "Zeros", "config": {}}, "kernel_regularizer": null, "bias_regularizer": null, "activity_regularizer": null, "kernel_constraint": null, "bias_constraint": null}, "inbound_nodes": [[["res3b3_relu", 0, 0, {}]]]}, {"name": "bn4a_branch2c", "class_name": "BatchNormalization", "config": {"name": "bn4a_branch2c", "trainable": false, "axis": 3, "momentum": 0.99, "epsilon": 1e-05, "center": true, "scale": true, "beta_initializer": {"class_name": "Zeros", "config": {}}, "gamma_initializer": {"class_name": "Ones", "config": {}}, "moving_mean_initializer": {"class_name": "Zeros", "config": {}}, "moving_variance_initializer": {"class_name": "Ones", "config": {}}, "beta_regularizer": null, "gamma_regularizer": null, "beta_constraint": null, "gamma_constraint": null, "freeze": true}, "inbound_nodes": [[["res4a_branch2c", 0, 0, {}]]]}, {"name": "bn4a_branch1", "class_name": "BatchNormalization", "config": {"name": "bn4a_branch1", "trainable": false, "axis": 3, "momentum": 0.99, "epsilon": 1e-05, "center": true, "scale": true, "beta_initializer": {"class_name": "Zeros", "config": {}}, "gamma_initializer": {"class_name": "Ones", "config": {}}, "moving_mean_initializer": {"class_name": "Zeros", "config": {}}, "moving_variance_initializer": {"class_name": "Ones", "config": {}}, "beta_regularizer": null, "gamma_regularizer": null, "beta_constraint": null, "gamma_constraint": null, "freeze": true}, "inbound_nodes": [[["res4a_branch1", 0, 0, {}]]]}, {"name": "res4a", "class_name": "Add", "config": {"name": "res4a", "trainable": true}, "inbound_nodes": [[["bn4a_branch2c", 0, 0, {}], ["bn4a_branch1", 0, 0, {}]]]}, {"name": "res4a_relu", "class_name": "Activation", "config": {"name": "res4a_relu", "trainable": true, "activation": "relu"}, "inbound_nodes": [[["res4a", 0, 0, {}]]]}, {"name": "res4b1_branch2a", "class_name": "Conv2D", "config": {"name": "res4b1_branch2a", "trainable": true, "filters": 256, "kernel_size": [1, 1], "strides": [1, 1], "padding": "valid", "data_format": "channels_last", "dilation_rate": [1, 1], "activation": "linear", "use_bias": false, "kernel_initializer": {"class_name": "VarianceScaling", "config": {"scale": 2.0, "mode": "fan_in", "distribution": "normal", "seed": null}}, "bias_initializer": {"class_name": "Zeros", "config": {}}, "kernel_regularizer": null, "bias_regularizer": null, "activity_regularizer": null, "kernel_constraint": null, "bias_constraint": null}, "inbound_nodes": [[["res4a_relu", 0, 0, {}]]]}, {"name": "bn4b1_branch2a", "class_name": "BatchNormalization", "config": {"name": "bn4b1_branch2a", "trainable": false, "axis": 3, "momentum": 0.99, "epsilon": 1e-05, "center": true, "scale": true, "beta_initializer": {"class_name": "Zeros", "config": {}}, "gamma_initializer": {"class_name": "Ones", "config": {}}, "moving_mean_initializer": {"class_name": "Zeros", "config": {}}, "moving_variance_initializer": {"class_name": "Ones", "config": {}}, "beta_regularizer": null, "gamma_regularizer": null, "beta_constraint": null, "gamma_constraint": null, "freeze": true}, "inbound_nodes": [[["res4b1_branch2a", 0, 0, {}]]]}, {"name": "res4b1_branch2a_relu", "class_name": "Activation", "config": {"name": "res4b1_branch2a_relu", "trainable": true, "activation": "relu"}, "inbound_nodes": [[["bn4b1_branch2a", 0, 0, {}]]]}, {"name": "padding4b1_branch2b", "class_name": "ZeroPadding2D", "config": {"name": "padding4b1_branch2b", "trainable": true, "padding": [[1, 1], [1, 1]], "data_format": "channels_last"}, "inbound_nodes": [[["res4b1_branch2a_relu", 0, 0, {}]]]}, {"name": "res4b1_branch2b", "class_name": "Conv2D", "config": {"name": "res4b1_branch2b", "trainable": true, "filters": 256, "kernel_size": [3, 3], "strides": [1, 1], "padding": "valid", "data_format": "channels_last", "dilation_rate": [1, 1], "activation": "linear", "use_bias": false, "kernel_initializer": {"class_name": "VarianceScaling", "config": {"scale": 2.0, "mode": "fan_in", "distribution": "normal", "seed": null}}, "bias_initializer": {"class_name": "Zeros", "config": {}}, "kernel_regularizer": null, "bias_regularizer": null, "activity_regularizer": null, "kernel_constraint": null, "bias_constraint": null}, "inbound_nodes": [[["padding4b1_branch2b", 0, 0, {}]]]}, {"name": "bn4b1_branch2b", "class_name": "BatchNormalization", "config": {"name": "bn4b1_branch2b", "trainable": false, "axis": 3, "momentum": 0.99, "epsilon": 1e-05, "center": true, "scale": true, "beta_initializer": {"class_name": "Zeros", "config": {}}, "gamma_initializer": {"class_name": "Ones", "config": {}}, "moving_mean_initializer": {"class_name": "Zeros", "config": {}}, "moving_variance_initializer": {"class_name": "Ones", "config": {}}, "beta_regularizer": null, "gamma_regularizer": null, "beta_constraint": null, "gamma_constraint": null, "freeze": true}, "inbound_nodes": [[["res4b1_branch2b", 0, 0, {}]]]}, {"name": "res4b1_branch2b_relu", "class_name": "Activation", "config": {"name": "res4b1_branch2b_relu", "trainable": true, "activation": "relu"}, "inbound_nodes": [[["bn4b1_branch2b", 0, 0, {}]]]}, {"name": "res4b1_branch2c", "class_name": "Conv2D", "config": {"name": "res4b1_branch2c", "trainable": true, "filters": 1024, "kernel_size": [1, 1], "strides": [1, 1], "padding": "valid", "data_format": "channels_last", "dilation_rate": [1, 1], "activation": "linear", "use_bias": false, "kernel_initializer": {"class_name": "VarianceScaling", "config": {"scale": 2.0, "mode": "fan_in", "distribution": "normal", "seed": null}}, "bias_initializer": {"class_name": "Zeros", "config": {}}, "kernel_regularizer": null, "bias_regularizer": null, "activity_regularizer": null, "kernel_constraint": null, "bias_constraint": null}, "inbound_nodes": [[["res4b1_branch2b_relu", 0, 0, {}]]]}, {"name": "bn4b1_branch2c", "class_name": "BatchNormalization", "config": {"name": "bn4b1_branch2c", "trainable": false, "axis": 3, "momentum": 0.99, "epsilon": 1e-05, "center": true, "scale": true, "beta_initializer": {"class_name": "Zeros", "config": {}}, "gamma_initializer": {"class_name": "Ones", "config": {}}, "moving_mean_initializer": {"class_name": "Zeros", "config": {}}, "moving_variance_initializer": {"class_name": "Ones", "config": {}}, "beta_regularizer": null, "gamma_regularizer": null, "beta_constraint": null, "gamma_constraint": null, "freeze": true}, "inbound_nodes": [[["res4b1_branch2c", 0, 0, {}]]]}, {"name": "res4b1", "class_name": "Add", "config": {"name": "res4b1", "trainable": true}, "inbound_nodes": [[["bn4b1_branch2c", 0, 0, {}], ["res4a_relu", 0, 0, {}]]]}, {"name": "res4b1_relu", "class_name": "Activation", "config": {"name": "res4b1_relu", "trainable": true, "activation": "relu"}, "inbound_nodes": [[["res4b1", 0, 0, {}]]]}, {"name": "res4b2_branch2a", "class_name": "Conv2D", "config": {"name": "res4b2_branch2a", "trainable": true, "filters": 256, "kernel_size": [1, 1], "strides": [1, 1], "padding": "valid", "data_format": "channels_last", "dilation_rate": [1, 1], "activation": "linear", "use_bias": false, "kernel_initializer": {"class_name": "VarianceScaling", "config": {"scale": 2.0, "mode": "fan_in", "distribution": "normal", "seed": null}}, "bias_initializer": {"class_name": "Zeros", "config": {}}, "kernel_regularizer": null, "bias_regularizer": null, "activity_regularizer": null, "kernel_constraint": null, "bias_constraint": null}, "inbound_nodes": [[["res4b1_relu", 0, 0, {}]]]}, {"name": "bn4b2_branch2a", "class_name": "BatchNormalization", "config": {"name": "bn4b2_branch2a", "trainable": false, "axis": 3, "momentum": 0.99, "epsilon": 1e-05, "center": true, "scale": true, "beta_initializer": {"class_name": "Zeros", "config": {}}, "gamma_initializer": {"class_name": "Ones", "config": {}}, "moving_mean_initializer": {"class_name": "Zeros", "config": {}}, "moving_variance_initializer": {"class_name": "Ones", "config": {}}, "beta_regularizer": null, "gamma_regularizer": null, "beta_constraint": null, "gamma_constraint": null, "freeze": true}, "inbound_nodes": [[["res4b2_branch2a", 0, 0, {}]]]}, {"name": "res4b2_branch2a_relu", "class_name": "Activation", "config": {"name": "res4b2_branch2a_relu", "trainable": true, "activation": "relu"}, "inbound_nodes": [[["bn4b2_branch2a", 0, 0, {}]]]}, {"name": "padding4b2_branch2b", "class_name": "ZeroPadding2D", "config": {"name": "padding4b2_branch2b", "trainable": true, "padding": [[1, 1], [1, 1]], "data_format": "channels_last"}, "inbound_nodes": [[["res4b2_branch2a_relu", 0, 0, {}]]]}, {"name": "res4b2_branch2b", "class_name": "Conv2D", "config": {"name": "res4b2_branch2b", "trainable": true, "filters": 256, "kernel_size": [3, 3], "strides": [1, 1], "padding": "valid", "data_format": "channels_last", "dilation_rate": [1, 1], "activation": "linear", "use_bias": false, "kernel_initializer": {"class_name": "VarianceScaling", "config": {"scale": 2.0, "mode": "fan_in", "distribution": "normal", "seed": null}}, "bias_initializer": {"class_name": "Zeros", "config": {}}, "kernel_regularizer": null, "bias_regularizer": null, "activity_regularizer": null, "kernel_constraint": null, "bias_constraint": null}, "inbound_nodes": [[["padding4b2_branch2b", 0, 0, {}]]]}, {"name": "bn4b2_branch2b", "class_name": "BatchNormalization", "config": {"name": "bn4b2_branch2b", "trainable": false, "axis": 3, "momentum": 0.99, "epsilon": 1e-05, "center": true, "scale": true, "beta_initializer": {"class_name": "Zeros", "config": {}}, "gamma_initializer": {"class_name": "Ones", "config": {}}, "moving_mean_initializer": {"class_name": "Zeros", "config": {}}, "moving_variance_initializer": {"class_name": "Ones", "config": {}}, "beta_regularizer": null, "gamma_regularizer": null, "beta_constraint": null, "gamma_constraint": null, "freeze": true}, "inbound_nodes": [[["res4b2_branch2b", 0, 0, {}]]]}, {"name": "res4b2_branch2b_relu", "class_name": "Activation", "config": {"name": "res4b2_branch2b_relu", "trainable": true, "activation": "relu"}, "inbound_nodes": [[["bn4b2_branch2b", 0, 0, {}]]]}, {"name": "res4b2_branch2c", "class_name": "Conv2D", "config": {"name": "res4b2_branch2c", "trainable": true, "filters": 1024, "kernel_size": [1, 1], "strides": [1, 1], "padding": "valid", "data_format": "channels_last", "dilation_rate": [1, 1], "activation": "linear", "use_bias": false, "kernel_initializer": {"class_name": "VarianceScaling", "config": {"scale": 2.0, "mode": "fan_in", "distribution": "normal", "seed": null}}, "bias_initializer": {"class_name": "Zeros", "config": {}}, "kernel_regularizer": null, "bias_regularizer": null, "activity_regularizer": null, "kernel_constraint": null, "bias_constraint": null}, "inbound_nodes": [[["res4b2_branch2b_relu", 0, 0, {}]]]}, {"name": "bn4b2_branch2c", "class_name": "BatchNormalization", "config": {"name": "bn4b2_branch2c", "trainable": false, "axis": 3, "momentum": 0.99, "epsilon": 1e-05, "center": true, "scale": true, "beta_initializer": {"class_name": "Zeros", "config": {}}, "gamma_initializer": {"class_name": "Ones", "config": {}}, "moving_mean_initializer": {"class_name": "Zeros", "config": {}}, "moving_variance_initializer": {"class_name": "Ones", "config": {}}, "beta_regularizer": null, "gamma_regularizer": null, "beta_constraint": null, "gamma_constraint": null, "freeze": true}, "inbound_nodes": [[["res4b2_branch2c", 0, 0, {}]]]}, {"name": "res4b2", "class_name": "Add", "config": {"name": "res4b2", "trainable": true}, "inbound_nodes": [[["bn4b2_branch2c", 0, 0, {}], ["res4b1_relu", 0, 0, {}]]]}, {"name": "res4b2_relu", "class_name": "Activation", "config": {"name": "res4b2_relu", "trainable": true, "activation": "relu"}, "inbound_nodes": [[["res4b2", 0, 0, {}]]]}, {"name": "res4b3_branch2a", "class_name": "Conv2D", "config": {"name": "res4b3_branch2a", "trainable": true, "filters": 256, "kernel_size": [1, 1], "strides": [1, 1], "padding": "valid", "data_format": "channels_last", "dilation_rate": [1, 1], "activation": "linear", "use_bias": false, "kernel_initializer": {"class_name": "VarianceScaling", "config": {"scale": 2.0, "mode": "fan_in", "distribution": "normal", "seed": null}}, "bias_initializer": {"class_name": "Zeros", "config": {}}, "kernel_regularizer": null, "bias_regularizer": null, "activity_regularizer": null, "kernel_constraint": null, "bias_constraint": null}, "inbound_nodes": [[["res4b2_relu", 0, 0, {}]]]}, {"name": "bn4b3_branch2a", "class_name": "BatchNormalization", "config": {"name": "bn4b3_branch2a", "trainable": false, "axis": 3, "momentum": 0.99, "epsilon": 1e-05, "center": true, "scale": true, "beta_initializer": {"class_name": "Zeros", "config": {}}, "gamma_initializer": {"class_name": "Ones", "config": {}}, "moving_mean_initializer": {"class_name": "Zeros", "config": {}}, "moving_variance_initializer": {"class_name": "Ones", "config": {}}, "beta_regularizer": null, "gamma_regularizer": null, "beta_constraint": null, "gamma_constraint": null, "freeze": true}, "inbound_nodes": [[["res4b3_branch2a", 0, 0, {}]]]}, {"name": "res4b3_branch2a_relu", "class_name": "Activation", "config": {"name": "res4b3_branch2a_relu", "trainable": true, "activation": "relu"}, "inbound_nodes": [[["bn4b3_branch2a", 0, 0, {}]]]}, {"name": "padding4b3_branch2b", "class_name": "ZeroPadding2D", "config": {"name": "padding4b3_branch2b", "trainable": true, "padding": [[1, 1], [1, 1]], "data_format": "channels_last"}, "inbound_nodes": [[["res4b3_branch2a_relu", 0, 0, {}]]]}, {"name": "res4b3_branch2b", "class_name": "Conv2D", "config": {"name": "res4b3_branch2b", "trainable": true, "filters": 256, "kernel_size": [3, 3], "strides": [1, 1], "padding": "valid", "data_format": "channels_last", "dilation_rate": [1, 1], "activation": "linear", "use_bias": false, "kernel_initializer": {"class_name": "VarianceScaling", "config": {"scale": 2.0, "mode": "fan_in", "distribution": "normal", "seed": null}}, "bias_initializer": {"class_name": "Zeros", "config": {}}, "kernel_regularizer": null, "bias_regularizer": null, "activity_regularizer": null, "kernel_constraint": null, "bias_constraint": null}, "inbound_nodes": [[["padding4b3_branch2b", 0, 0, {}]]]}, {"name": "bn4b3_branch2b", "class_name": "BatchNormalization", "config": {"name": "bn4b3_branch2b", "trainable": false, "axis": 3, "momentum": 0.99, "epsilon": 1e-05, "center": true, "scale": true, "beta_initializer": {"class_name": "Zeros", "config": {}}, "gamma_initializer": {"class_name": "Ones", "config": {}}, "moving_mean_initializer": {"class_name": "Zeros", "config": {}}, "moving_variance_initializer": {"class_name": "Ones", "config": {}}, "beta_regularizer": null, "gamma_regularizer": null, "beta_constraint": null, "gamma_constraint": null, "freeze": true}, "inbound_nodes": [[["res4b3_branch2b", 0, 0, {}]]]}, {"name": "res4b3_branch2b_relu", "class_name": "Activation", "config": {"name": "res4b3_branch2b_relu", "trainable": true, "activation": "relu"}, "inbound_nodes": [[["bn4b3_branch2b", 0, 0, {}]]]}, {"name": "res4b3_branch2c", "class_name": "Conv2D", "config": {"name": "res4b3_branch2c", "trainable": true, "filters": 1024, "kernel_size": [1, 1], "strides": [1, 1], "padding": "valid", "data_format": "channels_last", "dilation_rate": [1, 1], "activation": "linear", "use_bias": false, "kernel_initializer": {"class_name": "VarianceScaling", "config": {"scale": 2.0, "mode": "fan_in", "distribution": "normal", "seed": null}}, "bias_initializer": {"class_name": "Zeros", "config": {}}, "kernel_regularizer": null, "bias_regularizer": null, "activity_regularizer": null, "kernel_constraint": null, "bias_constraint": null}, "inbound_nodes": [[["res4b3_branch2b_relu", 0, 0, {}]]]}, {"name": "bn4b3_branch2c", "class_name": "BatchNormalization", "config": {"name": "bn4b3_branch2c", "trainable": false, "axis": 3, "momentum": 0.99, "epsilon": 1e-05, "center": true, "scale": true, "beta_initializer": {"class_name": "Zeros", "config": {}}, "gamma_initializer": {"class_name": "Ones", "config": {}}, "moving_mean_initializer": {"class_name": "Zeros", "config": {}}, "moving_variance_initializer": {"class_name": "Ones", "config": {}}, "beta_regularizer": null, "gamma_regularizer": null, "beta_constraint": null, "gamma_constraint": null, "freeze": true}, "inbound_nodes": [[["res4b3_branch2c", 0, 0, {}]]]}, {"name": "res4b3", "class_name": "Add", "config": {"name": "res4b3", "trainable": true}, "inbound_nodes": [[["bn4b3_branch2c", 0, 0, {}], ["res4b2_relu", 0, 0, {}]]]}, {"name": "res4b3_relu", "class_name": "Activation", "config": {"name": "res4b3_relu", "trainable": true, "activation": "relu"}, "inbound_nodes": [[["res4b3", 0, 0, {}]]]}, {"name": "res4b4_branch2a", "class_name": "Conv2D", "config": {"name": "res4b4_branch2a", "trainable": true, "filters": 256, "kernel_size": [1, 1], "strides": [1, 1], "padding": "valid", "data_format": "channels_last", "dilation_rate": [1, 1], "activation": "linear", "use_bias": false, "kernel_initializer": {"class_name": "VarianceScaling", "config": {"scale": 2.0, "mode": "fan_in", "distribution": "normal", "seed": null}}, "bias_initializer": {"class_name": "Zeros", "config": {}}, "kernel_regularizer": null, "bias_regularizer": null, "activity_regularizer": null, "kernel_constraint": null, "bias_constraint": null}, "inbound_nodes": [[["res4b3_relu", 0, 0, {}]]]}, {"name": "bn4b4_branch2a", "class_name": "BatchNormalization", "config": {"name": "bn4b4_branch2a", "trainable": false, "axis": 3, "momentum": 0.99, "epsilon": 1e-05, "center": true, "scale": true, "beta_initializer": {"class_name": "Zeros", "config": {}}, "gamma_initializer": {"class_name": "Ones", "config": {}}, "moving_mean_initializer": {"class_name": "Zeros", "config": {}}, "moving_variance_initializer": {"class_name": "Ones", "config": {}}, "beta_regularizer": null, "gamma_regularizer": null, "beta_constraint": null, "gamma_constraint": null, "freeze": true}, "inbound_nodes": [[["res4b4_branch2a", 0, 0, {}]]]}, {"name": "res4b4_branch2a_relu", "class_name": "Activation", "config": {"name": "res4b4_branch2a_relu", "trainable": true, "activation": "relu"}, "inbound_nodes": [[["bn4b4_branch2a", 0, 0, {}]]]}, {"name": "padding4b4_branch2b", "class_name": "ZeroPadding2D", "config": {"name": "padding4b4_branch2b", "trainable": true, "padding": [[1, 1], [1, 1]], "data_format": "channels_last"}, "inbound_nodes": [[["res4b4_branch2a_relu", 0, 0, {}]]]}, {"name": "res4b4_branch2b", "class_name": "Conv2D", "config": {"name": "res4b4_branch2b", "trainable": true, "filters": 256, "kernel_size": [3, 3], "strides": [1, 1], "padding": "valid", "data_format": "channels_last", "dilation_rate": [1, 1], "activation": "linear", "use_bias": false, "kernel_initializer": {"class_name": "VarianceScaling", "config": {"scale": 2.0, "mode": "fan_in", "distribution": "normal", "seed": null}}, "bias_initializer": {"class_name": "Zeros", "config": {}}, "kernel_regularizer": null, "bias_regularizer": null, "activity_regularizer": null, "kernel_constraint": null, "bias_constraint": null}, "inbound_nodes": [[["padding4b4_branch2b", 0, 0, {}]]]}, {"name": "bn4b4_branch2b", "class_name": "BatchNormalization", "config": {"name": "bn4b4_branch2b", "trainable": false, "axis": 3, "momentum": 0.99, "epsilon": 1e-05, "center": true, "scale": true, "beta_initializer": {"class_name": "Zeros", "config": {}}, "gamma_initializer": {"class_name": "Ones", "config": {}}, "moving_mean_initializer": {"class_name": "Zeros", "config": {}}, "moving_variance_initializer": {"class_name": "Ones", "config": {}}, "beta_regularizer": null, "gamma_regularizer": null, "beta_constraint": null, "gamma_constraint": null, "freeze": true}, "inbound_nodes": [[["res4b4_branch2b", 0, 0, {}]]]}, {"name": "res4b4_branch2b_relu", "class_name": "Activation", "config": {"name": "res4b4_branch2b_relu", "trainable": true, "activation": "relu"}, "inbound_nodes": [[["bn4b4_branch2b", 0, 0, {}]]]}, {"name": "res4b4_branch2c", "class_name": "Conv2D", "config": {"name": "res4b4_branch2c", "trainable": true, "filters": 1024, "kernel_size": [1, 1], "strides": [1, 1], "padding": "valid", "data_format": "channels_last", "dilation_rate": [1, 1], "activation": "linear", "use_bias": false, "kernel_initializer": {"class_name": "VarianceScaling", "config": {"scale": 2.0, "mode": "fan_in", "distribution": "normal", "seed": null}}, "bias_initializer": {"class_name": "Zeros", "config": {}}, "kernel_regularizer": null, "bias_regularizer": null, "activity_regularizer": null, "kernel_constraint": null, "bias_constraint": null}, "inbound_nodes": [[["res4b4_branch2b_relu", 0, 0, {}]]]}, {"name": "bn4b4_branch2c", "class_name": "BatchNormalization", "config": {"name": "bn4b4_branch2c", "trainable": false, "axis": 3, "momentum": 0.99, "epsilon": 1e-05, "center": true, "scale": true, "beta_initializer": {"class_name": "Zeros", "config": {}}, "gamma_initializer": {"class_name": "Ones", "config": {}}, "moving_mean_initializer": {"class_name": "Zeros", "config": {}}, "moving_variance_initializer": {"class_name": "Ones", "config": {}}, "beta_regularizer": null, "gamma_regularizer": null, "beta_constraint": null, "gamma_constraint": null, "freeze": true}, "inbound_nodes": [[["res4b4_branch2c", 0, 0, {}]]]}, {"name": "res4b4", "class_name": "Add", "config": {"name": "res4b4", "trainable": true}, "inbound_nodes": [[["bn4b4_branch2c", 0, 0, {}], ["res4b3_relu", 0, 0, {}]]]}, {"name": "res4b4_relu", "class_name": "Activation", "config": {"name": "res4b4_relu", "trainable": true, "activation": "relu"}, "inbound_nodes": [[["res4b4", 0, 0, {}]]]}, {"name": "res4b5_branch2a", "class_name": "Conv2D", "config": {"name": "res4b5_branch2a", "trainable": true, "filters": 256, "kernel_size": [1, 1], "strides": [1, 1], "padding": "valid", "data_format": "channels_last", "dilation_rate": [1, 1], "activation": "linear", "use_bias": false, "kernel_initializer": {"class_name": "VarianceScaling", "config": {"scale": 2.0, "mode": "fan_in", "distribution": "normal", "seed": null}}, "bias_initializer": {"class_name": "Zeros", "config": {}}, "kernel_regularizer": null, "bias_regularizer": null, "activity_regularizer": null, "kernel_constraint": null, "bias_constraint": null}, "inbound_nodes": [[["res4b4_relu", 0, 0, {}]]]}, {"name": "bn4b5_branch2a", "class_name": "BatchNormalization", "config": {"name": "bn4b5_branch2a", "trainable": false, "axis": 3, "momentum": 0.99, "epsilon": 1e-05, "center": true, "scale": true, "beta_initializer": {"class_name": "Zeros", "config": {}}, "gamma_initializer": {"class_name": "Ones", "config": {}}, "moving_mean_initializer": {"class_name": "Zeros", "config": {}}, "moving_variance_initializer": {"class_name": "Ones", "config": {}}, "beta_regularizer": null, "gamma_regularizer": null, "beta_constraint": null, "gamma_constraint": null, "freeze": true}, "inbound_nodes": [[["res4b5_branch2a", 0, 0, {}]]]}, {"name": "res4b5_branch2a_relu", "class_name": "Activation", "config": {"name": "res4b5_branch2a_relu", "trainable": true, "activation": "relu"}, "inbound_nodes": [[["bn4b5_branch2a", 0, 0, {}]]]}, {"name": "padding4b5_branch2b", "class_name": "ZeroPadding2D", "config": {"name": "padding4b5_branch2b", "trainable": true, "padding": [[1, 1], [1, 1]], "data_format": "channels_last"}, "inbound_nodes": [[["res4b5_branch2a_relu", 0, 0, {}]]]}, {"name": "res4b5_branch2b", "class_name": "Conv2D", "config": {"name": "res4b5_branch2b", "trainable": true, "filters": 256, "kernel_size": [3, 3], "strides": [1, 1], "padding": "valid", "data_format": "channels_last", "dilation_rate": [1, 1], "activation": "linear", "use_bias": false, "kernel_initializer": {"class_name": "VarianceScaling", "config": {"scale": 2.0, "mode": "fan_in", "distribution": "normal", "seed": null}}, "bias_initializer": {"class_name": "Zeros", "config": {}}, "kernel_regularizer": null, "bias_regularizer": null, "activity_regularizer": null, "kernel_constraint": null, "bias_constraint": null}, "inbound_nodes": [[["padding4b5_branch2b", 0, 0, {}]]]}, {"name": "bn4b5_branch2b", "class_name": "BatchNormalization", "config": {"name": "bn4b5_branch2b", "trainable": false, "axis": 3, "momentum": 0.99, "epsilon": 1e-05, "center": true, "scale": true, "beta_initializer": {"class_name": "Zeros", "config": {}}, "gamma_initializer": {"class_name": "Ones", "config": {}}, "moving_mean_initializer": {"class_name": "Zeros", "config": {}}, "moving_variance_initializer": {"class_name": "Ones", "config": {}}, "beta_regularizer": null, "gamma_regularizer": null, "beta_constraint": null, "gamma_constraint": null, "freeze": true}, "inbound_nodes": [[["res4b5_branch2b", 0, 0, {}]]]}, {"name": "res4b5_branch2b_relu", "class_name": "Activation", "config": {"name": "res4b5_branch2b_relu", "trainable": true, "activation": "relu"}, "inbound_nodes": [[["bn4b5_branch2b", 0, 0, {}]]]}, {"name": "res4b5_branch2c", "class_name": "Conv2D", "config": {"name": "res4b5_branch2c", "trainable": true, "filters": 1024, "kernel_size": [1, 1], "strides": [1, 1], "padding": "valid", "data_format": "channels_last", "dilation_rate": [1, 1], "activation": "linear", "use_bias": false, "kernel_initializer": {"class_name": "VarianceScaling", "config": {"scale": 2.0, "mode": "fan_in", "distribution": "normal", "seed": null}}, "bias_initializer": {"class_name": "Zeros", "config": {}}, "kernel_regularizer": null, "bias_regularizer": null, "activity_regularizer": null, "kernel_constraint": null, "bias_constraint": null}, "inbound_nodes": [[["res4b5_branch2b_relu", 0, 0, {}]]]}, {"name": "bn4b5_branch2c", "class_name": "BatchNormalization", "config": {"name": "bn4b5_branch2c", "trainable": false, "axis": 3, "momentum": 0.99, "epsilon": 1e-05, "center": true, "scale": true, "beta_initializer": {"class_name": "Zeros", "config": {}}, "gamma_initializer": {"class_name": "Ones", "config": {}}, "moving_mean_initializer": {"class_name": "Zeros", "config": {}}, "moving_variance_initializer": {"class_name": "Ones", "config": {}}, "beta_regularizer": null, "gamma_regularizer": null, "beta_constraint": null, "gamma_constraint": null, "freeze": true}, "inbound_nodes": [[["res4b5_branch2c", 0, 0, {}]]]}, {"name": "res4b5", "class_name": "Add", "config": {"name": "res4b5", "trainable": true}, "inbound_nodes": [[["bn4b5_branch2c", 0, 0, {}], ["res4b4_relu", 0, 0, {}]]]}, {"name": "res4b5_relu", "class_name": "Activation", "config": {"name": "res4b5_relu", "trainable": true, "activation": "relu"}, "inbound_nodes": [[["res4b5", 0, 0, {}]]]}, {"name": "res4b6_branch2a", "class_name": "Conv2D", "config": {"name": "res4b6_branch2a", "trainable": true, "filters": 256, "kernel_size": [1, 1], "strides": [1, 1], "padding": "valid", "data_format": "channels_last", "dilation_rate": [1, 1], "activation": "linear", "use_bias": false, "kernel_initializer": {"class_name": "VarianceScaling", "config": {"scale": 2.0, "mode": "fan_in", "distribution": "normal", "seed": null}}, "bias_initializer": {"class_name": "Zeros", "config": {}}, "kernel_regularizer": null, "bias_regularizer": null, "activity_regularizer": null, "kernel_constraint": null, "bias_constraint": null}, "inbound_nodes": [[["res4b5_relu", 0, 0, {}]]]}, {"name": "bn4b6_branch2a", "class_name": "BatchNormalization", "config": {"name": "bn4b6_branch2a", "trainable": false, "axis": 3, "momentum": 0.99, "epsilon": 1e-05, "center": true, "scale": true, "beta_initializer": {"class_name": "Zeros", "config": {}}, "gamma_initializer": {"class_name": "Ones", "config": {}}, "moving_mean_initializer": {"class_name": "Zeros", "config": {}}, "moving_variance_initializer": {"class_name": "Ones", "config": {}}, "beta_regularizer": null, "gamma_regularizer": null, "beta_constraint": null, "gamma_constraint": null, "freeze": true}, "inbound_nodes": [[["res4b6_branch2a", 0, 0, {}]]]}, {"name": "res4b6_branch2a_relu", "class_name": "Activation", "config": {"name": "res4b6_branch2a_relu", "trainable": true, "activation": "relu"}, "inbound_nodes": [[["bn4b6_branch2a", 0, 0, {}]]]}, {"name": "padding4b6_branch2b", "class_name": "ZeroPadding2D", "config": {"name": "padding4b6_branch2b", "trainable": true, "padding": [[1, 1], [1, 1]], "data_format": "channels_last"}, "inbound_nodes": [[["res4b6_branch2a_relu", 0, 0, {}]]]}, {"name": "res4b6_branch2b", "class_name": "Conv2D", "config": {"name": "res4b6_branch2b", "trainable": true, "filters": 256, "kernel_size": [3, 3], "strides": [1, 1], "padding": "valid", "data_format": "channels_last", "dilation_rate": [1, 1], "activation": "linear", "use_bias": false, "kernel_initializer": {"class_name": "VarianceScaling", "config": {"scale": 2.0, "mode": "fan_in", "distribution": "normal", "seed": null}}, "bias_initializer": {"class_name": "Zeros", "config": {}}, "kernel_regularizer": null, "bias_regularizer": null, "activity_regularizer": null, "kernel_constraint": null, "bias_constraint": null}, "inbound_nodes": [[["padding4b6_branch2b", 0, 0, {}]]]}, {"name": "bn4b6_branch2b", "class_name": "BatchNormalization", "config": {"name": "bn4b6_branch2b", "trainable": false, "axis": 3, "momentum": 0.99, "epsilon": 1e-05, "center": true, "scale": true, "beta_initializer": {"class_name": "Zeros", "config": {}}, "gamma_initializer": {"class_name": "Ones", "config": {}}, "moving_mean_initializer": {"class_name": "Zeros", "config": {}}, "moving_variance_initializer": {"class_name": "Ones", "config": {}}, "beta_regularizer": null, "gamma_regularizer": null, "beta_constraint": null, "gamma_constraint": null, "freeze": true}, "inbound_nodes": [[["res4b6_branch2b", 0, 0, {}]]]}, {"name": "res4b6_branch2b_relu", "class_name": "Activation", "config": {"name": "res4b6_branch2b_relu", "trainable": true, "activation": "relu"}, "inbound_nodes": [[["bn4b6_branch2b", 0, 0, {}]]]}, {"name": "res4b6_branch2c", "class_name": "Conv2D", "config": {"name": "res4b6_branch2c", "trainable": true, "filters": 1024, "kernel_size": [1, 1], "strides": [1, 1], "padding": "valid", "data_format": "channels_last", "dilation_rate": [1, 1], "activation": "linear", "use_bias": false, "kernel_initializer": {"class_name": "VarianceScaling", "config": {"scale": 2.0, "mode": "fan_in", "distribution": "normal", "seed": null}}, "bias_initializer": {"class_name": "Zeros", "config": {}}, "kernel_regularizer": null, "bias_regularizer": null, "activity_regularizer": null, "kernel_constraint": null, "bias_constraint": null}, "inbound_nodes": [[["res4b6_branch2b_relu", 0, 0, {}]]]}, {"name": "bn4b6_branch2c", "class_name": "BatchNormalization", "config": {"name": "bn4b6_branch2c", "trainable": false, "axis": 3, "momentum": 0.99, "epsilon": 1e-05, "center": true, "scale": true, "beta_initializer": {"class_name": "Zeros", "config": {}}, "gamma_initializer": {"class_name": "Ones", "config": {}}, "moving_mean_initializer": {"class_name": "Zeros", "config": {}}, "moving_variance_initializer": {"class_name": "Ones", "config": {}}, "beta_regularizer": null, "gamma_regularizer": null, "beta_constraint": null, "gamma_constraint": null, "freeze": true}, "inbound_nodes": [[["res4b6_branch2c", 0, 0, {}]]]}, {"name": "res4b6", "class_name": "Add", "config": {"name": "res4b6", "trainable": true}, "inbound_nodes": [[["bn4b6_branch2c", 0, 0, {}], ["res4b5_relu", 0, 0, {}]]]}, {"name": "res4b6_relu", "class_name": "Activation", "config": {"name": "res4b6_relu", "trainable": true, "activation": "relu"}, "inbound_nodes": [[["res4b6", 0, 0, {}]]]}, {"name": "res4b7_branch2a", "class_name": "Conv2D", "config": {"name": "res4b7_branch2a", "trainable": true, "filters": 256, "kernel_size": [1, 1], "strides": [1, 1], "padding": "valid", "data_format": "channels_last", "dilation_rate": [1, 1], "activation": "linear", "use_bias": false, "kernel_initializer": {"class_name": "VarianceScaling", "config": {"scale": 2.0, "mode": "fan_in", "distribution": "normal", "seed": null}}, "bias_initializer": {"class_name": "Zeros", "config": {}}, "kernel_regularizer": null, "bias_regularizer": null, "activity_regularizer": null, "kernel_constraint": null, "bias_constraint": null}, "inbound_nodes": [[["res4b6_relu", 0, 0, {}]]]}, {"name": "bn4b7_branch2a", "class_name": "BatchNormalization", "config": {"name": "bn4b7_branch2a", "trainable": false, "axis": 3, "momentum": 0.99, "epsilon": 1e-05, "center": true, "scale": true, "beta_initializer": {"class_name": "Zeros", "config": {}}, "gamma_initializer": {"class_name": "Ones", "config": {}}, "moving_mean_initializer": {"class_name": "Zeros", "config": {}}, "moving_variance_initializer": {"class_name": "Ones", "config": {}}, "beta_regularizer": null, "gamma_regularizer": null, "beta_constraint": null, "gamma_constraint": null, "freeze": true}, "inbound_nodes": [[["res4b7_branch2a", 0, 0, {}]]]}, {"name": "res4b7_branch2a_relu", "class_name": "Activation", "config": {"name": "res4b7_branch2a_relu", "trainable": true, "activation": "relu"}, "inbound_nodes": [[["bn4b7_branch2a", 0, 0, {}]]]}, {"name": "padding4b7_branch2b", "class_name": "ZeroPadding2D", "config": {"name": "padding4b7_branch2b", "trainable": true, "padding": [[1, 1], [1, 1]], "data_format": "channels_last"}, "inbound_nodes": [[["res4b7_branch2a_relu", 0, 0, {}]]]}, {"name": "res4b7_branch2b", "class_name": "Conv2D", "config": {"name": "res4b7_branch2b", "trainable": true, "filters": 256, "kernel_size": [3, 3], "strides": [1, 1], "padding": "valid", "data_format": "channels_last", "dilation_rate": [1, 1], "activation": "linear", "use_bias": false, "kernel_initializer": {"class_name": "VarianceScaling", "config": {"scale": 2.0, "mode": "fan_in", "distribution": "normal", "seed": null}}, "bias_initializer": {"class_name": "Zeros", "config": {}}, "kernel_regularizer": null, "bias_regularizer": null, "activity_regularizer": null, "kernel_constraint": null, "bias_constraint": null}, "inbound_nodes": [[["padding4b7_branch2b", 0, 0, {}]]]}, {"name": "bn4b7_branch2b", "class_name": "BatchNormalization", "config": {"name": "bn4b7_branch2b", "trainable": false, "axis": 3, "momentum": 0.99, "epsilon": 1e-05, "center": true, "scale": true, "beta_initializer": {"class_name": "Zeros", "config": {}}, "gamma_initializer": {"class_name": "Ones", "config": {}}, "moving_mean_initializer": {"class_name": "Zeros", "config": {}}, "moving_variance_initializer": {"class_name": "Ones", "config": {}}, "beta_regularizer": null, "gamma_regularizer": null, "beta_constraint": null, "gamma_constraint": null, "freeze": true}, "inbound_nodes": [[["res4b7_branch2b", 0, 0, {}]]]}, {"name": "res4b7_branch2b_relu", "class_name": "Activation", "config": {"name": "res4b7_branch2b_relu", "trainable": true, "activation": "relu"}, "inbound_nodes": [[["bn4b7_branch2b", 0, 0, {}]]]}, {"name": "res4b7_branch2c", "class_name": "Conv2D", "config": {"name": "res4b7_branch2c", "trainable": true, "filters": 1024, "kernel_size": [1, 1], "strides": [1, 1], "padding": "valid", "data_format": "channels_last", "dilation_rate": [1, 1], "activation": "linear", "use_bias": false, "kernel_initializer": {"class_name": "VarianceScaling", "config": {"scale": 2.0, "mode": "fan_in", "distribution": "normal", "seed": null}}, "bias_initializer": {"class_name": "Zeros", "config": {}}, "kernel_regularizer": null, "bias_regularizer": null, "activity_regularizer": null, "kernel_constraint": null, "bias_constraint": null}, "inbound_nodes": [[["res4b7_branch2b_relu", 0, 0, {}]]]}, {"name": "bn4b7_branch2c", "class_name": "BatchNormalization", "config": {"name": "bn4b7_branch2c", "trainable": false, "axis": 3, "momentum": 0.99, "epsilon": 1e-05, "center": true, "scale": true, "beta_initializer": {"class_name": "Zeros", "config": {}}, "gamma_initializer": {"class_name": "Ones", "config": {}}, "moving_mean_initializer": {"class_name": "Zeros", "config": {}}, "moving_variance_initializer": {"class_name": "Ones", "config": {}}, "beta_regularizer": null, "gamma_regularizer": null, "beta_constraint": null, "gamma_constraint": null, "freeze": true}, "inbound_nodes": [[["res4b7_branch2c", 0, 0, {}]]]}, {"name": "res4b7", "class_name": "Add", "config": {"name": "res4b7", "trainable": true}, "inbound_nodes": [[["bn4b7_branch2c", 0, 0, {}], ["res4b6_relu", 0, 0, {}]]]}, {"name": "res4b7_relu", "class_name": "Activation", "config": {"name": "res4b7_relu", "trainable": true, "activation": "relu"}, "inbound_nodes": [[["res4b7", 0, 0, {}]]]}, {"name": "res4b8_branch2a", "class_name": "Conv2D", "config": {"name": "res4b8_branch2a", "trainable": true, "filters": 256, "kernel_size": [1, 1], "strides": [1, 1], "padding": "valid", "data_format": "channels_last", "dilation_rate": [1, 1], "activation": "linear", "use_bias": false, "kernel_initializer": {"class_name": "VarianceScaling", "config": {"scale": 2.0, "mode": "fan_in", "distribution": "normal", "seed": null}}, "bias_initializer": {"class_name": "Zeros", "config": {}}, "kernel_regularizer": null, "bias_regularizer": null, "activity_regularizer": null, "kernel_constraint": null, "bias_constraint": null}, "inbound_nodes": [[["res4b7_relu", 0, 0, {}]]]}, {"name": "bn4b8_branch2a", "class_name": "BatchNormalization", "config": {"name": "bn4b8_branch2a", "trainable": false, "axis": 3, "momentum": 0.99, "epsilon": 1e-05, "center": true, "scale": true, "beta_initializer": {"class_name": "Zeros", "config": {}}, "gamma_initializer": {"class_name": "Ones", "config": {}}, "moving_mean_initializer": {"class_name": "Zeros", "config": {}}, "moving_variance_initializer": {"class_name": "Ones", "config": {}}, "beta_regularizer": null, "gamma_regularizer": null, "beta_constraint": null, "gamma_constraint": null, "freeze": true}, "inbound_nodes": [[["res4b8_branch2a", 0, 0, {}]]]}, {"name": "res4b8_branch2a_relu", "class_name": "Activation", "config": {"name": "res4b8_branch2a_relu", "trainable": true, "activation": "relu"}, "inbound_nodes": [[["bn4b8_branch2a", 0, 0, {}]]]}, {"name": "padding4b8_branch2b", "class_name": "ZeroPadding2D", "config": {"name": "padding4b8_branch2b", "trainable": true, "padding": [[1, 1], [1, 1]], "data_format": "channels_last"}, "inbound_nodes": [[["res4b8_branch2a_relu", 0, 0, {}]]]}, {"name": "res4b8_branch2b", "class_name": "Conv2D", "config": {"name": "res4b8_branch2b", "trainable": true, "filters": 256, "kernel_size": [3, 3], "strides": [1, 1], "padding": "valid", "data_format": "channels_last", "dilation_rate": [1, 1], "activation": "linear", "use_bias": false, "kernel_initializer": {"class_name": "VarianceScaling", "config": {"scale": 2.0, "mode": "fan_in", "distribution": "normal", "seed": null}}, "bias_initializer": {"class_name": "Zeros", "config": {}}, "kernel_regularizer": null, "bias_regularizer": null, "activity_regularizer": null, "kernel_constraint": null, "bias_constraint": null}, "inbound_nodes": [[["padding4b8_branch2b", 0, 0, {}]]]}, {"name": "bn4b8_branch2b", "class_name": "BatchNormalization", "config": {"name": "bn4b8_branch2b", "trainable": false, "axis": 3, "momentum": 0.99, "epsilon": 1e-05, "center": true, "scale": true, "beta_initializer": {"class_name": "Zeros", "config": {}}, "gamma_initializer": {"class_name": "Ones", "config": {}}, "moving_mean_initializer": {"class_name": "Zeros", "config": {}}, "moving_variance_initializer": {"class_name": "Ones", "config": {}}, "beta_regularizer": null, "gamma_regularizer": null, "beta_constraint": null, "gamma_constraint": null, "freeze": true}, "inbound_nodes": [[["res4b8_branch2b", 0, 0, {}]]]}, {"name": "res4b8_branch2b_relu", "class_name": "Activation", "config": {"name": "res4b8_branch2b_relu", "trainable": true, "activation": "relu"}, "inbound_nodes": [[["bn4b8_branch2b", 0, 0, {}]]]}, {"name": "res4b8_branch2c", "class_name": "Conv2D", "config": {"name": "res4b8_branch2c", "trainable": true, "filters": 1024, "kernel_size": [1, 1], "strides": [1, 1], "padding": "valid", "data_format": "channels_last", "dilation_rate": [1, 1], "activation": "linear", "use_bias": false, "kernel_initializer": {"class_name": "VarianceScaling", "config": {"scale": 2.0, "mode": "fan_in", "distribution": "normal", "seed": null}}, "bias_initializer": {"class_name": "Zeros", "config": {}}, "kernel_regularizer": null, "bias_regularizer": null, "activity_regularizer": null, "kernel_constraint": null, "bias_constraint": null}, "inbound_nodes": [[["res4b8_branch2b_relu", 0, 0, {}]]]}, {"name": "bn4b8_branch2c", "class_name": "BatchNormalization", "config": {"name": "bn4b8_branch2c", "trainable": false, "axis": 3, "momentum": 0.99, "epsilon": 1e-05, "center": true, "scale": true, "beta_initializer": {"class_name": "Zeros", "config": {}}, "gamma_initializer": {"class_name": "Ones", "config": {}}, "moving_mean_initializer": {"class_name": "Zeros", "config": {}}, "moving_variance_initializer": {"class_name": "Ones", "config": {}}, "beta_regularizer": null, "gamma_regularizer": null, "beta_constraint": null, "gamma_constraint": null, "freeze": true}, "inbound_nodes": [[["res4b8_branch2c", 0, 0, {}]]]}, {"name": "res4b8", "class_name": "Add", "config": {"name": "res4b8", "trainable": true}, "inbound_nodes": [[["bn4b8_branch2c", 0, 0, {}], ["res4b7_relu", 0, 0, {}]]]}, {"name": "res4b8_relu", "class_name": "Activation", "config": {"name": "res4b8_relu", "trainable": true, "activation": "relu"}, "inbound_nodes": [[["res4b8", 0, 0, {}]]]}, {"name": "res4b9_branch2a", "class_name": "Conv2D", "config": {"name": "res4b9_branch2a", "trainable": true, "filters": 256, "kernel_size": [1, 1], "strides": [1, 1], "padding": "valid", "data_format": "channels_last", "dilation_rate": [1, 1], "activation": "linear", "use_bias": false, "kernel_initializer": {"class_name": "VarianceScaling", "config": {"scale": 2.0, "mode": "fan_in", "distribution": "normal", "seed": null}}, "bias_initializer": {"class_name": "Zeros", "config": {}}, "kernel_regularizer": null, "bias_regularizer": null, "activity_regularizer": null, "kernel_constraint": null, "bias_constraint": null}, "inbound_nodes": [[["res4b8_relu", 0, 0, {}]]]}, {"name": "bn4b9_branch2a", "class_name": "BatchNormalization", "config": {"name": "bn4b9_branch2a", "trainable": false, "axis": 3, "momentum": 0.99, "epsilon": 1e-05, "center": true, "scale": true, "beta_initializer": {"class_name": "Zeros", "config": {}}, "gamma_initializer": {"class_name": "Ones", "config": {}}, "moving_mean_initializer": {"class_name": "Zeros", "config": {}}, "moving_variance_initializer": {"class_name": "Ones", "config": {}}, "beta_regularizer": null, "gamma_regularizer": null, "beta_constraint": null, "gamma_constraint": null, "freeze": true}, "inbound_nodes": [[["res4b9_branch2a", 0, 0, {}]]]}, {"name": "res4b9_branch2a_relu", "class_name": "Activation", "config": {"name": "res4b9_branch2a_relu", "trainable": true, "activation": "relu"}, "inbound_nodes": [[["bn4b9_branch2a", 0, 0, {}]]]}, {"name": "padding4b9_branch2b", "class_name": "ZeroPadding2D", "config": {"name": "padding4b9_branch2b", "trainable": true, "padding": [[1, 1], [1, 1]], "data_format": "channels_last"}, "inbound_nodes": [[["res4b9_branch2a_relu", 0, 0, {}]]]}, {"name": "res4b9_branch2b", "class_name": "Conv2D", "config": {"name": "res4b9_branch2b", "trainable": true, "filters": 256, "kernel_size": [3, 3], "strides": [1, 1], "padding": "valid", "data_format": "channels_last", "dilation_rate": [1, 1], "activation": "linear", "use_bias": false, "kernel_initializer": {"class_name": "VarianceScaling", "config": {"scale": 2.0, "mode": "fan_in", "distribution": "normal", "seed": null}}, "bias_initializer": {"class_name": "Zeros", "config": {}}, "kernel_regularizer": null, "bias_regularizer": null, "activity_regularizer": null, "kernel_constraint": null, "bias_constraint": null}, "inbound_nodes": [[["padding4b9_branch2b", 0, 0, {}]]]}, {"name": "bn4b9_branch2b", "class_name": "BatchNormalization", "config": {"name": "bn4b9_branch2b", "trainable": false, "axis": 3, "momentum": 0.99, "epsilon": 1e-05, "center": true, "scale": true, "beta_initializer": {"class_name": "Zeros", "config": {}}, "gamma_initializer": {"class_name": "Ones", "config": {}}, "moving_mean_initializer": {"class_name": "Zeros", "config": {}}, "moving_variance_initializer": {"class_name": "Ones", "config": {}}, "beta_regularizer": null, "gamma_regularizer": null, "beta_constraint": null, "gamma_constraint": null, "freeze": true}, "inbound_nodes": [[["res4b9_branch2b", 0, 0, {}]]]}, {"name": "res4b9_branch2b_relu", "class_name": "Activation", "config": {"name": "res4b9_branch2b_relu", "trainable": true, "activation": "relu"}, "inbound_nodes": [[["bn4b9_branch2b", 0, 0, {}]]]}, {"name": "res4b9_branch2c", "class_name": "Conv2D", "config": {"name": "res4b9_branch2c", "trainable": true, "filters": 1024, "kernel_size": [1, 1], "strides": [1, 1], "padding": "valid", "data_format": "channels_last", "dilation_rate": [1, 1], "activation": "linear", "use_bias": false, "kernel_initializer": {"class_name": "VarianceScaling", "config": {"scale": 2.0, "mode": "fan_in", "distribution": "normal", "seed": null}}, "bias_initializer": {"class_name": "Zeros", "config": {}}, "kernel_regularizer": null, "bias_regularizer": null, "activity_regularizer": null, "kernel_constraint": null, "bias_constraint": null}, "inbound_nodes": [[["res4b9_branch2b_relu", 0, 0, {}]]]}, {"name": "bn4b9_branch2c", "class_name": "BatchNormalization", "config": {"name": "bn4b9_branch2c", "trainable": false, "axis": 3, "momentum": 0.99, "epsilon": 1e-05, "center": true, "scale": true, "beta_initializer": {"class_name": "Zeros", "config": {}}, "gamma_initializer": {"class_name": "Ones", "config": {}}, "moving_mean_initializer": {"class_name": "Zeros", "config": {}}, "moving_variance_initializer": {"class_name": "Ones", "config": {}}, "beta_regularizer": null, "gamma_regularizer": null, "beta_constraint": null, "gamma_constraint": null, "freeze": true}, "inbound_nodes": [[["res4b9_branch2c", 0, 0, {}]]]}, {"name": "res4b9", "class_name": "Add", "config": {"name": "res4b9", "trainable": true}, "inbound_nodes": [[["bn4b9_branch2c", 0, 0, {}], ["res4b8_relu", 0, 0, {}]]]}, {"name": "res4b9_relu", "class_name": "Activation", "config": {"name": "res4b9_relu", "trainable": true, "activation": "relu"}, "inbound_nodes": [[["res4b9", 0, 0, {}]]]}, {"name": "res4b10_branch2a", "class_name": "Conv2D", "config": {"name": "res4b10_branch2a", "trainable": true, "filters": 256, "kernel_size": [1, 1], "strides": [1, 1], "padding": "valid", "data_format": "channels_last", "dilation_rate": [1, 1], "activation": "linear", "use_bias": false, "kernel_initializer": {"class_name": "VarianceScaling", "config": {"scale": 2.0, "mode": "fan_in", "distribution": "normal", "seed": null}}, "bias_initializer": {"class_name": "Zeros", "config": {}}, "kernel_regularizer": null, "bias_regularizer": null, "activity_regularizer": null, "kernel_constraint": null, "bias_constraint": null}, "inbound_nodes": [[["res4b9_relu", 0, 0, {}]]]}, {"name": "bn4b10_branch2a", "class_name": "BatchNormalization", "config": {"name": "bn4b10_branch2a", "trainable": false, "axis": 3, "momentum": 0.99, "epsilon": 1e-05, "center": true, "scale": true, "beta_initializer": {"class_name": "Zeros", "config": {}}, "gamma_initializer": {"class_name": "Ones", "config": {}}, "moving_mean_initializer": {"class_name": "Zeros", "config": {}}, "moving_variance_initializer": {"class_name": "Ones", "config": {}}, "beta_regularizer": null, "gamma_regularizer": null, "beta_constraint": null, "gamma_constraint": null, "freeze": true}, "inbound_nodes": [[["res4b10_branch2a", 0, 0, {}]]]}, {"name": "res4b10_branch2a_relu", "class_name": "Activation", "config": {"name": "res4b10_branch2a_relu", "trainable": true, "activation": "relu"}, "inbound_nodes": [[["bn4b10_branch2a", 0, 0, {}]]]}, {"name": "padding4b10_branch2b", "class_name": "ZeroPadding2D", "config": {"name": "padding4b10_branch2b", "trainable": true, "padding": [[1, 1], [1, 1]], "data_format": "channels_last"}, "inbound_nodes": [[["res4b10_branch2a_relu", 0, 0, {}]]]}, {"name": "res4b10_branch2b", "class_name": "Conv2D", "config": {"name": "res4b10_branch2b", "trainable": true, "filters": 256, "kernel_size": [3, 3], "strides": [1, 1], "padding": "valid", "data_format": "channels_last", "dilation_rate": [1, 1], "activation": "linear", "use_bias": false, "kernel_initializer": {"class_name": "VarianceScaling", "config": {"scale": 2.0, "mode": "fan_in", "distribution": "normal", "seed": null}}, "bias_initializer": {"class_name": "Zeros", "config": {}}, "kernel_regularizer": null, "bias_regularizer": null, "activity_regularizer": null, "kernel_constraint": null, "bias_constraint": null}, "inbound_nodes": [[["padding4b10_branch2b", 0, 0, {}]]]}, {"name": "bn4b10_branch2b", "class_name": "BatchNormalization", "config": {"name": "bn4b10_branch2b", "trainable": false, "axis": 3, "momentum": 0.99, "epsilon": 1e-05, "center": true, "scale": true, "beta_initializer": {"class_name": "Zeros", "config": {}}, "gamma_initializer": {"class_name": "Ones", "config": {}}, "moving_mean_initializer": {"class_name": "Zeros", "config": {}}, "moving_variance_initializer": {"class_name": "Ones", "config": {}}, "beta_regularizer": null, "gamma_regularizer": null, "beta_constraint": null, "gamma_constraint": null, "freeze": true}, "inbound_nodes": [[["res4b10_branch2b", 0, 0, {}]]]}, {"name": "res4b10_branch2b_relu", "class_name": "Activation", "config": {"name": "res4b10_branch2b_relu", "trainable": true, "activation": "relu"}, "inbound_nodes": [[["bn4b10_branch2b", 0, 0, {}]]]}, {"name": "res4b10_branch2c", "class_name": "Conv2D", "config": {"name": "res4b10_branch2c", "trainable": true, "filters": 1024, "kernel_size": [1, 1], "strides": [1, 1], "padding": "valid", "data_format": "channels_last", "dilation_rate": [1, 1], "activation": "linear", "use_bias": false, "kernel_initializer": {"class_name": "VarianceScaling", "config": {"scale": 2.0, "mode": "fan_in", "distribution": "normal", "seed": null}}, "bias_initializer": {"class_name": "Zeros", "config": {}}, "kernel_regularizer": null, "bias_regularizer": null, "activity_regularizer": null, "kernel_constraint": null, "bias_constraint": null}, "inbound_nodes": [[["res4b10_branch2b_relu", 0, 0, {}]]]}, {"name": "bn4b10_branch2c", "class_name": "BatchNormalization", "config": {"name": "bn4b10_branch2c", "trainable": false, "axis": 3, "momentum": 0.99, "epsilon": 1e-05, "center": true, "scale": true, "beta_initializer": {"class_name": "Zeros", "config": {}}, "gamma_initializer": {"class_name": "Ones", "config": {}}, "moving_mean_initializer": {"class_name": "Zeros", "config": {}}, "moving_variance_initializer": {"class_name": "Ones", "config": {}}, "beta_regularizer": null, "gamma_regularizer": null, "beta_constraint": null, "gamma_constraint": null, "freeze": true}, "inbound_nodes": [[["res4b10_branch2c", 0, 0, {}]]]}, {"name": "res4b10", "class_name": "Add", "config": {"name": "res4b10", "trainable": true}, "inbound_nodes": [[["bn4b10_branch2c", 0, 0, {}], ["res4b9_relu", 0, 0, {}]]]}, {"name": "res4b10_relu", "class_name": "Activation", "config": {"name": "res4b10_relu", "trainable": true, "activation": "relu"}, "inbound_nodes": [[["res4b10", 0, 0, {}]]]}, {"name": "res4b11_branch2a", "class_name": "Conv2D", "config": {"name": "res4b11_branch2a", "trainable": true, "filters": 256, "kernel_size": [1, 1], "strides": [1, 1], "padding": "valid", "data_format": "channels_last", "dilation_rate": [1, 1], "activation": "linear", "use_bias": false, "kernel_initializer": {"class_name": "VarianceScaling", "config": {"scale": 2.0, "mode": "fan_in", "distribution": "normal", "seed": null}}, "bias_initializer": {"class_name": "Zeros", "config": {}}, "kernel_regularizer": null, "bias_regularizer": null, "activity_regularizer": null, "kernel_constraint": null, "bias_constraint": null}, "inbound_nodes": [[["res4b10_relu", 0, 0, {}]]]}, {"name": "bn4b11_branch2a", "class_name": "BatchNormalization", "config": {"name": "bn4b11_branch2a", "trainable": false, "axis": 3, "momentum": 0.99, "epsilon": 1e-05, "center": true, "scale": true, "beta_initializer": {"class_name": "Zeros", "config": {}}, "gamma_initializer": {"class_name": "Ones", "config": {}}, "moving_mean_initializer": {"class_name": "Zeros", "config": {}}, "moving_variance_initializer": {"class_name": "Ones", "config": {}}, "beta_regularizer": null, "gamma_regularizer": null, "beta_constraint": null, "gamma_constraint": null, "freeze": true}, "inbound_nodes": [[["res4b11_branch2a", 0, 0, {}]]]}, {"name": "res4b11_branch2a_relu", "class_name": "Activation", "config": {"name": "res4b11_branch2a_relu", "trainable": true, "activation": "relu"}, "inbound_nodes": [[["bn4b11_branch2a", 0, 0, {}]]]}, {"name": "padding4b11_branch2b", "class_name": "ZeroPadding2D", "config": {"name": "padding4b11_branch2b", "trainable": true, "padding": [[1, 1], [1, 1]], "data_format": "channels_last"}, "inbound_nodes": [[["res4b11_branch2a_relu", 0, 0, {}]]]}, {"name": "res4b11_branch2b", "class_name": "Conv2D", "config": {"name": "res4b11_branch2b", "trainable": true, "filters": 256, "kernel_size": [3, 3], "strides": [1, 1], "padding": "valid", "data_format": "channels_last", "dilation_rate": [1, 1], "activation": "linear", "use_bias": false, "kernel_initializer": {"class_name": "VarianceScaling", "config": {"scale": 2.0, "mode": "fan_in", "distribution": "normal", "seed": null}}, "bias_initializer": {"class_name": "Zeros", "config": {}}, "kernel_regularizer": null, "bias_regularizer": null, "activity_regularizer": null, "kernel_constraint": null, "bias_constraint": null}, "inbound_nodes": [[["padding4b11_branch2b", 0, 0, {}]]]}, {"name": "bn4b11_branch2b", "class_name": "BatchNormalization", "config": {"name": "bn4b11_branch2b", "trainable": false, "axis": 3, "momentum": 0.99, "epsilon": 1e-05, "center": true, "scale": true, "beta_initializer": {"class_name": "Zeros", "config": {}}, "gamma_initializer": {"class_name": "Ones", "config": {}}, "moving_mean_initializer": {"class_name": "Zeros", "config": {}}, "moving_variance_initializer": {"class_name": "Ones", "config": {}}, "beta_regularizer": null, "gamma_regularizer": null, "beta_constraint": null, "gamma_constraint": null, "freeze": true}, "inbound_nodes": [[["res4b11_branch2b", 0, 0, {}]]]}, {"name": "res4b11_branch2b_relu", "class_name": "Activation", "config": {"name": "res4b11_branch2b_relu", "trainable": true, "activation": "relu"}, "inbound_nodes": [[["bn4b11_branch2b", 0, 0, {}]]]}, {"name": "res4b11_branch2c", "class_name": "Conv2D", "config": {"name": "res4b11_branch2c", "trainable": true, "filters": 1024, "kernel_size": [1, 1], "strides": [1, 1], "padding": "valid", "data_format": "channels_last", "dilation_rate": [1, 1], "activation": "linear", "use_bias": false, "kernel_initializer": {"class_name": "VarianceScaling", "config": {"scale": 2.0, "mode": "fan_in", "distribution": "normal", "seed": null}}, "bias_initializer": {"class_name": "Zeros", "config": {}}, "kernel_regularizer": null, "bias_regularizer": null, "activity_regularizer": null, "kernel_constraint": null, "bias_constraint": null}, "inbound_nodes": [[["res4b11_branch2b_relu", 0, 0, {}]]]}, {"name": "bn4b11_branch2c", "class_name": "BatchNormalization", "config": {"name": "bn4b11_branch2c", "trainable": false, "axis": 3, "momentum": 0.99, "epsilon": 1e-05, "center": true, "scale": true, "beta_initializer": {"class_name": "Zeros", "config": {}}, "gamma_initializer": {"class_name": "Ones", "config": {}}, "moving_mean_initializer": {"class_name": "Zeros", "config": {}}, "moving_variance_initializer": {"class_name": "Ones", "config": {}}, "beta_regularizer": null, "gamma_regularizer": null, "beta_constraint": null, "gamma_constraint": null, "freeze": true}, "inbound_nodes": [[["res4b11_branch2c", 0, 0, {}]]]}, {"name": "res4b11", "class_name": "Add", "config": {"name": "res4b11", "trainable": true}, "inbound_nodes": [[["bn4b11_branch2c", 0, 0, {}], ["res4b10_relu", 0, 0, {}]]]}, {"name": "res4b11_relu", "class_name": "Activation", "config": {"name": "res4b11_relu", "trainable": true, "activation": "relu"}, "inbound_nodes": [[["res4b11", 0, 0, {}]]]}, {"name": "res4b12_branch2a", "class_name": "Conv2D", "config": {"name": "res4b12_branch2a", "trainable": true, "filters": 256, "kernel_size": [1, 1], "strides": [1, 1], "padding": "valid", "data_format": "channels_last", "dilation_rate": [1, 1], "activation": "linear", "use_bias": false, "kernel_initializer": {"class_name": "VarianceScaling", "config": {"scale": 2.0, "mode": "fan_in", "distribution": "normal", "seed": null}}, "bias_initializer": {"class_name": "Zeros", "config": {}}, "kernel_regularizer": null, "bias_regularizer": null, "activity_regularizer": null, "kernel_constraint": null, "bias_constraint": null}, "inbound_nodes": [[["res4b11_relu", 0, 0, {}]]]}, {"name": "bn4b12_branch2a", "class_name": "BatchNormalization", "config": {"name": "bn4b12_branch2a", "trainable": false, "axis": 3, "momentum": 0.99, "epsilon": 1e-05, "center": true, "scale": true, "beta_initializer": {"class_name": "Zeros", "config": {}}, "gamma_initializer": {"class_name": "Ones", "config": {}}, "moving_mean_initializer": {"class_name": "Zeros", "config": {}}, "moving_variance_initializer": {"class_name": "Ones", "config": {}}, "beta_regularizer": null, "gamma_regularizer": null, "beta_constraint": null, "gamma_constraint": null, "freeze": true}, "inbound_nodes": [[["res4b12_branch2a", 0, 0, {}]]]}, {"name": "res4b12_branch2a_relu", "class_name": "Activation", "config": {"name": "res4b12_branch2a_relu", "trainable": true, "activation": "relu"}, "inbound_nodes": [[["bn4b12_branch2a", 0, 0, {}]]]}, {"name": "padding4b12_branch2b", "class_name": "ZeroPadding2D", "config": {"name": "padding4b12_branch2b", "trainable": true, "padding": [[1, 1], [1, 1]], "data_format": "channels_last"}, "inbound_nodes": [[["res4b12_branch2a_relu", 0, 0, {}]]]}, {"name": "res4b12_branch2b", "class_name": "Conv2D", "config": {"name": "res4b12_branch2b", "trainable": true, "filters": 256, "kernel_size": [3, 3], "strides": [1, 1], "padding": "valid", "data_format": "channels_last", "dilation_rate": [1, 1], "activation": "linear", "use_bias": false, "kernel_initializer": {"class_name": "VarianceScaling", "config": {"scale": 2.0, "mode": "fan_in", "distribution": "normal", "seed": null}}, "bias_initializer": {"class_name": "Zeros", "config": {}}, "kernel_regularizer": null, "bias_regularizer": null, "activity_regularizer": null, "kernel_constraint": null, "bias_constraint": null}, "inbound_nodes": [[["padding4b12_branch2b", 0, 0, {}]]]}, {"name": "bn4b12_branch2b", "class_name": "BatchNormalization", "config": {"name": "bn4b12_branch2b", "trainable": false, "axis": 3, "momentum": 0.99, "epsilon": 1e-05, "center": true, "scale": true, "beta_initializer": {"class_name": "Zeros", "config": {}}, "gamma_initializer": {"class_name": "Ones", "config": {}}, "moving_mean_initializer": {"class_name": "Zeros", "config": {}}, "moving_variance_initializer": {"class_name": "Ones", "config": {}}, "beta_regularizer": null, "gamma_regularizer": null, "beta_constraint": null, "gamma_constraint": null, "freeze": true}, "inbound_nodes": [[["res4b12_branch2b", 0, 0, {}]]]}, {"name": "res4b12_branch2b_relu", "class_name": "Activation", "config": {"name": "res4b12_branch2b_relu", "trainable": true, "activation": "relu"}, "inbound_nodes": [[["bn4b12_branch2b", 0, 0, {}]]]}, {"name": "res4b12_branch2c", "class_name": "Conv2D", "config": {"name": "res4b12_branch2c", "trainable": true, "filters": 1024, "kernel_size": [1, 1], "strides": [1, 1], "padding": "valid", "data_format": "channels_last", "dilation_rate": [1, 1], "activation": "linear", "use_bias": false, "kernel_initializer": {"class_name": "VarianceScaling", "config": {"scale": 2.0, "mode": "fan_in", "distribution": "normal", "seed": null}}, "bias_initializer": {"class_name": "Zeros", "config": {}}, "kernel_regularizer": null, "bias_regularizer": null, "activity_regularizer": null, "kernel_constraint": null, "bias_constraint": null}, "inbound_nodes": [[["res4b12_branch2b_relu", 0, 0, {}]]]}, {"name": "bn4b12_branch2c", "class_name": "BatchNormalization", "config": {"name": "bn4b12_branch2c", "trainable": false, "axis": 3, "momentum": 0.99, "epsilon": 1e-05, "center": true, "scale": true, "beta_initializer": {"class_name": "Zeros", "config": {}}, "gamma_initializer": {"class_name": "Ones", "config": {}}, "moving_mean_initializer": {"class_name": "Zeros", "config": {}}, "moving_variance_initializer": {"class_name": "Ones", "config": {}}, "beta_regularizer": null, "gamma_regularizer": null, "beta_constraint": null, "gamma_constraint": null, "freeze": true}, "inbound_nodes": [[["res4b12_branch2c", 0, 0, {}]]]}, {"name": "res4b12", "class_name": "Add", "config": {"name": "res4b12", "trainable": true}, "inbound_nodes": [[["bn4b12_branch2c", 0, 0, {}], ["res4b11_relu", 0, 0, {}]]]}, {"name": "res4b12_relu", "class_name": "Activation", "config": {"name": "res4b12_relu", "trainable": true, "activation": "relu"}, "inbound_nodes": [[["res4b12", 0, 0, {}]]]}, {"name": "res4b13_branch2a", "class_name": "Conv2D", "config": {"name": "res4b13_branch2a", "trainable": true, "filters": 256, "kernel_size": [1, 1], "strides": [1, 1], "padding": "valid", "data_format": "channels_last", "dilation_rate": [1, 1], "activation": "linear", "use_bias": false, "kernel_initializer": {"class_name": "VarianceScaling", "config": {"scale": 2.0, "mode": "fan_in", "distribution": "normal", "seed": null}}, "bias_initializer": {"class_name": "Zeros", "config": {}}, "kernel_regularizer": null, "bias_regularizer": null, "activity_regularizer": null, "kernel_constraint": null, "bias_constraint": null}, "inbound_nodes": [[["res4b12_relu", 0, 0, {}]]]}, {"name": "bn4b13_branch2a", "class_name": "BatchNormalization", "config": {"name": "bn4b13_branch2a", "trainable": false, "axis": 3, "momentum": 0.99, "epsilon": 1e-05, "center": true, "scale": true, "beta_initializer": {"class_name": "Zeros", "config": {}}, "gamma_initializer": {"class_name": "Ones", "config": {}}, "moving_mean_initializer": {"class_name": "Zeros", "config": {}}, "moving_variance_initializer": {"class_name": "Ones", "config": {}}, "beta_regularizer": null, "gamma_regularizer": null, "beta_constraint": null, "gamma_constraint": null, "freeze": true}, "inbound_nodes": [[["res4b13_branch2a", 0, 0, {}]]]}, {"name": "res4b13_branch2a_relu", "class_name": "Activation", "config": {"name": "res4b13_branch2a_relu", "trainable": true, "activation": "relu"}, "inbound_nodes": [[["bn4b13_branch2a", 0, 0, {}]]]}, {"name": "padding4b13_branch2b", "class_name": "ZeroPadding2D", "config": {"name": "padding4b13_branch2b", "trainable": true, "padding": [[1, 1], [1, 1]], "data_format": "channels_last"}, "inbound_nodes": [[["res4b13_branch2a_relu", 0, 0, {}]]]}, {"name": "res4b13_branch2b", "class_name": "Conv2D", "config": {"name": "res4b13_branch2b", "trainable": true, "filters": 256, "kernel_size": [3, 3], "strides": [1, 1], "padding": "valid", "data_format": "channels_last", "dilation_rate": [1, 1], "activation": "linear", "use_bias": false, "kernel_initializer": {"class_name": "VarianceScaling", "config": {"scale": 2.0, "mode": "fan_in", "distribution": "normal", "seed": null}}, "bias_initializer": {"class_name": "Zeros", "config": {}}, "kernel_regularizer": null, "bias_regularizer": null, "activity_regularizer": null, "kernel_constraint": null, "bias_constraint": null}, "inbound_nodes": [[["padding4b13_branch2b", 0, 0, {}]]]}, {"name": "bn4b13_branch2b", "class_name": "BatchNormalization", "config": {"name": "bn4b13_branch2b", "trainable": false, "axis": 3, "momentum": 0.99, "epsilon": 1e-05, "center": true, "scale": true, "beta_initializer": {"class_name": "Zeros", "config": {}}, "gamma_initializer": {"class_name": "Ones", "config": {}}, "moving_mean_initializer": {"class_name": "Zeros", "config": {}}, "moving_variance_initializer": {"class_name": "Ones", "config": {}}, "beta_regularizer": null, "gamma_regularizer": null, "beta_constraint": null, "gamma_constraint": null, "freeze": true}, "inbound_nodes": [[["res4b13_branch2b", 0, 0, {}]]]}, {"name": "res4b13_branch2b_relu", "class_name": "Activation", "config": {"name": "res4b13_branch2b_relu", "trainable": true, "activation": "relu"}, "inbound_nodes": [[["bn4b13_branch2b", 0, 0, {}]]]}, {"name": "res4b13_branch2c", "class_name": "Conv2D", "config": {"name": "res4b13_branch2c", "trainable": true, "filters": 1024, "kernel_size": [1, 1], "strides": [1, 1], "padding": "valid", "data_format": "channels_last", "dilation_rate": [1, 1], "activation": "linear", "use_bias": false, "kernel_initializer": {"class_name": "VarianceScaling", "config": {"scale": 2.0, "mode": "fan_in", "distribution": "normal", "seed": null}}, "bias_initializer": {"class_name": "Zeros", "config": {}}, "kernel_regularizer": null, "bias_regularizer": null, "activity_regularizer": null, "kernel_constraint": null, "bias_constraint": null}, "inbound_nodes": [[["res4b13_branch2b_relu", 0, 0, {}]]]}, {"name": "bn4b13_branch2c", "class_name": "BatchNormalization", "config": {"name": "bn4b13_branch2c", "trainable": false, "axis": 3, "momentum": 0.99, "epsilon": 1e-05, "center": true, "scale": true, "beta_initializer": {"class_name": "Zeros", "config": {}}, "gamma_initializer": {"class_name": "Ones", "config": {}}, "moving_mean_initializer": {"class_name": "Zeros", "config": {}}, "moving_variance_initializer": {"class_name": "Ones", "config": {}}, "beta_regularizer": null, "gamma_regularizer": null, "beta_constraint": null, "gamma_constraint": null, "freeze": true}, "inbound_nodes": [[["res4b13_branch2c", 0, 0, {}]]]}, {"name": "res4b13", "class_name": "Add", "config": {"name": "res4b13", "trainable": true}, "inbound_nodes": [[["bn4b13_branch2c", 0, 0, {}], ["res4b12_relu", 0, 0, {}]]]}, {"name": "res4b13_relu", "class_name": "Activation", "config": {"name": "res4b13_relu", "trainable": true, "activation": "relu"}, "inbound_nodes": [[["res4b13", 0, 0, {}]]]}, {"name": "res4b14_branch2a", "class_name": "Conv2D", "config": {"name": "res4b14_branch2a", "trainable": true, "filters": 256, "kernel_size": [1, 1], "strides": [1, 1], "padding": "valid", "data_format": "channels_last", "dilation_rate": [1, 1], "activation": "linear", "use_bias": false, "kernel_initializer": {"class_name": "VarianceScaling", "config": {"scale": 2.0, "mode": "fan_in", "distribution": "normal", "seed": null}}, "bias_initializer": {"class_name": "Zeros", "config": {}}, "kernel_regularizer": null, "bias_regularizer": null, "activity_regularizer": null, "kernel_constraint": null, "bias_constraint": null}, "inbound_nodes": [[["res4b13_relu", 0, 0, {}]]]}, {"name": "bn4b14_branch2a", "class_name": "BatchNormalization", "config": {"name": "bn4b14_branch2a", "trainable": false, "axis": 3, "momentum": 0.99, "epsilon": 1e-05, "center": true, "scale": true, "beta_initializer": {"class_name": "Zeros", "config": {}}, "gamma_initializer": {"class_name": "Ones", "config": {}}, "moving_mean_initializer": {"class_name": "Zeros", "config": {}}, "moving_variance_initializer": {"class_name": "Ones", "config": {}}, "beta_regularizer": null, "gamma_regularizer": null, "beta_constraint": null, "gamma_constraint": null, "freeze": true}, "inbound_nodes": [[["res4b14_branch2a", 0, 0, {}]]]}, {"name": "res4b14_branch2a_relu", "class_name": "Activation", "config": {"name": "res4b14_branch2a_relu", "trainable": true, "activation": "relu"}, "inbound_nodes": [[["bn4b14_branch2a", 0, 0, {}]]]}, {"name": "padding4b14_branch2b", "class_name": "ZeroPadding2D", "config": {"name": "padding4b14_branch2b", "trainable": true, "padding": [[1, 1], [1, 1]], "data_format": "channels_last"}, "inbound_nodes": [[["res4b14_branch2a_relu", 0, 0, {}]]]}, {"name": "res4b14_branch2b", "class_name": "Conv2D", "config": {"name": "res4b14_branch2b", "trainable": true, "filters": 256, "kernel_size": [3, 3], "strides": [1, 1], "padding": "valid", "data_format": "channels_last", "dilation_rate": [1, 1], "activation": "linear", "use_bias": false, "kernel_initializer": {"class_name": "VarianceScaling", "config": {"scale": 2.0, "mode": "fan_in", "distribution": "normal", "seed": null}}, "bias_initializer": {"class_name": "Zeros", "config": {}}, "kernel_regularizer": null, "bias_regularizer": null, "activity_regularizer": null, "kernel_constraint": null, "bias_constraint": null}, "inbound_nodes": [[["padding4b14_branch2b", 0, 0, {}]]]}, {"name": "bn4b14_branch2b", "class_name": "BatchNormalization", "config": {"name": "bn4b14_branch2b", "trainable": false, "axis": 3, "momentum": 0.99, "epsilon": 1e-05, "center": true, "scale": true, "beta_initializer": {"class_name": "Zeros", "config": {}}, "gamma_initializer": {"class_name": "Ones", "config": {}}, "moving_mean_initializer": {"class_name": "Zeros", "config": {}}, "moving_variance_initializer": {"class_name": "Ones", "config": {}}, "beta_regularizer": null, "gamma_regularizer": null, "beta_constraint": null, "gamma_constraint": null, "freeze": true}, "inbound_nodes": [[["res4b14_branch2b", 0, 0, {}]]]}, {"name": "res4b14_branch2b_relu", "class_name": "Activation", "config": {"name": "res4b14_branch2b_relu", "trainable": true, "activation": "relu"}, "inbound_nodes": [[["bn4b14_branch2b", 0, 0, {}]]]}, {"name": "res4b14_branch2c", "class_name": "Conv2D", "config": {"name": "res4b14_branch2c", "trainable": true, "filters": 1024, "kernel_size": [1, 1], "strides": [1, 1], "padding": "valid", "data_format": "channels_last", "dilation_rate": [1, 1], "activation": "linear", "use_bias": false, "kernel_initializer": {"class_name": "VarianceScaling", "config": {"scale": 2.0, "mode": "fan_in", "distribution": "normal", "seed": null}}, "bias_initializer": {"class_name": "Zeros", "config": {}}, "kernel_regularizer": null, "bias_regularizer": null, "activity_regularizer": null, "kernel_constraint": null, "bias_constraint": null}, "inbound_nodes": [[["res4b14_branch2b_relu", 0, 0, {}]]]}, {"name": "bn4b14_branch2c", "class_name": "BatchNormalization", "config": {"name": "bn4b14_branch2c", "trainable": false, "axis": 3, "momentum": 0.99, "epsilon": 1e-05, "center": true, "scale": true, "beta_initializer": {"class_name": "Zeros", "config": {}}, "gamma_initializer": {"class_name": "Ones", "config": {}}, "moving_mean_initializer": {"class_name": "Zeros", "config": {}}, "moving_variance_initializer": {"class_name": "Ones", "config": {}}, "beta_regularizer": null, "gamma_regularizer": null, "beta_constraint": null, "gamma_constraint": null, "freeze": true}, "inbound_nodes": [[["res4b14_branch2c", 0, 0, {}]]]}, {"name": "res4b14", "class_name": "Add", "config": {"name": "res4b14", "trainable": true}, "inbound_nodes": [[["bn4b14_branch2c", 0, 0, {}], ["res4b13_relu", 0, 0, {}]]]}, {"name": "res4b14_relu", "class_name": "Activation", "config": {"name": "res4b14_relu", "trainable": true, "activation": "relu"}, "inbound_nodes": [[["res4b14", 0, 0, {}]]]}, {"name": "res4b15_branch2a", "class_name": "Conv2D", "config": {"name": "res4b15_branch2a", "trainable": true, "filters": 256, "kernel_size": [1, 1], "strides": [1, 1], "padding": "valid", "data_format": "channels_last", "dilation_rate": [1, 1], "activation": "linear", "use_bias": false, "kernel_initializer": {"class_name": "VarianceScaling", "config": {"scale": 2.0, "mode": "fan_in", "distribution": "normal", "seed": null}}, "bias_initializer": {"class_name": "Zeros", "config": {}}, "kernel_regularizer": null, "bias_regularizer": null, "activity_regularizer": null, "kernel_constraint": null, "bias_constraint": null}, "inbound_nodes": [[["res4b14_relu", 0, 0, {}]]]}, {"name": "bn4b15_branch2a", "class_name": "BatchNormalization", "config": {"name": "bn4b15_branch2a", "trainable": false, "axis": 3, "momentum": 0.99, "epsilon": 1e-05, "center": true, "scale": true, "beta_initializer": {"class_name": "Zeros", "config": {}}, "gamma_initializer": {"class_name": "Ones", "config": {}}, "moving_mean_initializer": {"class_name": "Zeros", "config": {}}, "moving_variance_initializer": {"class_name": "Ones", "config": {}}, "beta_regularizer": null, "gamma_regularizer": null, "beta_constraint": null, "gamma_constraint": null, "freeze": true}, "inbound_nodes": [[["res4b15_branch2a", 0, 0, {}]]]}, {"name": "res4b15_branch2a_relu", "class_name": "Activation", "config": {"name": "res4b15_branch2a_relu", "trainable": true, "activation": "relu"}, "inbound_nodes": [[["bn4b15_branch2a", 0, 0, {}]]]}, {"name": "padding4b15_branch2b", "class_name": "ZeroPadding2D", "config": {"name": "padding4b15_branch2b", "trainable": true, "padding": [[1, 1], [1, 1]], "data_format": "channels_last"}, "inbound_nodes": [[["res4b15_branch2a_relu", 0, 0, {}]]]}, {"name": "res4b15_branch2b", "class_name": "Conv2D", "config": {"name": "res4b15_branch2b", "trainable": true, "filters": 256, "kernel_size": [3, 3], "strides": [1, 1], "padding": "valid", "data_format": "channels_last", "dilation_rate": [1, 1], "activation": "linear", "use_bias": false, "kernel_initializer": {"class_name": "VarianceScaling", "config": {"scale": 2.0, "mode": "fan_in", "distribution": "normal", "seed": null}}, "bias_initializer": {"class_name": "Zeros", "config": {}}, "kernel_regularizer": null, "bias_regularizer": null, "activity_regularizer": null, "kernel_constraint": null, "bias_constraint": null}, "inbound_nodes": [[["padding4b15_branch2b", 0, 0, {}]]]}, {"name": "bn4b15_branch2b", "class_name": "BatchNormalization", "config": {"name": "bn4b15_branch2b", "trainable": false, "axis": 3, "momentum": 0.99, "epsilon": 1e-05, "center": true, "scale": true, "beta_initializer": {"class_name": "Zeros", "config": {}}, "gamma_initializer": {"class_name": "Ones", "config": {}}, "moving_mean_initializer": {"class_name": "Zeros", "config": {}}, "moving_variance_initializer": {"class_name": "Ones", "config": {}}, "beta_regularizer": null, "gamma_regularizer": null, "beta_constraint": null, "gamma_constraint": null, "freeze": true}, "inbound_nodes": [[["res4b15_branch2b", 0, 0, {}]]]}, {"name": "res4b15_branch2b_relu", "class_name": "Activation", "config": {"name": "res4b15_branch2b_relu", "trainable": true, "activation": "relu"}, "inbound_nodes": [[["bn4b15_branch2b", 0, 0, {}]]]}, {"name": "res4b15_branch2c", "class_name": "Conv2D", "config": {"name": "res4b15_branch2c", "trainable": true, "filters": 1024, "kernel_size": [1, 1], "strides": [1, 1], "padding": "valid", "data_format": "channels_last", "dilation_rate": [1, 1], "activation": "linear", "use_bias": false, "kernel_initializer": {"class_name": "VarianceScaling", "config": {"scale": 2.0, "mode": "fan_in", "distribution": "normal", "seed": null}}, "bias_initializer": {"class_name": "Zeros", "config": {}}, "kernel_regularizer": null, "bias_regularizer": null, "activity_regularizer": null, "kernel_constraint": null, "bias_constraint": null}, "inbound_nodes": [[["res4b15_branch2b_relu", 0, 0, {}]]]}, {"name": "bn4b15_branch2c", "class_name": "BatchNormalization", "config": {"name": "bn4b15_branch2c", "trainable": false, "axis": 3, "momentum": 0.99, "epsilon": 1e-05, "center": true, "scale": true, "beta_initializer": {"class_name": "Zeros", "config": {}}, "gamma_initializer": {"class_name": "Ones", "config": {}}, "moving_mean_initializer": {"class_name": "Zeros", "config": {}}, "moving_variance_initializer": {"class_name": "Ones", "config": {}}, "beta_regularizer": null, "gamma_regularizer": null, "beta_constraint": null, "gamma_constraint": null, "freeze": true}, "inbound_nodes": [[["res4b15_branch2c", 0, 0, {}]]]}, {"name": "res4b15", "class_name": "Add", "config": {"name": "res4b15", "trainable": true}, "inbound_nodes": [[["bn4b15_branch2c", 0, 0, {}], ["res4b14_relu", 0, 0, {}]]]}, {"name": "res4b15_relu", "class_name": "Activation", "config": {"name": "res4b15_relu", "trainable": true, "activation": "relu"}, "inbound_nodes": [[["res4b15", 0, 0, {}]]]}, {"name": "res4b16_branch2a", "class_name": "Conv2D", "config": {"name": "res4b16_branch2a", "trainable": true, "filters": 256, "kernel_size": [1, 1], "strides": [1, 1], "padding": "valid", "data_format": "channels_last", "dilation_rate": [1, 1], "activation": "linear", "use_bias": false, "kernel_initializer": {"class_name": "VarianceScaling", "config": {"scale": 2.0, "mode": "fan_in", "distribution": "normal", "seed": null}}, "bias_initializer": {"class_name": "Zeros", "config": {}}, "kernel_regularizer": null, "bias_regularizer": null, "activity_regularizer": null, "kernel_constraint": null, "bias_constraint": null}, "inbound_nodes": [[["res4b15_relu", 0, 0, {}]]]}, {"name": "bn4b16_branch2a", "class_name": "BatchNormalization", "config": {"name": "bn4b16_branch2a", "trainable": false, "axis": 3, "momentum": 0.99, "epsilon": 1e-05, "center": true, "scale": true, "beta_initializer": {"class_name": "Zeros", "config": {}}, "gamma_initializer": {"class_name": "Ones", "config": {}}, "moving_mean_initializer": {"class_name": "Zeros", "config": {}}, "moving_variance_initializer": {"class_name": "Ones", "config": {}}, "beta_regularizer": null, "gamma_regularizer": null, "beta_constraint": null, "gamma_constraint": null, "freeze": true}, "inbound_nodes": [[["res4b16_branch2a", 0, 0, {}]]]}, {"name": "res4b16_branch2a_relu", "class_name": "Activation", "config": {"name": "res4b16_branch2a_relu", "trainable": true, "activation": "relu"}, "inbound_nodes": [[["bn4b16_branch2a", 0, 0, {}]]]}, {"name": "padding4b16_branch2b", "class_name": "ZeroPadding2D", "config": {"name": "padding4b16_branch2b", "trainable": true, "padding": [[1, 1], [1, 1]], "data_format": "channels_last"}, "inbound_nodes": [[["res4b16_branch2a_relu", 0, 0, {}]]]}, {"name": "res4b16_branch2b", "class_name": "Conv2D", "config": {"name": "res4b16_branch2b", "trainable": true, "filters": 256, "kernel_size": [3, 3], "strides": [1, 1], "padding": "valid", "data_format": "channels_last", "dilation_rate": [1, 1], "activation": "linear", "use_bias": false, "kernel_initializer": {"class_name": "VarianceScaling", "config": {"scale": 2.0, "mode": "fan_in", "distribution": "normal", "seed": null}}, "bias_initializer": {"class_name": "Zeros", "config": {}}, "kernel_regularizer": null, "bias_regularizer": null, "activity_regularizer": null, "kernel_constraint": null, "bias_constraint": null}, "inbound_nodes": [[["padding4b16_branch2b", 0, 0, {}]]]}, {"name": "bn4b16_branch2b", "class_name": "BatchNormalization", "config": {"name": "bn4b16_branch2b", "trainable": false, "axis": 3, "momentum": 0.99, "epsilon": 1e-05, "center": true, "scale": true, "beta_initializer": {"class_name": "Zeros", "config": {}}, "gamma_initializer": {"class_name": "Ones", "config": {}}, "moving_mean_initializer": {"class_name": "Zeros", "config": {}}, "moving_variance_initializer": {"class_name": "Ones", "config": {}}, "beta_regularizer": null, "gamma_regularizer": null, "beta_constraint": null, "gamma_constraint": null, "freeze": true}, "inbound_nodes": [[["res4b16_branch2b", 0, 0, {}]]]}, {"name": "res4b16_branch2b_relu", "class_name": "Activation", "config": {"name": "res4b16_branch2b_relu", "trainable": true, "activation": "relu"}, "inbound_nodes": [[["bn4b16_branch2b", 0, 0, {}]]]}, {"name": "res4b16_branch2c", "class_name": "Conv2D", "config": {"name": "res4b16_branch2c", "trainable": true, "filters": 1024, "kernel_size": [1, 1], "strides": [1, 1], "padding": "valid", "data_format": "channels_last", "dilation_rate": [1, 1], "activation": "linear", "use_bias": false, "kernel_initializer": {"class_name": "VarianceScaling", "config": {"scale": 2.0, "mode": "fan_in", "distribution": "normal", "seed": null}}, "bias_initializer": {"class_name": "Zeros", "config": {}}, "kernel_regularizer": null, "bias_regularizer": null, "activity_regularizer": null, "kernel_constraint": null, "bias_constraint": null}, "inbound_nodes": [[["res4b16_branch2b_relu", 0, 0, {}]]]}, {"name": "bn4b16_branch2c", "class_name": "BatchNormalization", "config": {"name": "bn4b16_branch2c", "trainable": false, "axis": 3, "momentum": 0.99, "epsilon": 1e-05, "center": true, "scale": true, "beta_initializer": {"class_name": "Zeros", "config": {}}, "gamma_initializer": {"class_name": "Ones", "config": {}}, "moving_mean_initializer": {"class_name": "Zeros", "config": {}}, "moving_variance_initializer": {"class_name": "Ones", "config": {}}, "beta_regularizer": null, "gamma_regularizer": null, "beta_constraint": null, "gamma_constraint": null, "freeze": true}, "inbound_nodes": [[["res4b16_branch2c", 0, 0, {}]]]}, {"name": "res4b16", "class_name": "Add", "config": {"name": "res4b16", "trainable": true}, "inbound_nodes": [[["bn4b16_branch2c", 0, 0, {}], ["res4b15_relu", 0, 0, {}]]]}, {"name": "res4b16_relu", "class_name": "Activation", "config": {"name": "res4b16_relu", "trainable": true, "activation": "relu"}, "inbound_nodes": [[["res4b16", 0, 0, {}]]]}, {"name": "res4b17_branch2a", "class_name": "Conv2D", "config": {"name": "res4b17_branch2a", "trainable": true, "filters": 256, "kernel_size": [1, 1], "strides": [1, 1], "padding": "valid", "data_format": "channels_last", "dilation_rate": [1, 1], "activation": "linear", "use_bias": false, "kernel_initializer": {"class_name": "VarianceScaling", "config": {"scale": 2.0, "mode": "fan_in", "distribution": "normal", "seed": null}}, "bias_initializer": {"class_name": "Zeros", "config": {}}, "kernel_regularizer": null, "bias_regularizer": null, "activity_regularizer": null, "kernel_constraint": null, "bias_constraint": null}, "inbound_nodes": [[["res4b16_relu", 0, 0, {}]]]}, {"name": "bn4b17_branch2a", "class_name": "BatchNormalization", "config": {"name": "bn4b17_branch2a", "trainable": false, "axis": 3, "momentum": 0.99, "epsilon": 1e-05, "center": true, "scale": true, "beta_initializer": {"class_name": "Zeros", "config": {}}, "gamma_initializer": {"class_name": "Ones", "config": {}}, "moving_mean_initializer": {"class_name": "Zeros", "config": {}}, "moving_variance_initializer": {"class_name": "Ones", "config": {}}, "beta_regularizer": null, "gamma_regularizer": null, "beta_constraint": null, "gamma_constraint": null, "freeze": true}, "inbound_nodes": [[["res4b17_branch2a", 0, 0, {}]]]}, {"name": "res4b17_branch2a_relu", "class_name": "Activation", "config": {"name": "res4b17_branch2a_relu", "trainable": true, "activation": "relu"}, "inbound_nodes": [[["bn4b17_branch2a", 0, 0, {}]]]}, {"name": "padding4b17_branch2b", "class_name": "ZeroPadding2D", "config": {"name": "padding4b17_branch2b", "trainable": true, "padding": [[1, 1], [1, 1]], "data_format": "channels_last"}, "inbound_nodes": [[["res4b17_branch2a_relu", 0, 0, {}]]]}, {"name": "res4b17_branch2b", "class_name": "Conv2D", "config": {"name": "res4b17_branch2b", "trainable": true, "filters": 256, "kernel_size": [3, 3], "strides": [1, 1], "padding": "valid", "data_format": "channels_last", "dilation_rate": [1, 1], "activation": "linear", "use_bias": false, "kernel_initializer": {"class_name": "VarianceScaling", "config": {"scale": 2.0, "mode": "fan_in", "distribution": "normal", "seed": null}}, "bias_initializer": {"class_name": "Zeros", "config": {}}, "kernel_regularizer": null, "bias_regularizer": null, "activity_regularizer": null, "kernel_constraint": null, "bias_constraint": null}, "inbound_nodes": [[["padding4b17_branch2b", 0, 0, {}]]]}, {"name": "bn4b17_branch2b", "class_name": "BatchNormalization", "config": {"name": "bn4b17_branch2b", "trainable": false, "axis": 3, "momentum": 0.99, "epsilon": 1e-05, "center": true, "scale": true, "beta_initializer": {"class_name": "Zeros", "config": {}}, "gamma_initializer": {"class_name": "Ones", "config": {}}, "moving_mean_initializer": {"class_name": "Zeros", "config": {}}, "moving_variance_initializer": {"class_name": "Ones", "config": {}}, "beta_regularizer": null, "gamma_regularizer": null, "beta_constraint": null, "gamma_constraint": null, "freeze": true}, "inbound_nodes": [[["res4b17_branch2b", 0, 0, {}]]]}, {"name": "res4b17_branch2b_relu", "class_name": "Activation", "config": {"name": "res4b17_branch2b_relu", "trainable": true, "activation": "relu"}, "inbound_nodes": [[["bn4b17_branch2b", 0, 0, {}]]]}, {"name": "res4b17_branch2c", "class_name": "Conv2D", "config": {"name": "res4b17_branch2c", "trainable": true, "filters": 1024, "kernel_size": [1, 1], "strides": [1, 1], "padding": "valid", "data_format": "channels_last", "dilation_rate": [1, 1], "activation": "linear", "use_bias": false, "kernel_initializer": {"class_name": "VarianceScaling", "config": {"scale": 2.0, "mode": "fan_in", "distribution": "normal", "seed": null}}, "bias_initializer": {"class_name": "Zeros", "config": {}}, "kernel_regularizer": null, "bias_regularizer": null, "activity_regularizer": null, "kernel_constraint": null, "bias_constraint": null}, "inbound_nodes": [[["res4b17_branch2b_relu", 0, 0, {}]]]}, {"name": "bn4b17_branch2c", "class_name": "BatchNormalization", "config": {"name": "bn4b17_branch2c", "trainable": false, "axis": 3, "momentum": 0.99, "epsilon": 1e-05, "center": true, "scale": true, "beta_initializer": {"class_name": "Zeros", "config": {}}, "gamma_initializer": {"class_name": "Ones", "config": {}}, "moving_mean_initializer": {"class_name": "Zeros", "config": {}}, "moving_variance_initializer": {"class_name": "Ones", "config": {}}, "beta_regularizer": null, "gamma_regularizer": null, "beta_constraint": null, "gamma_constraint": null, "freeze": true}, "inbound_nodes": [[["res4b17_branch2c", 0, 0, {}]]]}, {"name": "res4b17", "class_name": "Add", "config": {"name": "res4b17", "trainable": true}, "inbound_nodes": [[["bn4b17_branch2c", 0, 0, {}], ["res4b16_relu", 0, 0, {}]]]}, {"name": "res4b17_relu", "class_name": "Activation", "config": {"name": "res4b17_relu", "trainable": true, "activation": "relu"}, "inbound_nodes": [[["res4b17", 0, 0, {}]]]}, {"name": "res4b18_branch2a", "class_name": "Conv2D", "config": {"name": "res4b18_branch2a", "trainable": true, "filters": 256, "kernel_size": [1, 1], "strides": [1, 1], "padding": "valid", "data_format": "channels_last", "dilation_rate": [1, 1], "activation": "linear", "use_bias": false, "kernel_initializer": {"class_name": "VarianceScaling", "config": {"scale": 2.0, "mode": "fan_in", "distribution": "normal", "seed": null}}, "bias_initializer": {"class_name": "Zeros", "config": {}}, "kernel_regularizer": null, "bias_regularizer": null, "activity_regularizer": null, "kernel_constraint": null, "bias_constraint": null}, "inbound_nodes": [[["res4b17_relu", 0, 0, {}]]]}, {"name": "bn4b18_branch2a", "class_name": "BatchNormalization", "config": {"name": "bn4b18_branch2a", "trainable": false, "axis": 3, "momentum": 0.99, "epsilon": 1e-05, "center": true, "scale": true, "beta_initializer": {"class_name": "Zeros", "config": {}}, "gamma_initializer": {"class_name": "Ones", "config": {}}, "moving_mean_initializer": {"class_name": "Zeros", "config": {}}, "moving_variance_initializer": {"class_name": "Ones", "config": {}}, "beta_regularizer": null, "gamma_regularizer": null, "beta_constraint": null, "gamma_constraint": null, "freeze": true}, "inbound_nodes": [[["res4b18_branch2a", 0, 0, {}]]]}, {"name": "res4b18_branch2a_relu", "class_name": "Activation", "config": {"name": "res4b18_branch2a_relu", "trainable": true, "activation": "relu"}, "inbound_nodes": [[["bn4b18_branch2a", 0, 0, {}]]]}, {"name": "padding4b18_branch2b", "class_name": "ZeroPadding2D", "config": {"name": "padding4b18_branch2b", "trainable": true, "padding": [[1, 1], [1, 1]], "data_format": "channels_last"}, "inbound_nodes": [[["res4b18_branch2a_relu", 0, 0, {}]]]}, {"name": "res4b18_branch2b", "class_name": "Conv2D", "config": {"name": "res4b18_branch2b", "trainable": true, "filters": 256, "kernel_size": [3, 3], "strides": [1, 1], "padding": "valid", "data_format": "channels_last", "dilation_rate": [1, 1], "activation": "linear", "use_bias": false, "kernel_initializer": {"class_name": "VarianceScaling", "config": {"scale": 2.0, "mode": "fan_in", "distribution": "normal", "seed": null}}, "bias_initializer": {"class_name": "Zeros", "config": {}}, "kernel_regularizer": null, "bias_regularizer": null, "activity_regularizer": null, "kernel_constraint": null, "bias_constraint": null}, "inbound_nodes": [[["padding4b18_branch2b", 0, 0, {}]]]}, {"name": "bn4b18_branch2b", "class_name": "BatchNormalization", "config": {"name": "bn4b18_branch2b", "trainable": false, "axis": 3, "momentum": 0.99, "epsilon": 1e-05, "center": true, "scale": true, "beta_initializer": {"class_name": "Zeros", "config": {}}, "gamma_initializer": {"class_name": "Ones", "config": {}}, "moving_mean_initializer": {"class_name": "Zeros", "config": {}}, "moving_variance_initializer": {"class_name": "Ones", "config": {}}, "beta_regularizer": null, "gamma_regularizer": null, "beta_constraint": null, "gamma_constraint": null, "freeze": true}, "inbound_nodes": [[["res4b18_branch2b", 0, 0, {}]]]}, {"name": "res4b18_branch2b_relu", "class_name": "Activation", "config": {"name": "res4b18_branch2b_relu", "trainable": true, "activation": "relu"}, "inbound_nodes": [[["bn4b18_branch2b", 0, 0, {}]]]}, {"name": "res4b18_branch2c", "class_name": "Conv2D", "config": {"name": "res4b18_branch2c", "trainable": true, "filters": 1024, "kernel_size": [1, 1], "strides": [1, 1], "padding": "valid", "data_format": "channels_last", "dilation_rate": [1, 1], "activation": "linear", "use_bias": false, "kernel_initializer": {"class_name": "VarianceScaling", "config": {"scale": 2.0, "mode": "fan_in", "distribution": "normal", "seed": null}}, "bias_initializer": {"class_name": "Zeros", "config": {}}, "kernel_regularizer": null, "bias_regularizer": null, "activity_regularizer": null, "kernel_constraint": null, "bias_constraint": null}, "inbound_nodes": [[["res4b18_branch2b_relu", 0, 0, {}]]]}, {"name": "bn4b18_branch2c", "class_name": "BatchNormalization", "config": {"name": "bn4b18_branch2c", "trainable": false, "axis": 3, "momentum": 0.99, "epsilon": 1e-05, "center": true, "scale": true, "beta_initializer": {"class_name": "Zeros", "config": {}}, "gamma_initializer": {"class_name": "Ones", "config": {}}, "moving_mean_initializer": {"class_name": "Zeros", "config": {}}, "moving_variance_initializer": {"class_name": "Ones", "config": {}}, "beta_regularizer": null, "gamma_regularizer": null, "beta_constraint": null, "gamma_constraint": null, "freeze": true}, "inbound_nodes": [[["res4b18_branch2c", 0, 0, {}]]]}, {"name": "res4b18", "class_name": "Add", "config": {"name": "res4b18", "trainable": true}, "inbound_nodes": [[["bn4b18_branch2c", 0, 0, {}], ["res4b17_relu", 0, 0, {}]]]}, {"name": "res4b18_relu", "class_name": "Activation", "config": {"name": "res4b18_relu", "trainable": true, "activation": "relu"}, "inbound_nodes": [[["res4b18", 0, 0, {}]]]}, {"name": "res4b19_branch2a", "class_name": "Conv2D", "config": {"name": "res4b19_branch2a", "trainable": true, "filters": 256, "kernel_size": [1, 1], "strides": [1, 1], "padding": "valid", "data_format": "channels_last", "dilation_rate": [1, 1], "activation": "linear", "use_bias": false, "kernel_initializer": {"class_name": "VarianceScaling", "config": {"scale": 2.0, "mode": "fan_in", "distribution": "normal", "seed": null}}, "bias_initializer": {"class_name": "Zeros", "config": {}}, "kernel_regularizer": null, "bias_regularizer": null, "activity_regularizer": null, "kernel_constraint": null, "bias_constraint": null}, "inbound_nodes": [[["res4b18_relu", 0, 0, {}]]]}, {"name": "bn4b19_branch2a", "class_name": "BatchNormalization", "config": {"name": "bn4b19_branch2a", "trainable": false, "axis": 3, "momentum": 0.99, "epsilon": 1e-05, "center": true, "scale": true, "beta_initializer": {"class_name": "Zeros", "config": {}}, "gamma_initializer": {"class_name": "Ones", "config": {}}, "moving_mean_initializer": {"class_name": "Zeros", "config": {}}, "moving_variance_initializer": {"class_name": "Ones", "config": {}}, "beta_regularizer": null, "gamma_regularizer": null, "beta_constraint": null, "gamma_constraint": null, "freeze": true}, "inbound_nodes": [[["res4b19_branch2a", 0, 0, {}]]]}, {"name": "res4b19_branch2a_relu", "class_name": "Activation", "config": {"name": "res4b19_branch2a_relu", "trainable": true, "activation": "relu"}, "inbound_nodes": [[["bn4b19_branch2a", 0, 0, {}]]]}, {"name": "padding4b19_branch2b", "class_name": "ZeroPadding2D", "config": {"name": "padding4b19_branch2b", "trainable": true, "padding": [[1, 1], [1, 1]], "data_format": "channels_last"}, "inbound_nodes": [[["res4b19_branch2a_relu", 0, 0, {}]]]}, {"name": "res4b19_branch2b", "class_name": "Conv2D", "config": {"name": "res4b19_branch2b", "trainable": true, "filters": 256, "kernel_size": [3, 3], "strides": [1, 1], "padding": "valid", "data_format": "channels_last", "dilation_rate": [1, 1], "activation": "linear", "use_bias": false, "kernel_initializer": {"class_name": "VarianceScaling", "config": {"scale": 2.0, "mode": "fan_in", "distribution": "normal", "seed": null}}, "bias_initializer": {"class_name": "Zeros", "config": {}}, "kernel_regularizer": null, "bias_regularizer": null, "activity_regularizer": null, "kernel_constraint": null, "bias_constraint": null}, "inbound_nodes": [[["padding4b19_branch2b", 0, 0, {}]]]}, {"name": "bn4b19_branch2b", "class_name": "BatchNormalization", "config": {"name": "bn4b19_branch2b", "trainable": false, "axis": 3, "momentum": 0.99, "epsilon": 1e-05, "center": true, "scale": true, "beta_initializer": {"class_name": "Zeros", "config": {}}, "gamma_initializer": {"class_name": "Ones", "config": {}}, "moving_mean_initializer": {"class_name": "Zeros", "config": {}}, "moving_variance_initializer": {"class_name": "Ones", "config": {}}, "beta_regularizer": null, "gamma_regularizer": null, "beta_constraint": null, "gamma_constraint": null, "freeze": true}, "inbound_nodes": [[["res4b19_branch2b", 0, 0, {}]]]}, {"name": "res4b19_branch2b_relu", "class_name": "Activation", "config": {"name": "res4b19_branch2b_relu", "trainable": true, "activation": "relu"}, "inbound_nodes": [[["bn4b19_branch2b", 0, 0, {}]]]}, {"name": "res4b19_branch2c", "class_name": "Conv2D", "config": {"name": "res4b19_branch2c", "trainable": true, "filters": 1024, "kernel_size": [1, 1], "strides": [1, 1], "padding": "valid", "data_format": "channels_last", "dilation_rate": [1, 1], "activation": "linear", "use_bias": false, "kernel_initializer": {"class_name": "VarianceScaling", "config": {"scale": 2.0, "mode": "fan_in", "distribution": "normal", "seed": null}}, "bias_initializer": {"class_name": "Zeros", "config": {}}, "kernel_regularizer": null, "bias_regularizer": null, "activity_regularizer": null, "kernel_constraint": null, "bias_constraint": null}, "inbound_nodes": [[["res4b19_branch2b_relu", 0, 0, {}]]]}, {"name": "bn4b19_branch2c", "class_name": "BatchNormalization", "config": {"name": "bn4b19_branch2c", "trainable": false, "axis": 3, "momentum": 0.99, "epsilon": 1e-05, "center": true, "scale": true, "beta_initializer": {"class_name": "Zeros", "config": {}}, "gamma_initializer": {"class_name": "Ones", "config": {}}, "moving_mean_initializer": {"class_name": "Zeros", "config": {}}, "moving_variance_initializer": {"class_name": "Ones", "config": {}}, "beta_regularizer": null, "gamma_regularizer": null, "beta_constraint": null, "gamma_constraint": null, "freeze": true}, "inbound_nodes": [[["res4b19_branch2c", 0, 0, {}]]]}, {"name": "res4b19", "class_name": "Add", "config": {"name": "res4b19", "trainable": true}, "inbound_nodes": [[["bn4b19_branch2c", 0, 0, {}], ["res4b18_relu", 0, 0, {}]]]}, {"name": "res4b19_relu", "class_name": "Activation", "config": {"name": "res4b19_relu", "trainable": true, "activation": "relu"}, "inbound_nodes": [[["res4b19", 0, 0, {}]]]}, {"name": "res4b20_branch2a", "class_name": "Conv2D", "config": {"name": "res4b20_branch2a", "trainable": true, "filters": 256, "kernel_size": [1, 1], "strides": [1, 1], "padding": "valid", "data_format": "channels_last", "dilation_rate": [1, 1], "activation": "linear", "use_bias": false, "kernel_initializer": {"class_name": "VarianceScaling", "config": {"scale": 2.0, "mode": "fan_in", "distribution": "normal", "seed": null}}, "bias_initializer": {"class_name": "Zeros", "config": {}}, "kernel_regularizer": null, "bias_regularizer": null, "activity_regularizer": null, "kernel_constraint": null, "bias_constraint": null}, "inbound_nodes": [[["res4b19_relu", 0, 0, {}]]]}, {"name": "bn4b20_branch2a", "class_name": "BatchNormalization", "config": {"name": "bn4b20_branch2a", "trainable": false, "axis": 3, "momentum": 0.99, "epsilon": 1e-05, "center": true, "scale": true, "beta_initializer": {"class_name": "Zeros", "config": {}}, "gamma_initializer": {"class_name": "Ones", "config": {}}, "moving_mean_initializer": {"class_name": "Zeros", "config": {}}, "moving_variance_initializer": {"class_name": "Ones", "config": {}}, "beta_regularizer": null, "gamma_regularizer": null, "beta_constraint": null, "gamma_constraint": null, "freeze": true}, "inbound_nodes": [[["res4b20_branch2a", 0, 0, {}]]]}, {"name": "res4b20_branch2a_relu", "class_name": "Activation", "config": {"name": "res4b20_branch2a_relu", "trainable": true, "activation": "relu"}, "inbound_nodes": [[["bn4b20_branch2a", 0, 0, {}]]]}, {"name": "padding4b20_branch2b", "class_name": "ZeroPadding2D", "config": {"name": "padding4b20_branch2b", "trainable": true, "padding": [[1, 1], [1, 1]], "data_format": "channels_last"}, "inbound_nodes": [[["res4b20_branch2a_relu", 0, 0, {}]]]}, {"name": "res4b20_branch2b", "class_name": "Conv2D", "config": {"name": "res4b20_branch2b", "trainable": true, "filters": 256, "kernel_size": [3, 3], "strides": [1, 1], "padding": "valid", "data_format": "channels_last", "dilation_rate": [1, 1], "activation": "linear", "use_bias": false, "kernel_initializer": {"class_name": "VarianceScaling", "config": {"scale": 2.0, "mode": "fan_in", "distribution": "normal", "seed": null}}, "bias_initializer": {"class_name": "Zeros", "config": {}}, "kernel_regularizer": null, "bias_regularizer": null, "activity_regularizer": null, "kernel_constraint": null, "bias_constraint": null}, "inbound_nodes": [[["padding4b20_branch2b", 0, 0, {}]]]}, {"name": "bn4b20_branch2b", "class_name": "BatchNormalization", "config": {"name": "bn4b20_branch2b", "trainable": false, "axis": 3, "momentum": 0.99, "epsilon": 1e-05, "center": true, "scale": true, "beta_initializer": {"class_name": "Zeros", "config": {}}, "gamma_initializer": {"class_name": "Ones", "config": {}}, "moving_mean_initializer": {"class_name": "Zeros", "config": {}}, "moving_variance_initializer": {"class_name": "Ones", "config": {}}, "beta_regularizer": null, "gamma_regularizer": null, "beta_constraint": null, "gamma_constraint": null, "freeze": true}, "inbound_nodes": [[["res4b20_branch2b", 0, 0, {}]]]}, {"name": "res4b20_branch2b_relu", "class_name": "Activation", "config": {"name": "res4b20_branch2b_relu", "trainable": true, "activation": "relu"}, "inbound_nodes": [[["bn4b20_branch2b", 0, 0, {}]]]}, {"name": "res4b20_branch2c", "class_name": "Conv2D", "config": {"name": "res4b20_branch2c", "trainable": true, "filters": 1024, "kernel_size": [1, 1], "strides": [1, 1], "padding": "valid", "data_format": "channels_last", "dilation_rate": [1, 1], "activation": "linear", "use_bias": false, "kernel_initializer": {"class_name": "VarianceScaling", "config": {"scale": 2.0, "mode": "fan_in", "distribution": "normal", "seed": null}}, "bias_initializer": {"class_name": "Zeros", "config": {}}, "kernel_regularizer": null, "bias_regularizer": null, "activity_regularizer": null, "kernel_constraint": null, "bias_constraint": null}, "inbound_nodes": [[["res4b20_branch2b_relu", 0, 0, {}]]]}, {"name": "bn4b20_branch2c", "class_name": "BatchNormalization", "config": {"name": "bn4b20_branch2c", "trainable": false, "axis": 3, "momentum": 0.99, "epsilon": 1e-05, "center": true, "scale": true, "beta_initializer": {"class_name": "Zeros", "config": {}}, "gamma_initializer": {"class_name": "Ones", "config": {}}, "moving_mean_initializer": {"class_name": "Zeros", "config": {}}, "moving_variance_initializer": {"class_name": "Ones", "config": {}}, "beta_regularizer": null, "gamma_regularizer": null, "beta_constraint": null, "gamma_constraint": null, "freeze": true}, "inbound_nodes": [[["res4b20_branch2c", 0, 0, {}]]]}, {"name": "res4b20", "class_name": "Add", "config": {"name": "res4b20", "trainable": true}, "inbound_nodes": [[["bn4b20_branch2c", 0, 0, {}], ["res4b19_relu", 0, 0, {}]]]}, {"name": "res4b20_relu", "class_name": "Activation", "config": {"name": "res4b20_relu", "trainable": true, "activation": "relu"}, "inbound_nodes": [[["res4b20", 0, 0, {}]]]}, {"name": "res4b21_branch2a", "class_name": "Conv2D", "config": {"name": "res4b21_branch2a", "trainable": true, "filters": 256, "kernel_size": [1, 1], "strides": [1, 1], "padding": "valid", "data_format": "channels_last", "dilation_rate": [1, 1], "activation": "linear", "use_bias": false, "kernel_initializer": {"class_name": "VarianceScaling", "config": {"scale": 2.0, "mode": "fan_in", "distribution": "normal", "seed": null}}, "bias_initializer": {"class_name": "Zeros", "config": {}}, "kernel_regularizer": null, "bias_regularizer": null, "activity_regularizer": null, "kernel_constraint": null, "bias_constraint": null}, "inbound_nodes": [[["res4b20_relu", 0, 0, {}]]]}, {"name": "bn4b21_branch2a", "class_name": "BatchNormalization", "config": {"name": "bn4b21_branch2a", "trainable": false, "axis": 3, "momentum": 0.99, "epsilon": 1e-05, "center": true, "scale": true, "beta_initializer": {"class_name": "Zeros", "config": {}}, "gamma_initializer": {"class_name": "Ones", "config": {}}, "moving_mean_initializer": {"class_name": "Zeros", "config": {}}, "moving_variance_initializer": {"class_name": "Ones", "config": {}}, "beta_regularizer": null, "gamma_regularizer": null, "beta_constraint": null, "gamma_constraint": null, "freeze": true}, "inbound_nodes": [[["res4b21_branch2a", 0, 0, {}]]]}, {"name": "res4b21_branch2a_relu", "class_name": "Activation", "config": {"name": "res4b21_branch2a_relu", "trainable": true, "activation": "relu"}, "inbound_nodes": [[["bn4b21_branch2a", 0, 0, {}]]]}, {"name": "padding4b21_branch2b", "class_name": "ZeroPadding2D", "config": {"name": "padding4b21_branch2b", "trainable": true, "padding": [[1, 1], [1, 1]], "data_format": "channels_last"}, "inbound_nodes": [[["res4b21_branch2a_relu", 0, 0, {}]]]}, {"name": "res4b21_branch2b", "class_name": "Conv2D", "config": {"name": "res4b21_branch2b", "trainable": true, "filters": 256, "kernel_size": [3, 3], "strides": [1, 1], "padding": "valid", "data_format": "channels_last", "dilation_rate": [1, 1], "activation": "linear", "use_bias": false, "kernel_initializer": {"class_name": "VarianceScaling", "config": {"scale": 2.0, "mode": "fan_in", "distribution": "normal", "seed": null}}, "bias_initializer": {"class_name": "Zeros", "config": {}}, "kernel_regularizer": null, "bias_regularizer": null, "activity_regularizer": null, "kernel_constraint": null, "bias_constraint": null}, "inbound_nodes": [[["padding4b21_branch2b", 0, 0, {}]]]}, {"name": "bn4b21_branch2b", "class_name": "BatchNormalization", "config": {"name": "bn4b21_branch2b", "trainable": false, "axis": 3, "momentum": 0.99, "epsilon": 1e-05, "center": true, "scale": true, "beta_initializer": {"class_name": "Zeros", "config": {}}, "gamma_initializer": {"class_name": "Ones", "config": {}}, "moving_mean_initializer": {"class_name": "Zeros", "config": {}}, "moving_variance_initializer": {"class_name": "Ones", "config": {}}, "beta_regularizer": null, "gamma_regularizer": null, "beta_constraint": null, "gamma_constraint": null, "freeze": true}, "inbound_nodes": [[["res4b21_branch2b", 0, 0, {}]]]}, {"name": "res4b21_branch2b_relu", "class_name": "Activation", "config": {"name": "res4b21_branch2b_relu", "trainable": true, "activation": "relu"}, "inbound_nodes": [[["bn4b21_branch2b", 0, 0, {}]]]}, {"name": "res4b21_branch2c", "class_name": "Conv2D", "config": {"name": "res4b21_branch2c", "trainable": true, "filters": 1024, "kernel_size": [1, 1], "strides": [1, 1], "padding": "valid", "data_format": "channels_last", "dilation_rate": [1, 1], "activation": "linear", "use_bias": false, "kernel_initializer": {"class_name": "VarianceScaling", "config": {"scale": 2.0, "mode": "fan_in", "distribution": "normal", "seed": null}}, "bias_initializer": {"class_name": "Zeros", "config": {}}, "kernel_regularizer": null, "bias_regularizer": null, "activity_regularizer": null, "kernel_constraint": null, "bias_constraint": null}, "inbound_nodes": [[["res4b21_branch2b_relu", 0, 0, {}]]]}, {"name": "bn4b21_branch2c", "class_name": "BatchNormalization", "config": {"name": "bn4b21_branch2c", "trainable": false, "axis": 3, "momentum": 0.99, "epsilon": 1e-05, "center": true, "scale": true, "beta_initializer": {"class_name": "Zeros", "config": {}}, "gamma_initializer": {"class_name": "Ones", "config": {}}, "moving_mean_initializer": {"class_name": "Zeros", "config": {}}, "moving_variance_initializer": {"class_name": "Ones", "config": {}}, "beta_regularizer": null, "gamma_regularizer": null, "beta_constraint": null, "gamma_constraint": null, "freeze": true}, "inbound_nodes": [[["res4b21_branch2c", 0, 0, {}]]]}, {"name": "res4b21", "class_name": "Add", "config": {"name": "res4b21", "trainable": true}, "inbound_nodes": [[["bn4b21_branch2c", 0, 0, {}], ["res4b20_relu", 0, 0, {}]]]}, {"name": "res4b21_relu", "class_name": "Activation", "config": {"name": "res4b21_relu", "trainable": true, "activation": "relu"}, "inbound_nodes": [[["res4b21", 0, 0, {}]]]}, {"name": "res4b22_branch2a", "class_name": "Conv2D", "config": {"name": "res4b22_branch2a", "trainable": true, "filters": 256, "kernel_size": [1, 1], "strides": [1, 1], "padding": "valid", "data_format": "channels_last", "dilation_rate": [1, 1], "activation": "linear", "use_bias": false, "kernel_initializer": {"class_name": "VarianceScaling", "config": {"scale": 2.0, "mode": "fan_in", "distribution": "normal", "seed": null}}, "bias_initializer": {"class_name": "Zeros", "config": {}}, "kernel_regularizer": null, "bias_regularizer": null, "activity_regularizer": null, "kernel_constraint": null, "bias_constraint": null}, "inbound_nodes": [[["res4b21_relu", 0, 0, {}]]]}, {"name": "bn4b22_branch2a", "class_name": "BatchNormalization", "config": {"name": "bn4b22_branch2a", "trainable": false, "axis": 3, "momentum": 0.99, "epsilon": 1e-05, "center": true, "scale": true, "beta_initializer": {"class_name": "Zeros", "config": {}}, "gamma_initializer": {"class_name": "Ones", "config": {}}, "moving_mean_initializer": {"class_name": "Zeros", "config": {}}, "moving_variance_initializer": {"class_name": "Ones", "config": {}}, "beta_regularizer": null, "gamma_regularizer": null, "beta_constraint": null, "gamma_constraint": null, "freeze": true}, "inbound_nodes": [[["res4b22_branch2a", 0, 0, {}]]]}, {"name": "res4b22_branch2a_relu", "class_name": "Activation", "config": {"name": "res4b22_branch2a_relu", "trainable": true, "activation": "relu"}, "inbound_nodes": [[["bn4b22_branch2a", 0, 0, {}]]]}, {"name": "padding4b22_branch2b", "class_name": "ZeroPadding2D", "config": {"name": "padding4b22_branch2b", "trainable": true, "padding": [[1, 1], [1, 1]], "data_format": "channels_last"}, "inbound_nodes": [[["res4b22_branch2a_relu", 0, 0, {}]]]}, {"name": "res4b22_branch2b", "class_name": "Conv2D", "config": {"name": "res4b22_branch2b", "trainable": true, "filters": 256, "kernel_size": [3, 3], "strides": [1, 1], "padding": "valid", "data_format…
ving_variance", "shape": [256], "dtype": "float32", "quantization": {"min": 0.7926716804504395, "scale": 9.56052863244071e-05, "dtype": "uint16"}}, {"name": "bn4b21_branch2b/gamma", "shape": [256], "dtype": "float32", "quantization": {"min": 0.5793269276618958, "scale": 9.327120536105115e-06, "dtype": "uint16"}}, {"name": "bn4b21_branch2b/beta", "shape": [256], "dtype": "float32", "quantization": {"min": -1.0160455036819995, "scale": 2.9087214900289127e-05, "dtype": "uint16"}}, {"name": "bn4b21_branch2b/moving_mean", "shape": [256], "dtype": "float32", "quantization": {"min": -0.5138922844606505, "scale": 1.4343715199727874e-05, "dtype": "uint16"}}, {"name": "bn4b21_branch2b/moving_variance", "shape": [256], "dtype": "float32", "quantization": {"min": 0.026999596506357193, "scale": 3.328369783301953e-06, "dtype": "uint16"}}, {"name": "bn4b21_branch2c/gamma", "shape": [1024], "dtype": "float32", "quantization": {"min": 0.20014037191867828, "scale": 2.253467739060404e-05, "dtype": "uint16"}}, {"name": "bn4b21_branch2c/beta", "shape": [1024], "dtype": "float32", "quantization": {"min": -0.9358043726479934, "scale": 2.2193339957501148e-05, "dtype": "uint16"}}, {"name": "bn4b21_branch2c/moving_mean", "shape": [1024], "dtype": "float32", "quantization": {"min": -0.2042015775749401, "scale": 4.963939460216838e-06, "dtype": "uint16"}}, {"name": "bn4b21_branch2c/moving_variance", "shape": [1024], "dtype": "float32", "quantization": {"min": 0.006040326319634914, "scale": 9.100926121803555e-07, "dtype": "uint16"}}, {"name": "bn4b22_branch2a/gamma", "shape": [256], "dtype": "float32", "quantization": {"min": 0.30668407678604126, "scale": 1.21054891646113e-05, "dtype": "uint16"}}, {"name": "bn4b22_branch2a/beta", "shape": [256], "dtype": "float32", "quantization": {"min": -1.4789482814410535, "scale": 3.16603147184093e-05, "dtype": "uint16"}}, {"name": "bn4b22_branch2a/moving_mean", "shape": [256], "dtype": "float32", "quantization": {"min": -5.863150623983946, "scale": 0.00011309217313447934, "dtype": "uint16"}}, {"name": "bn4b22_branch2a/moving_variance", "shape": [256], "dtype": "float32", "quantization": {"min": 0.8593292236328125, "scale": 8.982306733833186e-05, "dtype": "uint16"}}, {"name": "bn4b22_branch2b/gamma", "shape": [256], "dtype": "float32", "quantization": {"min": 0.7017955183982849, "scale": 1.1054535629529743e-05, "dtype": "uint16"}}, {"name": "bn4b22_branch2b/beta", "shape": [256], "dtype": "float32", "quantization": {"min": -0.9706605546478277, "scale": 2.0309680385157402e-05, "dtype": "uint16"}}, {"name": "bn4b22_branch2b/moving_mean", "shape": [256], "dtype": "float32", "quantization": {"min": -0.279889503635021, "scale": 7.573997500541782e-06, "dtype": "uint16"}}, {"name": "bn4b22_branch2b/moving_variance", "shape": [256], "dtype": "float32", "quantization": {"min": 0.021840441972017288, "scale": 2.623025870499626e-06, "dtype": "uint16"}}, {"name": "bn4b22_branch2c/gamma", "shape": [1024], "dtype": "float32", "quantization": {"min": 0.028634190559387207, "scale": 2.41817921988977e-05, "dtype": "uint16"}}, {"name": "bn4b22_branch2c/beta", "shape": [1024], "dtype": "float32", "quantization": {"min": -0.8586087785951695, "scale": 2.0915660485619582e-05, "dtype": "uint16"}}, {"name": "bn4b22_branch2c/moving_mean", "shape": [1024], "dtype": "float32", "quantization": {"min": -0.32463754236384373, "scale": 8.858986010747543e-06, "dtype": "uint16"}}, {"name": "bn4b22_branch2c/moving_variance", "shape": [1024], "dtype": "float32", "quantization": {"min": 0.0014254702255129814, "scale": 1.2086294241834489e-06, "dtype": "uint16"}}, {"name": "bn4b2_branch2a/gamma", "shape": [256], "dtype": "float32", "quantization": {"min": 0.5682913064956665, "scale": 1.837087276007915e-05, "dtype": "uint16"}}, {"name": "bn4b2_branch2a/beta", "shape": [256], "dtype": "float32", "quantization": {"min": -0.9337048211377482, "scale": 3.474121227629663e-05, "dtype": "uint16"}}, {"name": "bn4b2_branch2a/moving_mean", "shape": [256], "dtype": "float32", "quantization": {"min": -3.5464324156443277, "scale": 9.680448793897441e-05, "dtype": "uint16"}}, {"name": "bn4b2_branch2a/moving_variance", "shape": [256], "dtype": "float32", "quantization": {"min": 0.3567390441894531, "scale": 9.893622689055406e-05, "dtype": "uint16"}}, {"name": "bn4b2_branch2b/gamma", "shape": [256], "dtype": "float32", "quantization": {"min": 0.5084152221679688, "scale": 1.1075879067371264e-05, "dtype": "uint16"}}, {"name": "bn4b2_branch2b/beta", "shape": [256], "dtype": "float32", "quantization": {"min": -1.4525644488735567, "scale": 3.124936963779353e-05, "dtype": "uint16"}}, {"name": "bn4b2_branch2b/moving_mean", "shape": [256], "dtype": "float32", "quantization": {"min": -2.4719741632038517, "scale": 6.012341391715558e-05, "dtype": "uint16"}}, {"name": "bn4b2_branch2b/moving_variance", "shape": [256], "dtype": "float32", "quantization": {"min": 0.07140171527862549, "scale": 1.7410629972709782e-05, "dtype": "uint16"}}, {"name": "bn4b2_branch2c/gamma", "shape": [1024], "dtype": "float32", "quantization": {"min": 0.0017311034025624394, "scale": 3.4915551341367506e-05, "dtype": "uint16"}}, {"name": "bn4b2_branch2c/beta", "shape": [1024], "dtype": "float32", "quantization": {"min": -1.113041669860206, "scale": 2.838667864983948e-05, "dtype": "uint16"}}, {"name": "bn4b2_branch2c/moving_mean", "shape": [1024], "dtype": "float32", "quantization": {"min": -0.23959101287339277, "scale": 6.062985876291033e-06, "dtype": "uint16"}}, {"name": "bn4b2_branch2c/moving_variance", "shape": [1024], "dtype": "float32", "quantization": {"min": 0.0002886457950808108, "scale": 1.2120255283321274e-06, "dtype": "uint16"}}, {"name": "bn4b3_branch2a/gamma", "shape": [256], "dtype": "float32", "quantization": {"min": 0.582733690738678, "scale": 1.3338655467581638e-05, "dtype": "uint16"}}, {"name": "bn4b3_branch2a/beta", "shape": [256], "dtype": "float32", "quantization": {"min": -1.3543054563662476, "scale": 2.8191204337349035e-05, "dtype": "uint16"}}, {"name": "bn4b3_branch2a/moving_mean", "shape": [256], "dtype": "float32", "quantization": {"min": -2.4844567721992554, "scale": 6.895905329741466e-05, "dtype": "uint16"}}, {"name": "bn4b3_branch2a/moving_variance", "shape": [256], "dtype": "float32", "quantization": {"min": 0.29664039611816406, "scale": 7.214598227504045e-05, "dtype": "uint16"}}, {"name": "bn4b3_branch2b/gamma", "shape": [256], "dtype": "float32", "quantization": {"min": 0.45967739820480347, "scale": 1.6961439146806002e-05, "dtype": "uint16"}}, {"name": "bn4b3_branch2b/beta", "shape": [256], "dtype": "float32", "quantization": {"min": -1.4481795360114869, "scale": 2.826984863473338e-05, "dtype": "uint16"}}, {"name": "bn4b3_branch2b/moving_mean", "shape": [256], "dtype": "float32", "quantization": {"min": -1.1899528791386575, "scale": 2.9041657615528325e-05, "dtype": "uint16"}}, {"name": "bn4b3_branch2b/moving_variance", "shape": [256], "dtype": "float32", "quantization": {"min": 0.05858929455280304, "scale": 1.0750523064277843e-05, "dtype": "uint16"}}, {"name": "bn4b3_branch2c/gamma", "shape": [1024], "dtype": "float32", "quantization": {"min": 0.04853866621851921, "scale": 4.307961268611255e-05, "dtype": "uint16"}}, {"name": "bn4b3_branch2c/beta", "shape": [1024], "dtype": "float32", "quantization": {"min": -1.3590031072732704, "scale": 2.9933329822542903e-05, "dtype": "uint16"}}, {"name": "bn4b3_branch2c/moving_mean", "shape": [1024], "dtype": "float32", "quantization": {"min": -0.24550632768131334, "scale": 5.74337546627318e-06, "dtype": "uint16"}}, {"name": "bn4b3_branch2c/moving_variance", "shape": [1024], "dtype": "float32", "quantization": {"min": 0.0026830038987100124, "scale": 1.7383318467467439e-06, "dtype": "uint16"}}, {"name": "bn4b4_branch2a/gamma", "shape": [256], "dtype": "float32", "quantization": {"min": 0.6416736841201782, "scale": 1.1316369507017548e-05, "dtype": "uint16"}}, {"name": "bn4b4_branch2a/beta", "shape": [256], "dtype": "float32", "quantization": {"min": -1.0940443339496635, "scale": 2.2243002763991046e-05, "dtype": "uint16"}}, {"name": "bn4b4_branch2a/moving_mean", "shape": [256], "dtype": "float32", "quantization": {"min": -3.9334534703198165, "scale": 8.759109872224412e-05, "dtype": "uint16"}}, {"name": "bn4b4_branch2a/moving_variance", "shape": [256], "dtype": "float32", "quantization": {"min": 0.49440672993659973, "scale": 7.877892602760605e-05, "dtype": "uint16"}}, {"name": "bn4b4_branch2b/gamma", "shape": [256], "dtype": "float32", "quantization": {"min": 0.5529459714889526, "scale": 1.1431837078271146e-05, "dtype": "uint16"}}, {"name": "bn4b4_branch2b/beta", "shape": [256], "dtype": "float32", "quantization": {"min": -1.2890749081317827, "scale": 2.3066976382001694e-05, "dtype": "uint16"}}, {"name": "bn4b4_branch2b/moving_mean", "shape": [256], "dtype": "float32", "quantization": {"min": -1.3794945989428535, "scale": 3.285997472530082e-05, "dtype": "uint16"}}, {"name": "bn4b4_branch2b/moving_variance", "shape": [256], "dtype": "float32", "quantization": {"min": 0.07087081670761108, "scale": 1.0466039922005108e-05, "dtype": "uint16"}}, {"name": "bn4b4_branch2c/gamma", "shape": [1024], "dtype": "float32", "quantization": {"min": 0.021271558478474617, "scale": 2.6290320917853703e-05, "dtype": "uint16"}}, {"name": "bn4b4_branch2c/beta", "shape": [1024], "dtype": "float32", "quantization": {"min": -1.061024051814637, "scale": 2.2586032565183748e-05, "dtype": "uint16"}}, {"name": "bn4b4_branch2c/moving_mean", "shape": [1024], "dtype": "float32", "quantization": {"min": -0.2729871701601214, "scale": 6.433217942219009e-06, "dtype": "uint16"}}, {"name": "bn4b4_branch2c/moving_variance", "shape": [1024], "dtype": "float32", "quantization": {"min": 0.0019316060934215784, "scale": 8.113823492573666e-07, "dtype": "uint16"}}, {"name": "bn4b5_branch2a/gamma", "shape": [256], "dtype": "float32", "quantization": {"min": 0.6976011395454407, "scale": 1.0584832656626353e-05, "dtype": "uint16"}}, {"name": "bn4b5_branch2a/beta", "shape": [256], "dtype": "float32", "quantization": {"min": -1.1624147948260493, "scale": 2.4018819630259716e-05, "dtype": "uint16"}}, {"name": "bn4b5_branch2a/moving_mean", "shape": [256], "dtype": "float32", "quantization": {"min": -3.7913818782769435, "scale": 8.262071255152528e-05, "dtype": "uint16"}}, {"name": "bn4b5_branch2a/moving_variance", "shape": [256], "dtype": "float32", "quantization": {"min": 0.4902319312095642, "scale": 6.888960776980612e-05, "dtype": "uint16"}}, {"name": "bn4b5_branch2b/gamma", "shape": [256], "dtype": "float32", "quantization": {"min": 0.4315560460090637, "scale": 1.2648031041634349e-05, "dtype": "uint16"}}, {"name": "bn4b5_branch2b/beta", "shape": [256], "dtype": "float32", "quantization": {"min": -1.4427869003779683, "scale": 3.0208473448587097e-05, "dtype": "uint16"}}, {"name": "bn4b5_branch2b/moving_mean", "shape": [256], "dtype": "float32", "quantization": {"min": -1.6033258328241715, "scale": 4.425043007270089e-05, "dtype": "uint16"}}, {"name": "bn4b5_branch2b/moving_variance", "shape": [256], "dtype": "float32", "quantization": {"min": 0.0709967166185379, "scale": 1.0536785819505567e-05, "dtype": "uint16"}}, {"name": "bn4b5_branch2c/gamma", "shape": [1024], "dtype": "float32", "quantization": {"min": 0.18350458145141602, "scale": 2.221823957388958e-05, "dtype": "uint16"}}, {"name": "bn4b5_branch2c/beta", "shape": [1024], "dtype": "float32", "quantization": {"min": -0.9905623769086186, "scale": 1.9844188891732647e-05, "dtype": "uint16"}}, {"name": "bn4b5_branch2c/moving_mean", "shape": [1024], "dtype": "float32", "quantization": {"min": -0.15038688071734338, "scale": 3.774960608397595e-06, "dtype": "uint16"}}, {"name": "bn4b5_branch2c/moving_variance", "shape": [1024], "dtype": "float32", "quantization": {"min": 0.002287580631673336, "scale": 7.102528290398617e-07, "dtype": "uint16"}}, {"name": "bn4b6_branch2a/gamma", "shape": [256], "dtype": "float32", "quantization": {"min": 0.6101143956184387, "scale": 9.239642181885437e-06, "dtype": "uint16"}}, {"name": "bn4b6_branch2a/beta", "shape": [256], "dtype": "float32", "quantization": {"min": -1.279445476288052, "scale": 2.345626583595593e-05, "dtype": "uint16"}}, {"name": "bn4b6_branch2a/moving_mean", "shape": [256], "dtype": "float32", "quantization": {"min": -3.001869815114598, "scale": 6.88992130899171e-05, "dtype": "uint16"}}, {"name": "bn4b6_branch2a/moving_variance", "shape": [256], "dtype": "float32", "quantization": {"min": 0.5027506351470947, "scale": 6.059845024837076e-05, "dtype": "uint16"}}, {"name": "bn4b6_branch2b/gamma", "shape": [256], "dtype": "float32", "quantization": {"min": 0.4664902985095978, "scale": 1.965277735406805e-05, "dtype": "uint16"}}, {"name": "bn4b6_branch2b/beta", "shape": [256], "dtype": "float32", "quantization": {"min": -1.2715764627180082, "scale": 2.2739613775604147e-05, "dtype": "uint16"}}, {"name": "bn4b6_branch2b/moving_mean", "shape": [256], "dtype": "float32", "quantization": {"min": -1.1595526911277942, "scale": 3.309131278010885e-05, "dtype": "uint16"}}, {"name": "bn4b6_branch2b/moving_variance", "shape": [256], "dtype": "float32", "quantization": {"min": 0.07379834353923798, "scale": 1.1458041157340115e-05, "dtype": "uint16"}}, {"name": "bn4b6_branch2c/gamma", "shape": [1024], "dtype": "float32", "quantization": {"min": 0.08722216635942459, "scale": 2.656899653520102e-05, "dtype": "uint16"}}, {"name": "bn4b6_branch2c/beta", "shape": [1024], "dtype": "float32", "quantization": {"min": -0.9071015836891124, "scale": 1.8436649330076877e-05, "dtype": "uint16"}}, {"name": "bn4b6_branch2c/moving_mean", "shape": [1024], "dtype": "float32", "quantization": {"min": -0.18425733564992677, "scale": 4.745231409990388e-06, "dtype": "uint16"}}, {"name": "bn4b6_branch2c/moving_variance", "shape": [1024], "dtype": "float32", "quantization": {"min": 0.0029699676670134068, "scale": 8.740710203854254e-07, "dtype": "uint16"}}, {"name": "bn4b7_branch2a/gamma", "shape": [256], "dtype": "float32", "quantization": {"min": 0.6200302243232727, "scale": 9.151659959912565e-06, "dtype": "uint16"}}, {"name": "bn4b7_branch2a/beta", "shape": [256], "dtype": "float32", "quantization": {"min": -1.419565648707148, "scale": 2.3025086349523103e-05, "dtype": "uint16"}}, {"name": "bn4b7_branch2a/moving_mean", "shape": [256], "dtype": "float32", "quantization": {"min": -2.0591850067318243, "scale": 6.128162034199823e-05, "dtype": "uint16"}}, {"name": "bn4b7_branch2a/moving_variance", "shape": [256], "dtype": "float32", "quantization": {"min": 0.4816266894340515, "scale": 5.922646837939548e-05, "dtype": "uint16"}}, {"name": "bn4b7_branch2b/gamma", "shape": [256], "dtype": "float32", "quantization": {"min": 0.48999345302581787, "scale": 1.5366815034553897e-05, "dtype": "uint16"}}, {"name": "bn4b7_branch2b/beta", "shape": [256], "dtype": "float32", "quantization": {"min": -1.5961203683097496, "scale": 3.130814162746414e-05, "dtype": "uint16"}}, {"name": "bn4b7_branch2b/moving_mean", "shape": [256], "dtype": "float32", "quantization": {"min": -1.129909177054582, "scale": 3.462368012056695e-05, "dtype": "uint16"}}, {"name": "bn4b7_branch2b/moving_variance", "shape": [256], "dtype": "float32", "quantization": {"min": 0.04149913787841797, "scale": 9.239844092790147e-06, "dtype": "uint16"}}, {"name": "bn4b7_branch2c/gamma", "shape": [1024], "dtype": "float32", "quantization": {"min": 0.05104919523000717, "scale": 3.7324682879686226e-05, "dtype": "uint16"}}, {"name": "bn4b7_branch2c/beta", "shape": [1024], "dtype": "float32", "quantization": {"min": -0.8049827870900983, "scale": 1.7433681012909826e-05, "dtype": "uint16"}}, {"name": "bn4b7_branch2c/moving_mean", "shape": [1024], "dtype": "float32", "quantization": {"min": -0.22133741690313605, "scale": 6.023278550715325e-06, "dtype": "uint16"}}, {"name": "bn4b7_branch2c/moving_variance", "shape": [1024], "dtype": "float32", "quantization": {"min": 0.002869923133403063, "scale": 1.2664085502340563e-06, "dtype": "uint16"}}, {"name": "bn4b8_branch2a/gamma", "shape": [256], "dtype": "float32", "quantization": {"min": 0.3323902487754822, "scale": 1.105450652525519e-05, "dtype": "uint16"}}, {"name": "bn4b8_branch2a/beta", "shape": [256], "dtype": "float32", "quantization": {"min": -1.4833051505842425, "scale": 2.989992038912783e-05, "dtype": "uint16"}}, {"name": "bn4b8_branch2a/moving_mean", "shape": [256], "dtype": "float32", "quantization": {"min": -2.787734138711854, "scale": 6.921232778965822e-05, "dtype": "uint16"}}, {"name": "bn4b8_branch2a/moving_variance", "shape": [256], "dtype": "float32", "quantization": {"min": 0.8199522495269775, "scale": 9.160629715427996e-05, "dtype": "uint16"}}, {"name": "bn4b8_branch2b/gamma", "shape": [256], "dtype": "float32", "quantization": {"min": 0.5692120790481567, "scale": 1.619160470913775e-05, "dtype": "uint16"}}, {"name": "bn4b8_branch2b/beta", "shape": [256], "dtype": "float32", "quantization": {"min": -1.4971915088416037, "scale": 3.0389337870006366e-05, "dtype": "uint16"}}, {"name": "bn4b8_branch2b/moving_mean", "shape": [256], "dtype": "float32", "quantization": {"min": -0.5227193673856473, "scale": 9.69938705903747e-06, "dtype": "uint16"}}, {"name": "bn4b8_branch2b/moving_variance", "shape": [256], "dtype": "float32", "quantization": {"min": 0.01710302196443081, "scale": 1.840824361495771e-06, "dtype": "uint16"}}, {"name": "bn4b8_branch2c/gamma", "shape": [1024], "dtype": "float32", "quantization": {"min": 0.03024374321103096, "scale": 3.277656295447416e-05, "dtype": "uint16"}}, {"name": "bn4b8_branch2c/beta", "shape": [1024], "dtype": "float32", "quantization": {"min": -0.5961632988687019, "scale": 2.0054606884943044e-05, "dtype": "uint16"}}, {"name": "bn4b8_branch2c/moving_mean", "shape": [1024], "dtype": "float32", "quantization": {"min": -0.3842279696920202, "scale": 8.65670766457182e-06, "dtype": "uint16"}}, {"name": "bn4b8_branch2c/moving_variance", "shape": [1024], "dtype": "float32", "quantization": {"min": 0.0015677763149142265, "scale": 1.6959368451569148e-06, "dtype": "uint16"}}, {"name": "bn4b9_branch2a/gamma", "shape": [256], "dtype": "float32", "quantization": {"min": 0.510822594165802, "scale": 1.2195772443290996e-05, "dtype": "uint16"}}, {"name": "bn4b9_branch2a/beta", "shape": [256], "dtype": "float32", "quantization": {"min": -1.924164806907661, "scale": 3.2900142034840744e-05, "dtype": "uint16"}}, {"name": "bn4b9_branch2a/moving_mean", "shape": [256], "dtype": "float32", "quantization": {"min": -2.686075658436961, "scale": 5.850614576979288e-05, "dtype": "uint16"}}, {"name": "bn4b9_branch2a/moving_variance", "shape": [256], "dtype": "float32", "quantization": {"min": 0.792293906211853, "scale": 0.00021782306472651426, "dtype": "uint16"}}, {"name": "bn4b9_branch2b/gamma", "shape": [256], "dtype": "float32", "quantization": {"min": 0.4286699891090393, "scale": 1.6197377360093563e-05, "dtype": "uint16"}}, {"name": "bn4b9_branch2b/beta", "shape": [256], "dtype": "float32", "quantization": {"min": -1.962301468101566, "scale": 3.812811308633984e-05, "dtype": "uint16"}}, {"name": "bn4b9_branch2b/moving_mean", "shape": [256], "dtype": "float32", "quantization": {"min": -0.8431378875288437, "scale": 2.379124375769191e-05, "dtype": "uint16"}}, {"name": "bn4b9_branch2b/moving_variance", "shape": [256], "dtype": "float32", "quantization": {"min": 0.049946270883083344, "scale": 8.552806427615763e-06, "dtype": "uint16"}}, {"name": "bn4b9_branch2c/gamma", "shape": [1024], "dtype": "float32", "quantization": {"min": 0.021238092333078384, "scale": 3.192639594412036e-05, "dtype": "uint16"}}, {"name": "bn4b9_branch2c/beta", "shape": [1024], "dtype": "float32", "quantization": {"min": -0.8355058074411325, "scale": 1.5410402778485206e-05, "dtype": "uint16"}}, {"name": "bn4b9_branch2c/moving_mean", "shape": [1024], "dtype": "float32", "quantization": {"min": -0.19019400406354003, "scale": 5.022154262193764e-06, "dtype": "uint16"}}, {"name": "bn4b9_branch2c/moving_variance", "shape": [1024], "dtype": "float32", "quantization": {"min": 0.0013994774781167507, "scale": 6.722602326750637e-07, "dtype": "uint16"}}, {"name": "bn5a_branch1/gamma", "shape": [2048], "dtype": "float32", "quantization": {"min": 0.8501044511795044, "scale": 6.202586393675742e-05, "dtype": "uint16"}}, {"name": "bn5a_branch1/beta", "shape": [2048], "dtype": "float32", "quantization": {"min": -1.8660604157800342, "scale": 5.0752295903503975e-05, "dtype": "uint16"}}, {"name": "bn5a_branch1/moving_mean", "shape": [2048], "dtype": "float32", "quantization": {"min": -7.837368751872802, "scale": 0.00020165102536594457, "dtype": "uint16"}}, {"name": "bn5a_branch1/moving_variance", "shape": [2048], "dtype": "float32", "quantization": {"min": 0.3356839418411255, "scale": 3.8276553981644504e-05, "dtype": "uint16"}}, {"name": "bn5a_branch2a/gamma", "shape": [512], "dtype": "float32", "quantization": {"min": 0.5287376642227173, "scale": 1.054023308440005e-05, "dtype": "uint16"}}, {"name": "bn5a_branch2a/beta", "shape": [512], "dtype": "float32", "quantization": {"min": -1.4601012945011458, "scale": 2.7859211877526156e-05, "dtype": "uint16"}}, {"name": "bn5a_branch2a/moving_mean", "shape": [512], "dtype": "float32", "quantization": {"min": -5.222423083927535, "scale": 0.00014635605425349706, "dtype": "uint16"}}, {"name": "bn5a_branch2a/moving_variance", "shape": [512], "dtype": "float32", "quantization": {"min": 1.1250793933868408, "scale": 7.711724339301302e-05, "dtype": "uint16"}}, {"name": "bn5a_branch2b/gamma", "shape": [512], "dtype": "float32", "quantization": {"min": 0.5146623849868774, "scale": 1.4024485873804946e-05, "dtype": "uint16"}}, {"name": "bn5a_branch2b/beta", "shape": [512], "dtype": "float32", "quantization": {"min": -1.6539481091901331, "scale": 3.665827627975826e-05, "dtype": "uint16"}}, {"name": "bn5a_branch2b/moving_mean", "shape": [512], "dtype": "float32", "quantization": {"min": -1.5585537338780713, "scale": 3.8957999647004734e-05, "dtype": "uint16"}}, {"name": "bn5a_branch2b/moving_variance", "shape": [512], "dtype": "float32", "quantization": {"min": 0.15052483975887299, "scale": 1.0371166580900444e-05, "dtype": "uint16"}}, {"name": "bn5a_branch2c/gamma", "shape": [2048], "dtype": "float32", "quantization": {"min": 0.6683835387229919, "scale": 3.1176481620210565e-05, "dtype": "uint16"}}, {"name": "bn5a_branch2c/beta", "shape": [2048], "dtype": "float32", "quantization": {"min": -1.8660604157800342, "scale": 5.0752295903503975e-05, "dtype": "uint16"}}, {"name": "bn5a_branch2c/moving_mean", "shape": [2048], "dtype": "float32", "quantization": {"min": -0.7302930943487692, "scale": 2.1846748065955762e-05, "dtype": "uint16"}}, {"name": "bn5a_branch2c/moving_variance", "shape": [2048], "dtype": "float32", "quantization": {"min": 0.004749747458845377, "scale": 3.168014346918871e-06, "dtype": "uint16"}}, {"name": "bn5b_branch2a/gamma", "shape": [512], "dtype": "float32", "quantization": {"min": 0.42688268423080444, "scale": 1.0983350212008109e-05, "dtype": "uint16"}}, {"name": "bn5b_branch2a/beta", "shape": [512], "dtype": "float32", "quantization": {"min": -1.1947602868771365, "scale": 2.7931274970827274e-05, "dtype": "uint16"}}, {"name": "bn5b_branch2a/moving_mean", "shape": [512], "dtype": "float32", "quantization": {"min": -2.681057055249152, "scale": 0.00010977591021779274, "dtype": "uint16"}}, {"name": "bn5b_branch2a/moving_variance", "shape": [512], "dtype": "float32", "quantization": {"min": 2.203669548034668, "scale": 7.690596454993187e-05, "dtype": "uint16"}}, {"name": "bn5b_branch2b/gamma", "shape": [512], "dtype": "float32", "quantization": {"min": 0.43132591247558594, "scale": 1.1404579106135363e-05, "dtype": "uint16"}}, {"name": "bn5b_branch2b/beta", "shape": [512], "dtype": "float32", "quantization": {"min": -1.8607557340036442, "scale": 3.719056890459585e-05, "dtype": "uint16"}}, {"name": "bn5b_branch2b/moving_mean", "shape": [512], "dtype": "float32", "quantization": {"min": -1.0851243602480998, "scale": 3.591343240933641e-05, "dtype": "uint16"}}, {"name": "bn5b_branch2b/moving_variance", "shape": [512], "dtype": "float32", "quantization": {"min": 0.07042944431304932, "scale": 4.315430852253068e-06, "dtype": "uint16"}}, {"name": "bn5b_branch2c/gamma", "shape": [2048], "dtype": "float32", "quantization": {"min": 0.5663200616836548, "scale": 2.84485570660643e-05, "dtype": "uint16"}}, {"name": "bn5b_branch2c/beta", "shape": [2048], "dtype": "float32", "quantization": {"min": -2.3750138510021146, "scale": 3.866463469869623e-05, "dtype": "uint16"}}, {"name": "bn5b_branch2c/moving_mean", "shape": [2048], "dtype": "float32", "quantization": {"min": -0.49253732412041684, "scale": 2.0899449404693717e-05, "dtype": "uint16"}}, {"name": "bn5b_branch2c/moving_variance", "shape": [2048], "dtype": "float32", "quantization": {"min": 0.0027171666733920574, "scale": 1.5093545067239392e-06, "dtype": "uint16"}}, {"name": "bn5c_branch2a/gamma", "shape": [512], "dtype": "float32", "quantization": {"min": 0.39782941341400146, "scale": 1.1472781335515344e-05, "dtype": "uint16"}}, {"name": "bn5c_branch2a/beta", "shape": [512], "dtype": "float32", "quantization": {"min": -1.4055402052105086, "scale": 3.20636053748177e-05, "dtype": "uint16"}}, {"name": "bn5c_branch2a/moving_mean", "shape": [512], "dtype": "float32", "quantization": {"min": -2.4900616152277255, "scale": 8.718703134550859e-05, "dtype": "uint16"}}, {"name": "bn5c_branch2a/moving_variance", "shape": [512], "dtype": "float32", "quantization": {"min": 2.071784734725952, "scale": 0.00017893452424974675, "dtype": "uint16"}}, {"name": "bn5c_branch2b/gamma", "shape": [512], "dtype": "float32", "quantization": {"min": 0.4757426977157593, "scale": 1.0415255691436351e-05, "dtype": "uint16"}}, {"name": "bn5c_branch2b/beta", "shape": [512], "dtype": "float32", "quantization": {"min": -1.4284708781042097, "scale": 2.6359928366411574e-05, "dtype": "uint16"}}, {"name": "bn5c_branch2b/moving_mean", "shape": [512], "dtype": "float32", "quantization": {"min": -0.4049672479327378, "scale": 7.298022128901384e-06, "dtype": "uint16"}}, {"name": "bn5c_branch2b/moving_variance", "shape": [512], "dtype": "float32", "quantization": {"min": 0.05897735059261322, "scale": 1.4787106544172737e-06, "dtype": "uint16"}}, {"name": "bn5c_branch2c/gamma", "shape": [2048], "dtype": "float32", "quantization": {"min": 0.6030121445655823, "scale": 2.9929721802006946e-05, "dtype": "uint16"}}, {"name": "bn5c_branch2c/beta", "shape": [2048], "dtype": "float32", "quantization": {"min": -4.0680012702941895, "scale": 5.187509334031892e-05, "dtype": "uint16"}}, {"name": "bn5c_branch2c/moving_mean", "shape": [2048], "dtype": "float32", "quantization": {"min": -0.11442145281295449, "scale": 2.434550794973393e-06, "dtype": "uint16"}}, {"name": "bn5c_branch2c/moving_variance", "shape": [2048], "dtype": "float32", "quantization": {"min": 0.0032164612784981728, "scale": 3.8868902196980197e-07, "dtype": "uint16"}}, {"name": "bn_conv1/gamma", "shape": [64], "dtype": "float32", "quantization": {"min": 0.08426237106323242, "scale": 3.984611294694666e-05, "dtype": "uint16"}}, {"name": "bn_conv1/beta", "shape": [64], "dtype": "float32", "quantization": {"min": -2.3870812700716466, "scale": 0.00012140582189358389, "dtype": "uint16"}}, {"name": "bn_conv1/moving_mean", "shape": [64], "dtype": "float32", "quantization": {"min": -3.7939027358494806, "scale": 0.00011108223739091997, "dtype": "uint16"}}, {"name": "bn_conv1/moving_variance", "shape": [64], "dtype": "float32", "quantization": {"min": 2.3134226978527295e-08, "scale": 1.394161635957532, "dtype": "uint16"}}, {"name": "pyramid_classification_0/kernel", "shape": [3, 3, 256, 256], "dtype": "float32", "quantization": {"min": -0.04945848566439693, "scale": 1.4934019465063388e-06, "dtype": "uint16"}}, {"name": "pyramid_classification_0/bias", "shape": [256], "dtype": "float32", "quantization": {"min": -0.0009559445424313628, "scale": 5.7269622719348357e-08, "dtype": "uint16"}}, {"name": "pyramid_classification_1/kernel", "shape": [3, 3, 256, 256], "dtype": "float32", "quantization": {"min": -0.048236538327567004, "scale": 1.51878269293347e-06, "dtype": "uint16"}}, {"name": "pyramid_classification_1/bias", "shape": [256], "dtype": "float32", "quantization": {"min": -0.0009462362456068943, "scale": 7.117233889483974e-08, "dtype": "uint16"}}, {"name": "pyramid_classification_2/kernel", "shape": [3, 3, 256, 256], "dtype": "float32", "quantization": {"min": -0.05385319956429737, "scale": 1.6028692054377455e-06, "dtype": "uint16"}}, {"name": "pyramid_classification_2/bias", "shape": [256], "dtype": "float32", "quantization": {"min": -0.0010426965481243181, "scale": 9.064561837123517e-08, "dtype": "uint16"}}, {"name": "pyramid_classification_3/kernel", "shape": [3, 3, 256, 256], "dtype": "float32", "quantization": {"min": -0.04855781366295861, "scale": 1.4801052721357822e-06, "dtype": "uint16"}}, {"name": "pyramid_classification_3/bias", "shape": [256], "dtype": "float32", "quantization": {"min": -0.0017922603442299745, "scale": 1.3021362570691474e-07, "dtype": "uint16"}}, {"name": "pyramid_classification/kernel", "shape": [3, 3, 256, 72], "dtype": "float32", "quantization": {"min": -0.05209260110314809, "scale": 1.539424956504273e-06, "dtype": "uint16"}}, {"name": "pyramid_classification/bias", "shape": [72], "dtype": "float32", "quantization": {"min": -4.600025653839111, "scale": 1.1261171431311155e-07, "dtype": "uint16"}}, {"name": "conv1/kernel", "shape": [7, 7, 3, 64], "dtype": "float32", "quantization": {"min": -0.7686860459051135, "scale": 2.3131595374954513e-05, "dtype": "uint16"}}, {"name": "pyramid_regression_0/kernel", "shape": [3, 3, 256, 256], "dtype": "float32", "quantization": {"min": -0.04790125120133605, "scale": 1.4655423344450375e-06, "dtype": "uint16"}}, {"name": "pyramid_regression_0/bias", "shape": [256], "dtype": "float32", "quantization": {"min": -0.004794583469970353, "scale": 2.0664526635507083e-07, "dtype": "uint16"}}, {"name": "pyramid_regression_1/kernel", "shape": [3, 3, 256, 256], "dtype": "float32", "quantization": {"min": -0.045259678938495786, "scale": 1.38752502953787e-06, "dtype": "uint16"}}, {"name": "pyramid_regression_1/bias", "shape": [256], "dtype": "float32", "quantization": {"min": -0.009848909625236293, "scale": 4.839045656776049e-07, "dtype": "uint16"}}, {"name": "pyramid_regression_2/kernel", "shape": [3, 3, 256, 256], "dtype": "float32", "quantization": {"min": -0.05734045049450604, "scale": 1.6308433018915256e-06, "dtype": "uint16"}}, {"name": "pyramid_regression_2/bias", "shape": [256], "dtype": "float32", "quantization": {"min": -0.01032084472374548, "scale": 5.892574778044807e-07, "dtype": "uint16"}}, {"name": "pyramid_regression_3/kernel", "shape": [3, 3, 256, 256], "dtype": "float32", "quantization": {"min": -0.047132224258809356, "scale": 1.471410597490302e-06, "dtype": "uint16"}}, {"name": "pyramid_regression_3/bias", "shape": [256], "dtype": "float32", "quantization": {"min": -0.009826155622509148, "scale": 4.668450979907425e-07, "dtype": "uint16"}}, {"name": "pyramid_regression/kernel", "shape": [3, 3, 256, 36], "dtype": "float32", "quantization": {"min": -0.06088090364330191, "scale": 1.7465403535286566e-06, "dtype": "uint16"}}, {"name": "pyramid_regression/bias", "shape": [36], "dtype": "float32", "quantization": {"min": -0.00878051000530645, "scale": 2.5972461340274056e-07, "dtype": "uint16"}}, {"name": "res2a_branch1/kernel", "shape": [1, 1, 64, 256], "dtype": "float32", "quantization": {"min": -0.6699756689945511, "scale": 2.1553021360609653e-05, "dtype": "uint16"}}, {"name": "res2a_branch2a/kernel", "shape": [1, 1, 64, 64], "dtype": "float32", "quantization": {"min": -0.5613003044508774, "scale": 1.2635922299157548e-05, "dtype": "uint16"}}, {"name": "res2a_branch2b/kernel", "shape": [3, 3, 64, 64], "dtype": "float32", "quantization": {"min": -0.3264107815413687, "scale": 1.1054280057618827e-05, "dtype": "uint16"}}, {"name": "res2a_branch2c/kernel", "shape": [1, 1, 64, 256], "dtype": "float32", "quantization": {"min": -0.34186998886766296, "scale": 1.090250945140361e-05, "dtype": "uint16"}}, {"name": "res2b_branch2a/kernel", "shape": [1, 1, 256, 64], "dtype": "float32", "quantization": {"min": -0.26411096480338025, "scale": 7.3005214584785985e-06, "dtype": "uint16"}}, {"name": "res2b_branch2b/kernel", "shape": [3, 3, 64, 64], "dtype": "float32", "quantization": {"min": -0.43010535754136636, "scale": 1.1049024007536321e-05, "dtype": "uint16"}}, {"name": "res2b_branch2c/kernel", "shape": [1, 1, 64, 256], "dtype": "float32", "quantization": {"min": -0.2525437417001776, "scale": 8.190696386993728e-06, "dtype": "uint16"}}, {"name": "res2c_branch2a/kernel", "shape": [1, 1, 256, 64], "dtype": "float32", "quantization": {"min": -0.27945535306737, "scale": 7.565524745989767e-06, "dtype": "uint16"}}, {"name": "res2c_branch2b/kernel", "shape": [3, 3, 64, 64], "dtype": "float32", "quantization": {"min": -0.16729093577502166, "scale": 5.300726735583703e-06, "dtype": "uint16"}}, {"name": "res2c_branch2c/kernel", "shape": [1, 1, 64, 256], "dtype": "float32", "quantization": {"min": -0.24133419611751963, "scale": 7.32670075343877e-06, "dtype": "uint16"}}, {"name": "res3a_branch1/kernel", "shape": [1, 1, 256, 512], "dtype": "float32", "quantization": {"min": -0.4387081600908121, "scale": 1.565528887309753e-05, "dtype": "uint16"}}, {"name": "res3a_branch2a/kernel", "shape": [1, 1, 256, 128], "dtype": "float32", "quantization": {"min": -0.44079594555913953, "scale": 1.6323357486266463e-05, "dtype": "uint16"}}, {"name": "res3a_branch2b/kernel", "shape": [3, 3, 128, 128], "dtype": "float32", "quantization": {"min": -0.28828465408324616, "scale": 1.0781833124513656e-05, "dtype": "uint16"}}, {"name": "res3a_branch2c/kernel", "shape": [1, 1, 128, 512], "dtype": "float32", "quantization": {"min": -0.39497741243200246, "scale": 1.0214845021129192e-05, "dtype": "uint16"}}, {"name": "res3b1_branch2a/kernel", "shape": [1, 1, 512, 128], "dtype": "float32", "quantization": {"min": -0.19888740939407132, "scale": 6.136606275657862e-06, "dtype": "uint16"}}, {"name": "res3b1_branch2b/kernel", "shape": [3, 3, 128, 128], "dtype": "float32", "quantization": {"min": -0.18476238574335574, "scale": 6.380797960469531e-06, "dtype": "uint16"}}, {"name": "res3b1_branch2c/kernel", "shape": [1, 1, 128, 512], "dtype": "float32", "quantization": {"min": -0.2804651063239992, "scale": 1.122309349035611e-05, "dtype": "uint16"}}, {"name": "res3b2_branch2a/kernel", "shape": [1, 1, 512, 128], "dtype": "float32", "quantization": {"min": -0.22348971203034354, "scale": 7.433303799319615e-06, "dtype": "uint16"}}, {"name": "res3b2_branch2b/kernel", "shape": [3, 3, 128, 128], "dtype": "float32", "quantization": {"min": -0.21347715835613307, "scale": 6.180756778022904e-06, "dtype": "uint16"}}, {"name": "res3b2_branch2c/kernel", "shape": [1, 1, 128, 512], "dtype": "float32", "quantization": {"min": -0.2500837724687415, "scale": 9.418996364307993e-06, "dtype": "uint16"}}, {"name": "res3b3_branch2a/kernel", "shape": [1, 1, 512, 128], "dtype": "float32", "quantization": {"min": -0.22673376369137072, "scale": 7.496074443461193e-06, "dtype": "uint16"}}, {"name": "res3b3_branch2b/kernel", "shape": [3, 3, 128, 128], "dtype": "float32", "quantization": {"min": -0.16072805892632627, "scale": 5.912815323044781e-06, "dtype": "uint16"}}, {"name": "res3b3_branch2c/kernel", "shape": [1, 1, 128, 512], "dtype": "float32", "quantization": {"min": -0.21198768273701954, "scale": 7.7429937445036e-06, "dtype": "uint16"}}, {"name": "res4a_branch1/kernel", "shape": [1, 1, 512, 1024], "dtype": "float32", "quantization": {"min": -0.4428786652615862, "scale": 1.2982694728156017e-05, "dtype": "uint16"}}, {"name": "res4a_branch2a/kernel", "shape": [1, 1, 512, 256], "dtype": "float32", "quantization": {"min": -0.29484871381833644, "scale": 8.815928055563953e-06, "dtype": "uint16"}}, {"name": "res4a_branch2b/kernel", "shape": [3, 3, 256, 256], "dtype": "float32", "quantization": {"min": -0.1842813352543693, "scale": 6.402659136070088e-06, "dtype": "uint16"}}, {"name": "res4a_branch2c/kernel", "shape": [1, 1, 256, 1024], "dtype": "float32", "quantization": {"min": -0.31238008130830913, "scale": 8.062669866516342e-06, "dtype": "uint16"}}, {"name": "res4b10_branch2a/kernel", "shape": [1, 1, 1024, 256], "dtype": "float32", "quantization": {"min": -0.14366214686071446, "scale": 5.4148787026766595e-06, "dtype": "uint16"}}, {"name": "res4b10_branch2b/kernel", "shape": [3, 3, 256, 256], "dtype": "float32", "quantization": {"min": -0.0798499057974524, "scale": 3.4498360752377254e-06, "dtype": "uint16"}}, {"name": "res4b10_branch2c/kernel", "shape": [1, 1, 256, 1024], "dtype": "float32", "quantization": {"min": -0.1316128595043413, "scale": 5.626645269733713e-06, "dtype": "uint16"}}, {"name": "res4b11_branch2a/kernel", "shape": [1, 1, 1024, 256], "dtype": "float32", "quantization": {"min": -0.28094565273331695, "scale": 7.3822333009253745e-06, "dtype": "uint16"}}, {"name": "res4b11_branch2b/kernel", "shape": [3, 3, 256, 256], "dtype": "float32", "quantization": {"min": -0.10757058186085226, "scale": 3.976143337800409e-06, "dtype": "uint16"}}, {"name": "res4b11_branch2c/kernel", "shape": [1, 1, 256, 1024], "dtype": "float32", "quantization": {"min": -0.15353374586249413, "scale": 5.48099906691754e-06, "dtype": "uint16"}}, {"name": "res4b12_branch2a/kernel", "shape": [1, 1, 1024, 256], "dtype": "float32", "quantization": {"min": -0.09637981969961232, "scale": 4.117563963754959e-06, "dtype": "uint16"}}, {"name": "res4b12_branch2b/kernel", "shape": [3, 3, 256, 256], "dtype": "float32", "quantization": {"min": -0.1065266967128996, "scale": 3.6096061504777586e-06, "dtype": "uint16"}}, {"name": "res4b12_branch2c/kernel", "shape": [1, 1, 256, 1024], "dtype": "float32", "quantization": {"min": -0.14025189685832445, "scale": 5.3011262372273675e-06, "dtype": "uint16"}}, {"name": "res4b13_branch2a/kernel", "shape": [1, 1, 1024, 256], "dtype": "float32", "quantization": {"min": -0.12146039808313534, "scale": 4.762219097554807e-06, "dtype": "uint16"}}, {"name": "res4b13_branch2b/kernel", "shape": [3, 3, 256, 256], "dtype": "float32", "quantization": {"min": -0.09995261752433542, "scale": 3.3010541142156417e-06, "dtype": "uint16"}}, {"name": "res4b13_branch2c/kernel", "shape": [1, 1, 256, 1024], "dtype": "float32", "quantization": {"min": -0.12241891499395874, "scale": 5.030156346055748e-06, "dtype": "uint16"}}, {"name": "res4b14_branch2a/kernel", "shape": [1, 1, 1024, 256], "dtype": "float32", "quantization": {"min": -0.09351467906569257, "scale": 4.0379411488273484e-06, "dtype": "uint16"}}, {"name": "res4b14_branch2b/kernel", "shape": [3, 3, 256, 256], "dtype": "float32", "quantization": {"min": -0.0907111086028068, "scale": 3.935576753993961e-06, "dtype": "uint16"}}, {"name": "res4b14_branch2c/kernel", "shape": [1, 1, 256, 1024], "dtype": "float32", "quantization": {"min": -0.18011068303606698, "scale": 5.1231847490063426e-06, "dtype": "uint16"}}, {"name": "res4b15_branch2a/kernel", "shape": [1, 1, 1024, 256], "dtype": "float32", "quantization": {"min": -0.16136763030371093, "scale": 6.41034562045489e-06, "dtype": "uint16"}}, {"name": "res4b15_branch2b/kernel", "shape": [3, 3, 256, 256], "dtype": "float32", "quantization": {"min": -0.07918162809872033, "scale": 2.997941394014854e-06, "dtype": "uint16"}}, {"name": "res4b15_branch2c/kernel", "shape": [1, 1, 256, 1024], "dtype": "float32", "quantization": {"min": -0.14655188532436594, "scale": 6.0852836160098805e-06, "dtype": "uint16"}}, {"name": "res4b16_branch2a/kernel", "shape": [1, 1, 1024, 256], "dtype": "float32", "quantization": {"min": -0.15484926815735828, "scale": 6.637914444331202e-06, "dtype": "uint16"}}, {"name": "res4b16_branch2b/kernel", "shape": [3, 3, 256, 256], "dtype": "float32", "quantization": {"min": -0.1389240806977882, "scale": 5.60878843303275e-06, "dtype": "uint16"}}, {"name": "res4b16_branch2c/kernel", "shape": [1, 1, 256, 1024], "dtype": "float32", "quantization": {"min": -0.189432374682035, "scale": 5.6440835051108365e-06, "dtype": "uint16"}}, {"name": "res4b17_branch2a/kernel", "shape": [1, 1, 1024, 256], "dtype": "float32", "quantization": {"min": -0.21032722623390804, "scale": 8.426909180412197e-06, "dtype": "uint16"}}, {"name": "res4b17_branch2b/kernel", "shape": [3, 3, 256, 256], "dtype": "float32", "quantization": {"min": -0.1300025230704342, "scale": 5.156170351423242e-06, "dtype": "uint16"}}, {"name": "res4b17_branch2c/kernel", "shape": [1, 1, 256, 1024], "dtype": "float32", "quantization": {"min": -0.096683365999379, "scale": 4.801279535153151e-06, "dtype": "uint16"}}, {"name": "res4b18_branch2a/kernel", "shape": [1, 1, 1024, 256], "dtype": "float32", "quantization": {"min": -0.14884051901279874, "scale": 6.109786914034676e-06, "dtype": "uint16"}}, {"name": "res4b18_branch2b/kernel", "shape": [3, 3, 256, 256], "dtype": "float32", "quantization": {"min": -0.16799633083403898, "scale": 5.527286004936467e-06, "dtype": "uint16"}}, {"name": "res4b18_branch2c/kernel", "shape": [1, 1, 256, 1024], "dtype": "float32", "quantization": {"min": -0.1548901773114367, "scale": 4.844102496057442e-06, "dtype": "uint16"}}, {"name": "res4b19_branch2a/kernel", "shape": [1, 1, 1024, 256], "dtype": "float32", "quantization": {"min": -0.18284912207601925, "scale": 6.124367700831299e-06, "dtype": "uint16"}}, {"name": "res4b19_branch2b/kernel", "shape": [3, 3, 256, 256], "dtype": "float32", "quantization": {"min": -0.10962700429063753, "scale": 3.5887977310582883e-06, "dtype": "uint16"}}, {"name": "res4b19_branch2c/kernel", "shape": [1, 1, 256, 1024], "dtype": "float32", "quantization": {"min": -0.22634609049941995, "scale": 5.802406893266168e-06, "dtype": "uint16"}}, {"name": "res4b1_branch2a/kernel", "shape": [1, 1, 1024, 256], "dtype": "float32", "quantization": {"min": -0.15900620150467873, "scale": 6.033475051403155e-06, "dtype": "uint16"}}, {"name": "res4b1_branch2b/kernel", "shape": [3, 3, 256, 256], "dtype": "float32", "quantization": {"min": -0.12140548190620258, "scale": 4.771290308752312e-06, "dtype": "uint16"}}, {"name": "res4b1_branch2c/kernel", "shape": [1, 1, 256, 1024], "dtype": "float32", "quantization": {"min": -0.2305038006859858, "scale": 6.912279985785402e-06, "dtype": "uint16"}}, {"name": "res4b20_branch2a/kernel", "shape": [1, 1, 1024, 256], "dtype": "float32", "quantization": {"min": -0.11619968779451598, "scale": 4.656555574036867e-06, "dtype": "uint16"}}, {"name": "res4b20_branch2b/kernel", "shape": [3, 3, 256, 256], "dtype": "float32", "quantization": {"min": -0.14699911251578895, "scale": 4.212491761685837e-06, "dtype": "uint16"}}, {"name": "res4b20_branch2c/kernel", "shape": [1, 1, 256, 1024], "dtype": "float32", "quantization": {"min": -0.15125948190370758, "scale": 4.7948862582802124e-06, "dtype": "uint16"}}, {"name": "res4b21_branch2a/kernel", "shape": [1, 1, 1024, 256], "dtype": "float32", "quantization": {"min": -0.2288472027557433, "scale": 6.342244346527265e-06, "dtype": "uint16"}}, {"name": "res4b21_branch2b/kernel", "shape": [3, 3, 256, 256], "dtype": "float32", "quantization": {"min": -0.1364752009739508, "scale": 4.734776608865903e-06, "dtype": "uint16"}}, {"name": "res4b21_branch2c/kernel", "shape": [1, 1, 256, 1024], "dtype": "float32", "quantization": {"min": -0.11680735582352922, "scale": 4.283678884536058e-06, "dtype": "uint16"}}, {"name": "res4b22_branch2a/kernel", "shape": [1, 1, 1024, 256], "dtype": "float32", "quantization": {"min": -0.1425928933820363, "scale": 5.136631605981135e-06, "dtype": "uint16"}}, {"name": "res4b22_branch2b/kernel", "shape": [3, 3, 256, 256], "dtype": "float32", "quantization": {"min": -0.12248000659442489, "scale": 5.70922512443131e-06, "dtype": "uint16"}}, {"name": "res4b22_branch2c/kernel", "shape": [1, 1, 256, 1024], "dtype": "float32", "quantization": {"min": -0.11938373301443396, "scale": 4.989290079172265e-06, "dtype": "uint16"}}, {"name": "res4b2_branch2a/kernel", "shape": [1, 1, 1024, 256], "dtype": "float32", "quantization": {"min": -0.12018055410782405, "scale": 4.139304061025833e-06, "dtype": "uint16"}}, {"name": "res4b2_branch2b/kernel", "shape": [3, 3, 256, 256], "dtype": "float32", "quantization": {"min": -0.11361196047485106, "scale": 3.5795696296307717e-06, "dtype": "uint16"}}, {"name": "res4b2_branch2c/kernel", "shape": [1, 1, 256, 1024], "dtype": "float32", "quantization": {"min": -0.15730275012739756, "scale": 5.005815622689586e-06, "dtype": "uint16"}}, {"name": "res4b3_branch2a/kernel", "shape": [1, 1, 1024, 256], "dtype": "float32", "quantization": {"min": -0.13609935264251974, "scale": 4.69988785974583e-06, "dtype": "uint16"}}, {"name": "res4b3_branch2b/kernel", "shape": [3, 3, 256, 256], "dtype": "float32", "quantization": {"min": -0.10991509436669716, "scale": 3.7549567630055057e-06, "dtype": "uint16"}}, {"name": "res4b3_branch2c/kernel", "shape": [1, 1, 256, 1024], "dtype": "float32", "quantization": {"min": -0.3023450331349317, "scale": 7.419692093914739e-06, "dtype": "uint16"}}, {"name": "res4b4_branch2a/kernel", "shape": [1, 1, 1024, 256], "dtype": "float32", "quantization": {"min": -0.17246714057543644, "scale": 4.801156410429164e-06, "dtype": "uint16"}}, {"name": "res4b4_branch2b/kernel", "shape": [3, 3, 256, 256], "dtype": "float32", "quantization": {"min": -0.10185199149224108, "scale": 3.26344093214486e-06, "dtype": "uint16"}}, {"name": "res4b4_branch2c/kernel", "shape": [1, 1, 256, 1024], "dtype": "float32", "quantization": {"min": -0.2214514226719545, "scale": 6.681090408253017e-06, "dtype": "uint16"}}, {"name": "res4b5_branch2a/kernel", "shape": [1, 1, 1024, 256], "dtype": "float32", "quantization": {"min": -0.09937635081473938, "scale": 3.7411569030131903e-06, "dtype": "uint16"}}, {"name": "res4b5_branch2b/kernel", "shape": [3, 3, 256, 256], "dtype": "float32", "quantization": {"min": -0.12274690646141884, "scale": 3.685761236567842e-06, "dtype": "uint16"}}, {"name": "res4b5_branch2c/kernel", "shape": [1, 1, 256, 1024], "dtype": "float32", "quantization": {"min": -0.17848720440759425, "scale": 5.213131736888669e-06, "dtype": "uint16"}}, {"name": "res4b6_branch2a/kernel", "shape": [1, 1, 1024, 256], "dtype": "float32", "quantization": {"min": -0.14264446490028498, "scale": 6.144495580455954e-06, "dtype": "uint16"}}, {"name": "res4b6_branch2b/kernel", "shape": [3, 3, 256, 256], "dtype": "float32", "quantization": {"min": -0.14566690289038328, "scale": 4.504233237179446e-06, "dtype": "uint16"}}, {"name": "res4b6_branch2c/kernel", "shape": [1, 1, 256, 1024], "dtype": "float32", "quantization": {"min": -0.1715931336648897, "scale": 5.081530847692777e-06, "dtype": "uint16"}}, {"name": "res4b7_branch2a/kernel", "shape": [1, 1, 1024, 256], "dtype": "float32", "quantization": {"min": -0.15640008778637385, "scale": 5.402607612918368e-06, "dtype": "uint16"}}, {"name": "res4b7_branch2b/kernel", "shape": [3, 3, 256, 256], "dtype": "float32", "quantization": {"min": -0.12583182592127118, "scale": 4.455643423436535e-06, "dtype": "uint16"}}, {"name": "res4b7_branch2c/kernel", "shape": [1, 1, 256, 1024], "dtype": "float32", "quantization": {"min": -0.17479527623900618, "scale": 7.6176796059882405e-06, "dtype": "uint16"}}, {"name": "res4b8_branch2a/kernel", "shape": [1, 1, 1024, 256], "dtype": "float32", "quantization": {"min": -0.1371150319491861, "scale": 7.891512630168984e-06, "dtype": "uint16"}}, {"name": "res4b8_branch2b/kernel", "shape": [3, 3, 256, 256], "dtype": "float32", "quantization": {"min": -0.1453732445518876, "scale": 4.746416499669832e-06, "dtype": "uint16"}}, {"name": "res4b8_branch2c/kernel", "shape": [1, 1, 256, 1024], "dtype": "float32", "quantization": {"min": -0.1966373207858892, "scale": 6.060075221458616e-06, "dtype": "uint16"}}, {"name": "res4b9_branch2a/kernel", "shape": [1, 1, 1024, 256], "dtype": "float32", "quantization": {"min": -0.12384993469059363, "scale": 5.1173429753984645e-06, "dtype": "uint16"}}, {"name": "res4b9_branch2b/kernel", "shape": [3, 3, 256, 256], "dtype": "float32", "quantization": {"min": -0.09216782434543556, "scale": 6.561388506117716e-06, "dtype": "uint16"}}, {"name": "res4b9_branch2c/kernel", "shape": [1, 1, 256, 1024], "dtype": "float32", "quantization": {"min": -0.1814086709518568, "scale": 5.829514796486288e-06, "dtype": "uint16"}}, {"name": "res5a_branch1/kernel", "shape": [1, 1, 1024, 2048], "dtype": "float32", "quantization": {"min": -0.5333829723470788, "scale": 1.861330863857757e-05, "dtype": "uint16"}}, {"name": "res5a_branch2a/kernel", "shape": [1, 1, 1024, 512], "dtype": "float32", "quantization": {"min": -0.2787447606142975, "scale": 9.467267622670838e-06, "dtype": "uint16"}}, {"name": "res5a_branch2b/kernel", "shape": [3, 3, 512, 512], "dtype": "float32", "quantization": {"min": -0.2209498767993484, "scale": 8.32610607074456e-06, "dtype": "uint16"}}, {"name": "res5a_branch2c/kernel", "shape": [1, 1, 512, 2048], "dtype": "float32", "quantization": {"min": -0.28720987065483977, "scale": 1.1459974090449277e-05, "dtype": "uint16"}}, {"name": "res5b_branch2a/kernel", "shape": [1, 1, 2048, 512], "dtype": "float32", "quantization": {"min": -0.20121697150815987, "scale": 8.573003770958198e-06, "dtype": "uint16"}}, {"name": "res5b_branch2b/kernel", "shape": [3, 3, 512, 512], "dtype": "float32", "quantization": {"min": -0.14808661660813735, "scale": 5.051736938259445e-06, "dtype": "uint16"}}, {"name": "res5b_branch2c/kernel", "shape": [1, 1, 512, 2048], "dtype": "float32", "quantization": {"min": -0.16700899069147523, "scale": 6.9312716618167765e-06, "dtype": "uint16"}}, {"name": "res5c_branch2a/kernel", "shape": [1, 1, 2048, 512], "dtype": "float32", "quantization": {"min": -0.39100170910945065, "scale": 1.320416416011923e-05, "dtype": "uint16"}}, {"name": "res5c_branch2b/kernel", "shape": [3, 3, 512, 512], "dtype": "float32", "quantization": {"min": -0.06678947263677305, "scale": 2.332523316224525e-06, "dtype": "uint16"}}, {"name": "res5c_branch2c/kernel", "shape": [1, 1, 512, 2048], "dtype": "float32", "quantization": {"min": -0.16330539692891602, "scale": 5.328767112475234e-06, "dtype": "uint16"}}]}]}