{"format": "layers-model", "generatedBy": "keras v2.2.4", "convertedBy": "TensorFlow.js Converter v1.2.2.1", "modelTopology": {"keras_version": "2.2.4", "backend": "tensorflow", "model_config": {"class_name": "Model", "config": {"name": "retinanet", "layers": [{"name": "input_1", "class_name": "InputLayer", "config": {"batch_input_shape": [null, 224, 224, 3], "dtype": "float32", "sparse": false, "name": "input_1"}, "inbound_nodes": []}, {"name": "conv1_pad", "class_name": "ZeroPadding2D", "config": {"name": "conv1_pad", "trainable": true, "padding": [[0, 1], [0, 1]], "data_format": "channels_last"}, "inbound_nodes": [[["input_1", 0, 0, {}]]]}, {"name": "conv1", "class_name": "Conv2D", "config": {"name": "conv1", "trainable": true, "filters": 32, "kernel_size": [3, 3], "strides": [2, 2], "padding": "valid", "data_format": "channels_last", "dilation_rate": [1, 1], "activation": "linear", "use_bias": false, "kernel_initializer": {"class_name": "VarianceScaling", "config": {"scale": 1.0, "mode": "fan_avg", "distribution": "uniform", "seed": null}}, "bias_initializer": {"class_name": "Zeros", "config": {}}, "kernel_regularizer": null, "bias_regularizer": null, "activity_regularizer": null, "kernel_constraint": null, "bias_constraint": null}, "inbound_nodes": [[["conv1_pad", 0, 0, {}]]]}, {"name": "conv1_bn", "class_name": "BatchNormalization", "config": {"name": "conv1_bn", "trainable": true, "axis": -1, "momentum": 0.99, "epsilon": 0.001, "center": true, "scale": true, "beta_initializer": {"class_name": "Zeros", "config": {}}, "gamma_initializer": {"class_name": "Ones", "config": {}}, "moving_mean_initializer": {"class_name": "Zeros", "config": {}}, "moving_variance_initializer": {"class_name": "Ones", "config": {}}, "beta_regularizer": null, "gamma_regularizer": null, "beta_constraint": null, "gamma_constraint": null}, "inbound_nodes": [[["conv1", 0, 0, {}]]]}, {"name": "conv1_relu", "class_name": "ReLU", "config": {"name": "conv1_relu", "trainable": true, "max_value": 6.0, "negative_slope": 0.0, "threshold": 0.0}, "inbound_nodes": [[["conv1_bn", 0, 0, {}]]]}, {"name": "conv_dw_1", "class_name": "DepthwiseConv2D", "config": {"name": "conv_dw_1", "trainable": true, "kernel_size": [3, 3], "strides": [1, 1], "padding": "same", "data_format": "channels_last", "dilation_rate": [1, 1], "activation": "linear", "use_bias": false, "bias_initializer": {"class_name": "Zeros", "config": {}}, "bias_regularizer": null, "activity_regularizer": null, "bias_constraint": null, "depth_multiplier": 1, "depthwise_initializer": {"class_name": "VarianceScaling", "config": {"scale": 1.0, "mode": "fan_avg", "distribution": "uniform", "seed": null}}, "depthwise_regularizer": null, "depthwise_constraint": null}, "inbound_nodes": [[["conv1_relu", 0, 0, {}]]]}, {"name": "conv_dw_1_bn", "class_name": "BatchNormalization", "config": {"name": "conv_dw_1_bn", "trainable": true, "axis": -1, "momentum": 0.99, "epsilon": 0.001, "center": true, "scale": true, "beta_initializer": {"class_name": "Zeros", "config": {}}, "gamma_initializer": {"class_name": "Ones", "config": {}}, "moving_mean_initializer": {"class_name": "Zeros", "config": {}}, "moving_variance_initializer": {"class_name": "Ones", "config": {}}, "beta_regularizer": null, "gamma_regularizer": null, "beta_constraint": null, "gamma_constraint": null}, "inbound_nodes": [[["conv_dw_1", 0, 0, {}]]]}, {"name": "conv_dw_1_relu", "class_name": "ReLU", "config": {"name": "conv_dw_1_relu", "trainable": true, "max_value": 6.0, "negative_slope": 0.0, "threshold": 0.0}, "inbound_nodes": [[["conv_dw_1_bn", 0, 0, {}]]]}, {"name": "conv_pw_1", "class_name": "Conv2D", "config": {"name": "conv_pw_1", "trainable": true, "filters": 64, "kernel_size": [1, 1], "strides": [1, 1], "padding": "same", "data_format": "channels_last", "dilation_rate": [1, 1], "activation": "linear", "use_bias": false, "kernel_initializer": {"class_name": "VarianceScaling", "config": {"scale": 1.0, "mode": "fan_avg", "distribution": "uniform", "seed": null}}, "bias_initializer": {"class_name": "Zeros", "config": {}}, "kernel_regularizer": null, "bias_regularizer": null, "activity_regularizer": null, "kernel_constraint": null, "bias_constraint": null}, "inbound_nodes": [[["conv_dw_1_relu", 0, 0, {}]]]}, {"name": "conv_pw_1_bn", "class_name": "BatchNormalization", "config": {"name": "conv_pw_1_bn", "trainable": true, "axis": -1, "momentum": 0.99, "epsilon": 0.001, "center": true, "scale": true, "beta_initializer": {"class_name": "Zeros", "config": {}}, "gamma_initializer": {"class_name": "Ones", "config": {}}, "moving_mean_initializer": {"class_name": "Zeros", "config": {}}, "moving_variance_initializer": {"class_name": "Ones", "config": {}}, "beta_regularizer": null, "gamma_regularizer": null, "beta_constraint": null, "gamma_constraint": null}, "inbound_nodes": [[["conv_pw_1", 0, 0, {}]]]}, {"name": "conv_pw_1_relu", "class_name": "ReLU", "config": {"name": "conv_pw_1_relu", "trainable": true, "max_value": 6.0, "negative_slope": 0.0, "threshold": 0.0}, "inbound_nodes": [[["conv_pw_1_bn", 0, 0, {}]]]}, {"name": "conv_pad_2", "class_name": "ZeroPadding2D", "config": {"name": "conv_pad_2", "trainable": true, "padding": [[0, 1], [0, 1]], "data_format": "channels_last"}, "inbound_nodes": [[["conv_pw_1_relu", 0, 0, {}]]]}, {"name": "conv_dw_2", "class_name": "DepthwiseConv2D", "config": {"name": "conv_dw_2", "trainable": true, "kernel_size": [3, 3], "strides": [2, 2], "padding": "valid", "data_format": "channels_last", "dilation_rate": [1, 1], "activation": "linear", "use_bias": false, "bias_initializer": {"class_name": "Zeros", "config": {}}, "bias_regularizer": null, "activity_regularizer": null, "bias_constraint": null, "depth_multiplier": 1, "depthwise_initializer": {"class_name": "VarianceScaling", "config": {"scale": 1.0, "mode": "fan_avg", "distribution": "uniform", "seed": null}}, "depthwise_regularizer": null, "depthwise_constraint": null}, "inbound_nodes": [[["conv_pad_2", 0, 0, {}]]]}, {"name": "conv_dw_2_bn", "class_name": "BatchNormalization", "config": {"name": "conv_dw_2_bn", "trainable": true, "axis": -1, "momentum": 0.99, "epsilon": 0.001, "center": true, "scale": true, "beta_initializer": {"class_name": "Zeros", "config": {}}, "gamma_initializer": {"class_name": "Ones", "config": {}}, "moving_mean_initializer": {"class_name": "Zeros", "config": {}}, "moving_variance_initializer": {"class_name": "Ones", "config": {}}, "beta_regularizer": null, "gamma_regularizer": null, "beta_constraint": null, "gamma_constraint": null}, "inbound_nodes": [[["conv_dw_2", 0, 0, {}]]]}, {"name": "conv_dw_2_relu", "class_name": "ReLU", "config": {"name": "conv_dw_2_relu", "trainable": true, "max_value": 6.0, "negative_slope": 0.0, "threshold": 0.0}, "inbound_nodes": [[["conv_dw_2_bn", 0, 0, {}]]]}, {"name": "conv_pw_2", "class_name": "Conv2D", "config": {"name": "conv_pw_2", "trainable": true, "filters": 128, "kernel_size": [1, 1], "strides": [1, 1], "padding": "same", "data_format": "channels_last", "dilation_rate": [1, 1], "activation": "linear", "use_bias": false, "kernel_initializer": {"class_name": "VarianceScaling", "config": {"scale": 1.0, "mode": "fan_avg", "distribution": "uniform", "seed": null}}, "bias_initializer": {"class_name": "Zeros", "config": {}}, "kernel_regularizer": null, "bias_regularizer": null, "activity_regularizer": null, "kernel_constraint": null, "bias_constraint": null}, "inbound_nodes": [[["conv_dw_2_relu", 0, 0, {}]]]}, {"name": "conv_pw_2_bn", "class_name": "BatchNormalization", "config": {"name": "conv_pw_2_bn", "trainable": true, "axis": -1, "momentum": 0.99, "epsilon": 0.001, "center": true, "scale": true, "beta_initializer": {"class_name": "Zeros", "config": {}}, "gamma_initializer": {"class_name": "Ones", "config": {}}, "moving_mean_initializer": {"class_name": "Zeros", "config": {}}, "moving_variance_initializer": {"class_name": "Ones", "config": {}}, "beta_regularizer": null, "gamma_regularizer": null, "beta_constraint": null, "gamma_constraint": null}, "inbound_nodes": [[["conv_pw_2", 0, 0, {}]]]}, {"name": "conv_pw_2_relu", "class_name": "ReLU", "config": {"name": "conv_pw_2_relu", "trainable": true, "max_value": 6.0, "negative_slope": 0.0, "threshold": 0.0}, "inbound_nodes": [[["conv_pw_2_bn", 0, 0, {}]]]}, {"name": "conv_dw_3", "class_name": "DepthwiseConv2D", "config": {"name": "conv_dw_3", "trainable": true, "kernel_size": [3, 3], "strides": [1, 1], "padding": "same", "data_format": "channels_last", "dilation_rate": [1, 1], "activation": "linear", "use_bias": false, "bias_initializer": {"class_name": "Zeros", "config": {}}, "bias_regularizer": null, "activity_regularizer": null, "bias_constraint": null, "depth_multiplier": 1, "depthwise_initializer": {"class_name": "VarianceScaling", "config": {"scale": 1.0, "mode": "fan_avg", "distribution": "uniform", "seed": null}}, "depthwise_regularizer": null, "depthwise_constraint": null}, "inbound_nodes": [[["conv_pw_2_relu", 0, 0, {}]]]}, {"name": "conv_dw_3_bn", "class_name": "BatchNormalization", "config": {"name": "conv_dw_3_bn", "trainable": true, "axis": -1, "momentum": 0.99, "epsilon": 0.001, "center": true, "scale": true, "beta_initializer": {"class_name": "Zeros", "config": {}}, "gamma_initializer": {"class_name": "Ones", "config": {}}, "moving_mean_initializer": {"class_name": "Zeros", "config": {}}, "moving_variance_initializer": {"class_name": "Ones", "config": {}}, "beta_regularizer": null, "gamma_regularizer": null, "beta_constraint": null, "gamma_constraint": null}, "inbound_nodes": [[["conv_dw_3", 0, 0, {}]]]}, {"name": "conv_dw_3_relu", "class_name": "ReLU", "config": {"name": "conv_dw_3_relu", "trainable": true, "max_value": 6.0, "negative_slope": 0.0, "threshold": 0.0}, "inbound_nodes": [[["conv_dw_3_bn", 0, 0, {}]]]}, {"name": "conv_pw_3", "class_name": "Conv2D", "config": {"name": "conv_pw_3", "trainable": true, "filters": 128, "kernel_size": [1, 1], "strides": [1, 1], "padding": "same", "data_format": "channels_last", "dilation_rate": [1, 1], "activation": "linear", "use_bias": false, "kernel_initializer": {"class_name": "VarianceScaling", "config": {"scale": 1.0, "mode": "fan_avg", "distribution": "uniform", "seed": null}}, "bias_initializer": {"class_name": "Zeros", "config": {}}, "kernel_regularizer": null, "bias_regularizer": null, "activity_regularizer": null, "kernel_constraint": null, "bias_constraint": null}, "inbound_nodes": [[["conv_dw_3_relu", 0, 0, {}]]]}, {"name": "conv_pw_3_bn", "class_name": "BatchNormalization", "config": {"name": "conv_pw_3_bn", "trainable": true, "axis": -1, "momentum": 0.99, "epsilon": 0.001, "center": true, "scale": true, "beta_initializer": {"class_name": "Zeros", "config": {}}, "gamma_initializer": {"class_name": "Ones", "config": {}}, "moving_mean_initializer": {"class_name": "Zeros", "config": {}}, "moving_variance_initializer": {"class_name": "Ones", "config": {}}, "beta_regularizer": null, "gamma_regularizer": null, "beta_constraint": null, "gamma_constraint": null}, "inbound_nodes": [[["conv_pw_3", 0, 0, {}]]]}, {"name": "conv_pw_3_relu", "class_name": "ReLU", "config": {"name": "conv_pw_3_relu", "trainable": true, "max_value": 6.0, "negative_slope": 0.0, "threshold": 0.0}, "inbound_nodes": [[["conv_pw_3_bn", 0, 0, {}]]]}, {"name": "conv_pad_4", "class_name": "ZeroPadding2D", "config": {"name": "conv_pad_4", "trainable": true, "padding": [[0, 1], [0, 1]], "data_format": "channels_last"}, "inbound_nodes": [[["conv_pw_3_relu", 0, 0, {}]]]}, {"name": "conv_dw_4", "class_name": "DepthwiseConv2D", "config": {"name": "conv_dw_4", "trainable": true, "kernel_size": [3, 3], "strides": [2, 2], "padding": "valid", "data_format": "channels_last", "dilation_rate": [1, 1], "activation": "linear", "use_bias": false, "bias_initializer": {"class_name": "Zeros", "config": {}}, "bias_regularizer": null, "activity_regularizer": null, "bias_constraint": null, "depth_multiplier": 1, "depthwise_initializer": {"class_name": "VarianceScaling", "config": {"scale": 1.0, "mode": "fan_avg", "distribution": "uniform", "seed": null}}, "depthwise_regularizer": null, "depthwise_constraint": null}, "inbound_nodes": [[["conv_pad_4", 0, 0, {}]]]}, {"name": "conv_dw_4_bn", "class_name": "BatchNormalization", "config": {"name": "conv_dw_4_bn", "trainable": true, "axis": -1, "momentum": 0.99, "epsilon": 0.001, "center": true, "scale": true, "beta_initializer": {"class_name": "Zeros", "config": {}}, "gamma_initializer": {"class_name": "Ones", "config": {}}, "moving_mean_initializer": {"class_name": "Zeros", "config": {}}, "moving_variance_initializer": {"class_name": "Ones", "config": {}}, "beta_regularizer": null, "gamma_regularizer": null, "beta_constraint": null, "gamma_constraint": null}, "inbound_nodes": [[["conv_dw_4", 0, 0, {}]]]}, {"name": "conv_dw_4_relu", "class_name": "ReLU", "config": {"name": "conv_dw_4_relu", "trainable": true, "max_value": 6.0, "negative_slope": 0.0, "threshold": 0.0}, "inbound_nodes": [[["conv_dw_4_bn", 0, 0, {}]]]}, {"name": "conv_pw_4", "class_name": "Conv2D", "config": {"name": "conv_pw_4", "trainable": true, "filters": 256, "kernel_size": [1, 1], "strides": [1, 1], "padding": "same", "data_format": "channels_last", "dilation_rate": [1, 1], "activation": "linear", "use_bias": false, "kernel_initializer": {"class_name": "VarianceScaling", "config": {"scale": 1.0, "mode": "fan_avg", "distribution": "uniform", "seed": null}}, "bias_initializer": {"class_name": "Zeros", "config": {}}, "kernel_regularizer": null, "bias_regularizer": null, "activity_regularizer": null, "kernel_constraint": null, "bias_constraint": null}, "inbound_nodes": [[["conv_dw_4_relu", 0, 0, {}]]]}, {"name": "conv_pw_4_bn", "class_name": "BatchNormalization", "config": {"name": "conv_pw_4_bn", "trainable": true, "axis": -1, "momentum": 0.99, "epsilon": 0.001, "center": true, "scale": true, "beta_initializer": {"class_name": "Zeros", "config": {}}, "gamma_initializer": {"class_name": "Ones", "config": {}}, "moving_mean_initializer": {"class_name": "Zeros", "config": {}}, "moving_variance_initializer": {"class_name": "Ones", "config": {}}, "beta_regularizer": null, "gamma_regularizer": null, "beta_constraint": null, "gamma_constraint": null}, "inbound_nodes": [[["conv_pw_4", 0, 0, {}]]]}, {"name": "conv_pw_4_relu", "class_name": "ReLU", "config": {"name": "conv_pw_4_relu", "trainable": true, "max_value": 6.0, "negative_slope": 0.0, "threshold": 0.0}, "inbound_nodes": [[["conv_pw_4_bn", 0, 0, {}]]]}, {"name": "conv_dw_5", "class_name": "DepthwiseConv2D", "config": {"name": "conv_dw_5", "trainable": true, "kernel_size": [3, 3], "strides": [1, 1], "padding": "same", "data_format": "channels_last", "dilation_rate": [1, 1], "activation": "linear", "use_bias": false, "bias_initializer": {"class_name": "Zeros", "config": {}}, "bias_regularizer": null, "activity_regularizer": null, "bias_constraint": null, "depth_multiplier": 1, "depthwise_initializer": {"class_name": "VarianceScaling", "config": {"scale": 1.0, "mode": "fan_avg", "distribution": "uniform", "seed": null}}, "depthwise_regularizer": null, "depthwise_constraint": null}, "inbound_nodes": [[["conv_pw_4_relu", 0, 0, {}]]]}, {"name": "conv_dw_5_bn", "class_name": "BatchNormalization", "config": {"name": "conv_dw_5_bn", "trainable": true, "axis": -1, "momentum": 0.99, "epsilon": 0.001, "center": true, "scale": true, "beta_initializer": {"class_name": "Zeros", "config": {}}, "gamma_initializer": {"class_name": "Ones", "config": {}}, "moving_mean_initializer": {"class_name": "Zeros", "config": {}}, "moving_variance_initializer": {"class_name": "Ones", "config": {}}, "beta_regularizer": null, "gamma_regularizer": null, "beta_constraint": null, "gamma_constraint": null}, "inbound_nodes": [[["conv_dw_5", 0, 0, {}]]]}, {"name": "conv_dw_5_relu", "class_name": "ReLU", "config": {"name": "conv_dw_5_relu", "trainable": true, "max_value": 6.0, "negative_slope": 0.0, "threshold": 0.0}, "inbound_nodes": [[["conv_dw_5_bn", 0, 0, {}]]]}, {"name": "conv_pw_5", "class_name": "Conv2D", "config": {"name": "conv_pw_5", "trainable": true, "filters": 256, "kernel_size": [1, 1], "strides": [1, 1], "padding": "same", "data_format": "channels_last", "dilation_rate": [1, 1], "activation": "linear", "use_bias": false, "kernel_initializer": {"class_name": "VarianceScaling", "config": {"scale": 1.0, "mode": "fan_avg", "distribution": "uniform", "seed": null}}, "bias_initializer": {"class_name": "Zeros", "config": {}}, "kernel_regularizer": null, "bias_regularizer": null, "activity_regularizer": null, "kernel_constraint": null, "bias_constraint": null}, "inbound_nodes": [[["conv_dw_5_relu", 0, 0, {}]]]}, {"name": "conv_pw_5_bn", "class_name": "BatchNormalization", "config": {"name": "conv_pw_5_bn", "trainable": true, "axis": -1, "momentum": 0.99, "epsilon": 0.001, "center": true, "scale": true, "beta_initializer": {"class_name": "Zeros", "config": {}}, "gamma_initializer": {"class_name": "Ones", "config": {}}, "moving_mean_initializer": {"class_name": "Zeros", "config": {}}, "moving_variance_initializer": {"class_name": "Ones", "config": {}}, "beta_regularizer": null, "gamma_regularizer": null, "beta_constraint": null, "gamma_constraint": null}, "inbound_nodes": [[["conv_pw_5", 0, 0, {}]]]}, {"name": "conv_pw_5_relu", "class_name": "ReLU", "config": {"name": "conv_pw_5_relu", "trainable": true, "max_value": 6.0, "negative_slope": 0.0, "threshold": 0.0}, "inbound_nodes": [[["conv_pw_5_bn", 0, 0, {}]]]}, {"name": "conv_pad_6", "class_name": "ZeroPadding2D", "config": {"name": "conv_pad_6", "trainable": true, "padding": [[0, 1], [0, 1]], "data_format": "channels_last"}, "inbound_nodes": [[["conv_pw_5_relu", 0, 0, {}]]]}, {"name": "conv_dw_6", "class_name": "DepthwiseConv2D", "config": {"name": "conv_dw_6", "trainable": true, "kernel_size": [3, 3], "strides": [2, 2], "padding": "valid", "data_format": "channels_last", "dilation_rate": [1, 1], "activation": "linear", "use_bias": false, "bias_initializer": {"class_name": "Zeros", "config": {}}, "bias_regularizer": null, "activity_regularizer": null, "bias_constraint": null, "depth_multiplier": 1, "depthwise_initializer": {"class_name": "VarianceScaling", "config": {"scale": 1.0, "mode": "fan_avg", "distribution": "uniform", "seed": null}}, "depthwise_regularizer": null, "depthwise_constraint": null}, "inbound_nodes": [[["conv_pad_6", 0, 0, {}]]]}, {"name": "conv_dw_6_bn", "class_name": "BatchNormalization", "config": {"name": "conv_dw_6_bn", "trainable": true, "axis": -1, "momentum": 0.99, "epsilon": 0.001, "center": true, "scale": true, "beta_initializer": {"class_name": "Zeros", "config": {}}, "gamma_initializer": {"class_name": "Ones", "config": {}}, "moving_mean_initializer": {"class_name": "Zeros", "config": {}}, "moving_variance_initializer": {"class_name": "Ones", "config": {}}, "beta_regularizer": null, "gamma_regularizer": null, "beta_constraint": null, "gamma_constraint": null}, "inbound_nodes": [[["conv_dw_6", 0, 0, {}]]]}, {"name": "conv_dw_6_relu", "class_name": "ReLU", "config": {"name": "conv_dw_6_relu", "trainable": true, "max_value": 6.0, "negative_slope": 0.0, "threshold": 0.0}, "inbound_nodes": [[["conv_dw_6_bn", 0, 0, {}]]]}, {"name": "conv_pw_6", "class_name": "Conv2D", "config": {"name": "conv_pw_6", "trainable": true, "filters": 512, "kernel_size": [1, 1], "strides": [1, 1], "padding": "same", "data_format": "channels_last", "dilation_rate": [1, 1], "activation": "linear", "use_bias": false, "kernel_initializer": {"class_name": "VarianceScaling", "config": {"scale": 1.0, "mode": "fan_avg", "distribution": "uniform", "seed": null}}, "bias_initializer": {"class_name": "Zeros", "config": {}}, "kernel_regularizer": null, "bias_regularizer": null, "activity_regularizer": null, "kernel_constraint": null, "bias_constraint": null}, "inbound_nodes": [[["conv_dw_6_relu", 0, 0, {}]]]}, {"name": "conv_pw_6_bn", "class_name": "BatchNormalization", "config": {"name": "conv_pw_6_bn", "trainable": true, "axis": -1, "momentum": 0.99, "epsilon": 0.001, "center": true, "scale": true, "beta_initializer": {"class_name": "Zeros", "config": {}}, "gamma_initializer": {"class_name": "Ones", "config": {}}, "moving_mean_initializer": {"class_name": "Zeros", "config": {}}, "moving_variance_initializer": {"class_name": "Ones", "config": {}}, "beta_regularizer": null, "gamma_regularizer": null, "beta_constraint": null, "gamma_constraint": null}, "inbound_nodes": [[["conv_pw_6", 0, 0, {}]]]}, {"name": "conv_pw_6_relu", "class_name": "ReLU", "config": {"name": "conv_pw_6_relu", "trainable": true, "max_value": 6.0, "negative_slope": 0.0, "threshold": 0.0}, "inbound_nodes": [[["conv_pw_6_bn", 0, 0, {}]]]}, {"name": "conv_dw_7", "class_name": "DepthwiseConv2D", "config": {"name": "conv_dw_7", "trainable": true, "kernel_size": [3, 3], "strides": [1, 1], "padding": "same", "data_format": "channels_last", "dilation_rate": [1, 1], "activation": "linear", "use_bias": false, "bias_initializer": {"class_name": "Zeros", "config": {}}, "bias_regularizer": null, "activity_regularizer": null, "bias_constraint": null, "depth_multiplier": 1, "depthwise_initializer": {"class_name": "VarianceScaling", "config": {"scale": 1.0, "mode": "fan_avg", "distribution": "uniform", "seed": null}}, "depthwise_regularizer": null, "depthwise_constraint": null}, "inbound_nodes": [[["conv_pw_6_relu", 0, 0, {}]]]}, {"name": "conv_dw_7_bn", "class_name": "BatchNormalization", "config": {"name": "conv_dw_7_bn", "trainable": true, "axis": -1, "momentum": 0.99, "epsilon": 0.001, "center": true, "scale": true, "beta_initializer": {"class_name": "Zeros", "config": {}}, "gamma_initializer": {"class_name": "Ones", "config": {}}, "moving_mean_initializer": {"class_name": "Zeros", "config": {}}, "moving_variance_initializer": {"class_name": "Ones", "config": {}}, "beta_regularizer": null, "gamma_regularizer": null, "beta_constraint": null, "gamma_constraint": null}, "inbound_nodes": [[["conv_dw_7", 0, 0, {}]]]}, {"name": "conv_dw_7_relu", "class_name": "ReLU", "config": {"name": "conv_dw_7_relu", "trainable": true, "max_value": 6.0, "negative_slope": 0.0, "threshold": 0.0}, "inbound_nodes": [[["conv_dw_7_bn", 0, 0, {}]]]}, {"name": "conv_pw_7", "class_name": "Conv2D", "config": {"name": "conv_pw_7", "trainable": true, "filters": 512, "kernel_size": [1, 1], "strides": [1, 1], "padding": "same", "data_format": "channels_last", "dilation_rate": [1, 1], "activation": "linear", "use_bias": false, "kernel_initializer": {"class_name": "VarianceScaling", "config": {"scale": 1.0, "mode": "fan_avg", "distribution": "uniform", "seed": null}}, "bias_initializer": {"class_name": "Zeros", "config": {}}, "kernel_regularizer": null, "bias_regularizer": null, "activity_regularizer": null, "kernel_constraint": null, "bias_constraint": null}, "inbound_nodes": [[["conv_dw_7_relu", 0, 0, {}]]]}, {"name": "conv_pw_7_bn", "class_name": "BatchNormalization", "config": {"name": "conv_pw_7_bn", "trainable": true, "axis": -1, "momentum": 0.99, "epsilon": 0.001, "center": true, "scale": true, "beta_initializer": {"class_name": "Zeros", "config": {}}, "gamma_initializer": {"class_name": "Ones", "config": {}}, "moving_mean_initializer": {"class_name": "Zeros", "config": {}}, "moving_variance_initializer": {"class_name": "Ones", "config": {}}, "beta_regularizer": null, "gamma_regularizer": null, "beta_constraint": null, "gamma_constraint": null}, "inbound_nodes": [[["conv_pw_7", 0, 0, {}]]]}, {"name": "conv_pw_7_relu", "class_name": "ReLU", "config": {"name": "conv_pw_7_relu", "trainable": true, "max_value": 6.0, "negative_slope": 0.0, "threshold": 0.0}, "inbound_nodes": [[["conv_pw_7_bn", 0, 0, {}]]]}, {"name": "conv_dw_8", "class_name": "DepthwiseConv2D", "config": {"name": "conv_dw_8", "trainable": true, "kernel_size": [3, 3], "strides": [1, 1], "padding": "same", "data_format": "channels_last", "dilation_rate": [1, 1], "activation": "linear", "use_bias": false, "bias_initializer": {"class_name": "Zeros", "config": {}}, "bias_regularizer": null, "activity_regularizer": null, "bias_constraint": null, "depth_multiplier": 1, "depthwise_initializer": {"class_name": "VarianceScaling", "config": {"scale": 1.0, "mode": "fan_avg", "distribution": "uniform", "seed": null}}, "depthwise_regularizer": null, "depthwise_constraint": null}, "inbound_nodes": [[["conv_pw_7_relu", 0, 0, {}]]]}, {"name": "conv_dw_8_bn", "class_name": "BatchNormalization", "config": {"name": "conv_dw_8_bn", "trainable": true, "axis": -1, "momentum": 0.99, "epsilon": 0.001, "center": true, "scale": true, "beta_initializer": {"class_name": "Zeros", "config": {}}, "gamma_initializer": {"class_name": "Ones", "config": {}}, "moving_mean_initializer": {"class_name": "Zeros", "config": {}}, "moving_variance_initializer": {"class_name": "Ones", "config": {}}, "beta_regularizer": null, "gamma_regularizer": null, "beta_constraint": null, "gamma_constraint": null}, "inbound_nodes": [[["conv_dw_8", 0, 0, {}]]]}, {"name": "conv_dw_8_relu", "class_name": "ReLU", "config": {"name": "conv_dw_8_relu", "trainable": true, "max_value": 6.0, "negative_slope": 0.0, "threshold": 0.0}, "inbound_nodes": [[["conv_dw_8_bn", 0, 0, {}]]]}, {"name": "conv_pw_8", "class_name": "Conv2D", "config": {"name": "conv_pw_8", "trainable": true, "filters": 512, "kernel_size": [1, 1], "strides": [1, 1], "padding": "same", "data_format": "channels_last", "dilation_rate": [1, 1], "activation": "linear", "use_bias": false, "kernel_initializer": {"class_name": "VarianceScaling", "config": {"scale": 1.0, "mode": "fan_avg", "distribution": "uniform", "seed": null}}, "bias_initializer": {"class_name": "Zeros", "config": {}}, "kernel_regularizer": null, "bias_regularizer": null, "activity_regularizer": null, "kernel_constraint": null, "bias_constraint": null}, "inbound_nodes": [[["conv_dw_8_relu", 0, 0, {}]]]}, {"name": "conv_pw_8_bn", "class_name": "BatchNormalization", "config": {"name": "conv_pw_8_bn", "trainable": true, "axis": -1, "momentum": 0.99, "epsilon": 0.001, "center": true, "scale": true, "beta_initializer": {"class_name": "Zeros", "config": {}}, "gamma_initializer": {"class_name": "Ones", "config": {}}, "moving_mean_initializer": {"class_name": "Zeros", "config": {}}, "moving_variance_initializer": {"class_name": "Ones", "config": {}}, "beta_regularizer": null, "gamma_regularizer": null, "beta_constraint": null, "gamma_constraint": null}, "inbound_nodes": [[["conv_pw_8", 0, 0, {}]]]}, {"name": "conv_pw_8_relu", "class_name": "ReLU", "config": {"name": "conv_pw_8_relu", "trainable": true, "max_value": 6.0, "negative_slope": 0.0, "threshold": 0.0}, "inbound_nodes": [[["conv_pw_8_bn", 0, 0, {}]]]}, {"name": "conv_dw_9", "class_name": "DepthwiseConv2D", "config": {"name": "conv_dw_9", "trainable": true, "kernel_size": [3, 3], "strides": [1, 1], "padding": "same", "data_format": "channels_last", "dilation_rate": [1, 1], "activation": "linear", "use_bias": false, "bias_initializer": {"class_name": "Zeros", "config": {}}, "bias_regularizer": null, "activity_regularizer": null, "bias_constraint": null, "depth_multiplier": 1, "depthwise_initializer": {"class_name": "VarianceScaling", "config": {"scale": 1.0, "mode": "fan_avg", "distribution": "uniform", "seed": null}}, "depthwise_regularizer": null, "depthwise_constraint": null}, "inbound_nodes": [[["conv_pw_8_relu", 0, 0, {}]]]}, {"name": "conv_dw_9_bn", "class_name": "BatchNormalization", "config": {"name": "conv_dw_9_bn", "trainable": true, "axis": -1, "momentum": 0.99, "epsilon": 0.001, "center": true, "scale": true, "beta_initializer": {"class_name": "Zeros", "config": {}}, "gamma_initializer": {"class_name": "Ones", "config": {}}, "moving_mean_initializer": {"class_name": "Zeros", "config": {}}, "moving_variance_initializer": {"class_name": "Ones", "config": {}}, "beta_regularizer": null, "gamma_regularizer": null, "beta_constraint": null, "gamma_constraint": null}, "inbound_nodes": [[["conv_dw_9", 0, 0, {}]]]}, {"name": "conv_dw_9_relu", "class_name": "ReLU", "config": {"name": "conv_dw_9_relu", "trainable": true, "max_value": 6.0, "negative_slope": 0.0, "threshold": 0.0}, "inbound_nodes": [[["conv_dw_9_bn", 0, 0, {}]]]}, {"name": "conv_pw_9", "class_name": "Conv2D", "config": {"name": "conv_pw_9", "trainable": true, "filters": 512, "kernel_size": [1, 1], "strides": [1, 1], "padding": "same", "data_format": "channels_last", "dilation_rate": [1, 1], "activation": "linear", "use_bias": false, "kernel_initializer": {"class_name": "VarianceScaling", "config": {"scale": 1.0, "mode": "fan_avg", "distribution": "uniform", "seed": null}}, "bias_initializer": {"class_name": "Zeros", "config": {}}, "kernel_regularizer": null, "bias_regularizer": null, "activity_regularizer": null, "kernel_constraint": null, "bias_constraint": null}, "inbound_nodes": [[["conv_dw_9_relu", 0, 0, {}]]]}, {"name": "conv_pw_9_bn", "class_name": "BatchNormalization", "config": {"name": "conv_pw_9_bn", "trainable": true, "axis": -1, "momentum": 0.99, "epsilon": 0.001, "center": true, "scale": true, "beta_initializer": {"class_name": "Zeros", "config": {}}, "gamma_initializer": {"class_name": "Ones", "config": {}}, "moving_mean_initializer": {"class_name": "Zeros", "config": {}}, "moving_variance_initializer": {"class_name": "Ones", "config": {}}, "beta_regularizer": null, "gamma_regularizer": null, "beta_constraint": null, "gamma_constraint": null}, "inbound_nodes": [[["conv_pw_9", 0, 0, {}]]]}, {"name": "conv_pw_9_relu", "class_name": "ReLU", "config": {"name": "conv_pw_9_relu", "trainable": true, "max_value": 6.0, "negative_slope": 0.0, "threshold": 0.0}, "inbound_nodes": [[["conv_pw_9_bn", 0, 0, {}]]]}, {"name": "conv_dw_10", "class_name": "DepthwiseConv2D", "config": {"name": "conv_dw_10", "trainable": true, "kernel_size": [3, 3], "strides": [1, 1], "padding": "same", "data_format": "channels_last", "dilation_rate": [1, 1], "activation": "linear", "use_bias": false, "bias_initializer": {"class_name": "Zeros", "config": {}}, "bias_regularizer": null, "activity_regularizer": null, "bias_constraint": null, "depth_multiplier": 1, "depthwise_initializer": {"class_name": "VarianceScaling", "config": {"scale": 1.0, "mode": "fan_avg", "distribution": "uniform", "seed": null}}, "depthwise_regularizer": null, "depthwise_constraint": null}, "inbound_nodes": [[["conv_pw_9_relu", 0, 0, {}]]]}, {"name": "conv_dw_10_bn", "class_name": "BatchNormalization", "config": {"name": "conv_dw_10_bn", "trainable": true, "axis": -1, "momentum": 0.99, "epsilon": 0.001, "center": true, "scale": true, "beta_initializer": {"class_name": "Zeros", "config": {}}, "gamma_initializer": {"class_name": "Ones", "config": {}}, "moving_mean_initializer": {"class_name": "Zeros", "config": {}}, "moving_variance_initializer": {"class_name": "Ones", "config": {}}, "beta_regularizer": null, "gamma_regularizer": null, "beta_constraint": null, "gamma_constraint": null}, "inbound_nodes": [[["conv_dw_10", 0, 0, {}]]]}, {"name": "conv_dw_10_relu", "class_name": "ReLU", "config": {"name": "conv_dw_10_relu", "trainable": true, "max_value": 6.0, "negative_slope": 0.0, "threshold": 0.0}, "inbound_nodes": [[["conv_dw_10_bn", 0, 0, {}]]]}, {"name": "conv_pw_10", "class_name": "Conv2D", "config": {"name": "conv_pw_10", "trainable": true, "filters": 512, "kernel_size": [1, 1], "strides": [1, 1], "padding": "same", "data_format": "channels_last", "dilation_rate": [1, 1], "activation": "linear", "use_bias": false, "kernel_initializer": {"class_name": "VarianceScaling", "config": {"scale": 1.0, "mode": "fan_avg", "distribution": "uniform", "seed": null}}, "bias_initializer": {"class_name": "Zeros", "config": {}}, "kernel_regularizer": null, "bias_regularizer": null, "activity_regularizer": null, "kernel_constraint": null, "bias_constraint": null}, "inbound_nodes": [[["conv_dw_10_relu", 0, 0, {}]]]}, {"name": "conv_pw_10_bn", "class_name": "BatchNormalization", "config": {"name": "conv_pw_10_bn", "trainable": true, "axis": -1, "momentum": 0.99, "epsilon": 0.001, "center": true, "scale": true, "beta_initializer": {"class_name": "Zeros", "config": {}}, "gamma_initializer": {"class_name": "Ones", "config": {}}, "moving_mean_initializer": {"class_name": "Zeros", "config": {}}, "moving_variance_initializer": {"class_name": "Ones", "config": {}}, "beta_regularizer": null, "gamma_regularizer": null, "beta_constraint": null, "gamma_constraint": null}, "inbound_nodes": [[["conv_pw_10", 0, 0, {}]]]}, {"name": "conv_pw_10_relu", "class_name": "ReLU", "config": {"name": "conv_pw_10_relu", "trainable": true, "max_value": 6.0, "negative_slope": 0.0, "threshold": 0.0}, "inbound_nodes": [[["conv_pw_10_bn", 0, 0, {}]]]}, {"name": "conv_dw_11", "class_name": "DepthwiseConv2D", "config": {"name": "conv_dw_11", "trainable": true, "kernel_size": [3, 3], "strides": [1, 1], "padding": "same", "data_format": "channels_last", "dilation_rate": [1, 1], "activation": "linear", "use_bias": false, "bias_initializer": {"class_name": "Zeros", "config": {}}, "bias_regularizer": null, "activity_regularizer": null, "bias_constraint": null, "depth_multiplier": 1, "depthwise_initializer": {"class_name": "VarianceScaling", "config": {"scale": 1.0, "mode": "fan_avg", "distribution": "uniform", "seed": null}}, "depthwise_regularizer": null, "depthwise_constraint": null}, "inbound_nodes": [[["conv_pw_10_relu", 0, 0, {}]]]}, {"name": "conv_dw_11_bn", "class_name": "BatchNormalization", "config": {"name": "conv_dw_11_bn", "trainable": true, "axis": -1, "momentum": 0.99, "epsilon": 0.001, "center": true, "scale": true, "beta_initializer": {"class_name": "Zeros", "config": {}}, "gamma_initializer": {"class_name": "Ones", "config": {}}, "moving_mean_initializer": {"class_name": "Zeros", "config": {}}, "moving_variance_initializer": {"class_name": "Ones", "config": {}}, "beta_regularizer": null, "gamma_regularizer": null, "beta_constraint": null, "gamma_constraint": null}, "inbound_nodes": [[["conv_dw_11", 0, 0, {}]]]}, {"name": "conv_dw_11_relu", "class_name": "ReLU", "config": {"name": "conv_dw_11_relu", "trainable": true, "max_value": 6.0, "negative_slope": 0.0, "threshold": 0.0}, "inbound_nodes": [[["conv_dw_11_bn", 0, 0, {}]]]}, {"name": "conv_pw_11", "class_name": "Conv2D", "config": {"name": "conv_pw_11", "trainable": true, "filters": 512, "kernel_size": [1, 1], "strides": [1, 1], "padding": "same", "data_format": "channels_last", "dilation_rate": [1, 1], "activation": "linear", "use_bias": false, "kernel_initializer": {"class_name": "VarianceScaling", "config": {"scale": 1.0, "mode": "fan_avg", "distribution": "uniform", "seed": null}}, "bias_initializer": {"class_name": "Zeros", "config": {}}, "kernel_regularizer": null, "bias_regularizer": null, "activity_regularizer": null, "kernel_constraint": null, "bias_constraint": null}, "inbound_nodes": [[["conv_dw_11_relu", 0, 0, {}]]]}, {"name": "conv_pw_11_bn", "class_name": "BatchNormalization", "config": {"name": "conv_pw_11_bn", "trainable": true, "axis": -1, "momentum": 0.99, "epsilon": 0.001, "center": true, "scale": true, "beta_initializer": {"class_name": "Zeros", "config": {}}, "gamma_initializer": {"class_name": "Ones", "config": {}}, "moving_mean_initializer": {"class_name": "Zeros", "config": {}}, "moving_variance_initializer": {"class_name": "Ones", "config": {}}, "beta_regularizer": null, "gamma_regularizer": null, "beta_constraint": null, "gamma_constraint": null}, "inbound_nodes": [[["conv_pw_11", 0, 0, {}]]]}, {"name": "conv_pw_11_relu", "class_name": "ReLU", "config": {"name": "conv_pw_11_relu", "trainable": true, "max_value": 6.0, "negative_slope": 0.0, "threshold": 0.0}, "inbound_nodes": [[["conv_pw_11_bn", 0, 0, {}]]]}, {"name": "conv_pad_12", "class_name": "ZeroPadding2D", "config": {"name": "conv_pad_12", "trainable": true, "padding": [[0, 1], [0, 1]], "data_format": "channels_last"}, "inbound_nodes": [[["conv_pw_11_relu", 0, 0, {}]]]}, {"name": "conv_dw_12", "class_name": "DepthwiseConv2D", "config": {"name": "conv_dw_12", "trainable": true, "kernel_size": [3, 3], "strides": [2, 2], "padding": "valid", "data_format": "channels_last", "dilation_rate": [1, 1], "activation": "linear", "use_bias": false, "bias_initializer": {"class_name": "Zeros", "config": {}}, "bias_regularizer": null, "activity_regularizer": null, "bias_constraint": null, "depth_multiplier": 1, "depthwise_initializer": {"class_name": "VarianceScaling", "config": {"scale": 1.0, "mode": "fan_avg", "distribution": "uniform", "seed": null}}, "depthwise_regularizer": null, "depthwise_constraint": null}, "inbound_nodes": [[["conv_pad_12", 0, 0, {}]]]}, {"name": "conv_dw_12_bn", "class_name": "BatchNormalization", "config": {"name": "conv_dw_12_bn", "trainable": true, "axis": -1, "momentum": 0.99, "epsilon": 0.001, "center": true, "scale": true, "beta_initializer": {"class_name": "Zeros", "config": {}}, "gamma_initializer": {"class_name": "Ones", "config": {}}, "moving_mean_initializer": {"class_name": "Zeros", "config": {}}, "moving_variance_initializer": {"class_name": "Ones", "config": {}}, "beta_regularizer": null, "gamma_regularizer": null, "beta_constraint": null, "gamma_constraint": null}, "inbound_nodes": [[["conv_dw_12", 0, 0, {}]]]}, {"name": "conv_dw_12_relu", "class_name": "ReLU", "config": {"name": "conv_dw_12_relu", "trainable": true, "max_value": 6.0, "negative_slope": 0.0, "threshold": 0.0}, "inbound_nodes": [[["conv_dw_12_bn", 0, 0, {}]]]}, {"name": "conv_pw_12", "class_name": "Conv2D", "config": {"name": "conv_pw_12", "trainable": true, "filters": 1024, "kernel_size": [1, 1], "strides": [1, 1], "padding": "same", "data_format": "channels_last", "dilation_rate": [1, 1], "activation": "linear", "use_bias": false, "kernel_initializer": {"class_name": "VarianceScaling", "config": {"scale": 1.0, "mode": "fan_avg", "distribution": "uniform", "seed": null}}, "bias_initializer": {"class_name": "Zeros", "config": {}}, "kernel_regularizer": null, "bias_regularizer": null, "activity_regularizer": null, "kernel_constraint": null, "bias_constraint": null}, "inbound_nodes": [[["conv_dw_12_relu", 0, 0, {}]]]}, {"name": "conv_pw_12_bn", "class_name": "BatchNormalization", "config": {"name": "conv_pw_12_bn", "trainable": true, "axis": -1, "momentum": 0.99, "epsilon": 0.001, "center": true, "scale": true, "beta_initializer": {"class_name": "Zeros", "config": {}}, "gamma_initializer": {"class_name": "Ones", "config": {}}, "moving_mean_initializer": {"class_name": "Zeros", "config": {}}, "moving_variance_initializer": {"class_name": "Ones", "config": {}}, "beta_regularizer": null, "gamma_regularizer": null, "beta_constraint": null, "gamma_constraint": null}, "inbound_nodes": [[["conv_pw_12", 0, 0, {}]]]}, {"name": "conv_pw_12_relu", "class_name": "ReLU", "config": {"name": "conv_pw_12_relu", "trainable": true, "max_value": 6.0, "negative_slope": 0.0, "threshold": 0.0}, "inbound_nodes": [[["conv_pw_12_bn", 0, 0, {}]]]}, {"name": "conv_dw_13", "class_name": "DepthwiseConv2D", "config": {"name": "conv_dw_13", "trainable": true, "kernel_size": [3, 3], "strides": [1, 1], "padding": "same", "data_format": "channels_last", "dilation_rate": [1, 1], "activation": "linear", "use_bias": false, "bias_initializer": {"class_name": "Zeros", "config": {}}, "bias_regularizer": null, "activity_regularizer": null, "bias_constraint": null, "depth_multiplier": 1, "depthwise_initializer": {"class_name": "VarianceScaling", "config": {"scale": 1.0, "mode": "fan_avg", "distribution": "uniform", "seed": null}}, "depthwise_regularizer": null, "depthwise_constraint": null}, "inbound_nodes": [[["conv_pw_12_relu", 0, 0, {}]]]}, {"name": "conv_dw_13_bn", "class_name": "BatchNormalization", "config": {"name": "conv_dw_13_bn", "trainable": true, "axis": -1, "momentum": 0.99, "epsilon": 0.001, "center": true, "scale": true, "beta_initializer": {"class_name": "Zeros", "config": {}}, "gamma_initializer": {"class_name": "Ones", "config": {}}, "moving_mean_initializer": {"class_name": "Zeros", "config": {}}, "moving_variance_initializer": {"class_name": "Ones", "config": {}}, "beta_regularizer": null, "gamma_regularizer": null, "beta_constraint": null, "gamma_constraint": null}, "inbound_nodes": [[["conv_dw_13", 0, 0, {}]]]}, {"name": "conv_dw_13_relu", "class_name": "ReLU", "config": {"name": "conv_dw_13_relu", "trainable": true, "max_value": 6.0, "negative_slope": 0.0, "threshold": 0.0}, "inbound_nodes": [[["conv_dw_13_bn", 0, 0, {}]]]}, {"name": "conv_pw_13", "class_name": "Conv2D", "config": {"name": "conv_pw_13", "trainable": true, "filters": 1024, "kernel_size": [1, 1], "strides": [1, 1], "padding": "same", "data_format": "channels_last", "dilation_rate": [1, 1], "activation": "linear", "use_bias": false, "kernel_initializer": {"class_name": "VarianceScaling", "config": {"scale": 1.0, "mode": "fan_avg", "distribution": "uniform", "seed": null}}, "bias_initializer": {"class_name": "Zeros", "config": {}}, "kernel_regularizer": null, "bias_regularizer": null, "activity_regularizer": null, "kernel_constraint": null, "bias_constraint": null}, "inbound_nodes": [[["conv_dw_13_relu", 0, 0, {}]]]}, {"name": "conv_pw_13_bn", "class_name": "BatchNormalization", "config": {"name": "conv_pw_13_bn", "trainable": true, "axis": -1, "momentum": 0.99, "epsilon": 0.001, "center": true, "scale": true, "beta_initializer": {"class_name": "Zeros", "config": {}}, "gamma_initializer": {"class_name": "Ones", "config": {}}, "moving_mean_initializer": {"class_name": "Zeros", "config": {}}, "moving_variance_initializer": {"class_name": "Ones", "config": {}}, "beta_regularizer": null, "gamma_regularizer": null, "beta_constraint": null, "gamma_constraint": null}, "inbound_nodes": [[["conv_pw_13", 0, 0, {}]]]}, {"name": "conv_pw_13_relu", "class_name": "ReLU", "config": {"name": "conv_pw_13_relu", "trainable": true, "max_value": 6.0, "negative_slope": 0.0, "threshold": 0.0}, "inbound_nodes": [[["conv_pw_13_bn", 0, 0, {}]]]}, {"name": "C5_reduced", "class_name": "Conv2D", "config": {"name": "C5_reduced", "trainable": true, "filters": 256, "kernel_size": [1, 1], "strides": [1, 1], "padding": "same", "data_format": "channels_last", "dilation_rate": [1, 1], "activation": "linear", "use_bias": true, "kernel_initializer": {"class_name": "VarianceScaling", "config": {"scale": 1.0, "mode": "fan_avg", "distribution": "uniform", "seed": null}}, "bias_initializer": {"class_name": "Zeros", "config": {}}, "kernel_regularizer": null, "bias_regularizer": null, "activity_regularizer": null, "kernel_constraint": null, "bias_constraint": null}, "inbound_nodes": [[["conv_pw_13_relu", 0, 0, {}]]]}, {"name": "P5_upsampled", "class_name": "UpsampleLike", "config": {"name": "P5_upsampled", "trainable": true}, "inbound_nodes": [[["C5_reduced", 0, 0, {}], ["conv_pw_11_relu", 0, 0, {}]]]}, {"name": "C4_reduced", "class_name": "Conv2D", "config": {"name": "C4_reduced", "trainable": true, "filters": 256, "kernel_size": [1, 1], "strides": [1, 1], "padding": "same", "data_format": "channels_last", "dilation_rate": [1, 1], "activation": "linear", "use_bias": true, "kernel_initializer": {"class_name": "VarianceScaling", "config": {"scale": 1.0, "mode": "fan_avg", "distribution": "uniform", "seed": null}}, "bias_initializer": {"class_name": "Zeros", "config": {}}, "kernel_regularizer": null, "bias_regularizer": null, "activity_regularizer": null, "kernel_constraint": null, "bias_constraint": null}, "inbound_nodes": [[["conv_pw_11_relu", 0, 0, {}]]]}, {"name": "P4_merged", "class_name": "Add", "config": {"name": "P4_merged", "trainable": true}, "inbound_nodes": [[["P5_upsampled", 0, 0, {}], ["C4_reduced", 0, 0, {}]]]}, {"name": "P4_upsampled", "class_name": "UpsampleLike", "config": {"name": "P4_upsampled", "trainable": true}, "inbound_nodes": [[["P4_merged", 0, 0, {}], ["conv_pw_5_relu", 0, 0, {}]]]}, {"name": "C3_reduced", "class_name": "Conv2D", "config": {"name": "C3_reduced", "trainable": true, "filters": 256, "kernel_size": [1, 1], "strides": [1, 1], "padding": "same", "data_format": "channels_last", "dilation_rate": [1, 1], "activation": "linear", "use_bias": true, "kernel_initializer": {"class_name": "VarianceScaling", "config": {"scale": 1.0, "mode": "fan_avg", "distribution": "uniform", "seed": null}}, "bias_initializer": {"class_name": "Zeros", "config": {}}, "kernel_regularizer": null, "bias_regularizer": null, "activity_regularizer": null, "kernel_constraint": null, "bias_constraint": null}, "inbound_nodes": [[["conv_pw_5_relu", 0, 0, {}]]]}, {"name": "P6", "class_name": "Conv2D", "config": {"name": "P6", "trainable": true, "filters": 256, "kernel_size": [3, 3], "strides": [2, 2], "padding": "same", "data_format": "channels_last", "dilation_rate": [1, 1], "activation": "linear", "use_bias": true, "kernel_initializer": {"class_name": "VarianceScaling", "config": {"scale": 1.0, "mode": "fan_avg", "distribution": "uniform", "seed": null}}, "bias_initializer": {"class_name": "Zeros", "config": {}}, "kernel_regularizer": null, "bias_regularizer": null, "activity_regularizer": null, "kernel_constraint": null, "bias_constraint": null}, "inbound_nodes": [[["conv_pw_13_relu", 0, 0, {}]]]}, {"name": "P3_merged", "class_name": "Add", "config": {"name": "P3_merged", "trainable": true}, "inbound_nodes": [[["P4_upsampled", 0, 0, {}], ["C3_reduced", 0, 0, {}]]]}, {"name": "C6_relu", "class_name": "Activation", "config": {"name": "C6_relu", "trainable": true, "activation": "relu"}, "inbound_nodes": [[["P6", 0, 0, {}]]]}, {"name": "P3", "class_name": "Conv2D", "config": {"name": "P3", "trainable": true, "filters": 256, "kernel_size": [3, 3], "strides": [1, 1], "padding": "same", "data_format": "channels_last", "dilation_rate": [1, 1], "activation": "linear", "use_bias": true, "kernel_initializer": {"class_name": "VarianceScaling", "config": {"scale": 1.0, "mode": "fan_avg", "distribution": "uniform", "seed": null}}, "bias_initializer": {"class_name": "Zeros", "config": {}}, "kernel_regularizer": null, "bias_regularizer": null, "activity_regularizer": null, "kernel_constraint": null, "bias_constraint": null}, "inbound_nodes": [[["P3_merged", 0, 0, {}]]]}, {"name": "P4", "class_name": "Conv2D", "config": {"name": "P4", "trainable": true, "filters": 256, "kernel_size": [3, 3], "strides": [1, 1], "padding": "same", "data_format": "channels_last", "dilation_rate": [1, 1], "activation": "linear", "use_bias": true, "kernel_initializer": {"class_name": "VarianceScaling", "config": {"scale": 1.0, "mode": "fan_avg", "distribution": "uniform", "seed": null}}, "bias_initializer": {"class_name": "Zeros", "config": {}}, "kernel_regularizer": null, "bias_regularizer": null, "activity_regularizer": null, "kernel_constraint": null, "bias_constraint": null}, "inbound_nodes": [[["P4_merged", 0, 0, {}]]]}, {"name": "P5", "class_name": "Conv2D", "config": {"name": "P5", "trainable": true, "filters": 256, "kernel_size": [3, 3], "strides": [1, 1], "padding": "same", "data_format": "channels_last", "dilation_rate": [1, 1], "activation": "linear", "use_bias": true, "kernel_initializer": {"class_name": "VarianceScaling", "config": {"scale": 1.0, "mode": "fan_avg", "distribution": "uniform", "seed": null}}, "bias_initializer": {"class_name": "Zeros", "config": {}}, "kernel_regularizer": null, "bias_regularizer": null, "activity_regularizer": null, "kernel_constraint": null, "bias_constraint": null}, "inbound_nodes": [[["C5_reduced", 0, 0, {}]]]}, {"name": "P7", "class_name": "Conv2D", "config": {"name": "P7", "trainable": true, "filters": 256, "kernel_size": [3, 3], "strides": [2, 2], "padding": "same", "data_format": "channels_last", "dilation_rate": [1, 1], "activation": "linear", "use_bias": true, "kernel_initializer": {"class_name": "VarianceScaling", "config": {"scale": 1.0, "mode": "fan_avg", "distribution": "uniform", "seed": null}}, "bias_initializer": {"class_name": "Zeros", "config": {}}, "kernel_regularizer": null, "bias_regularizer": null, "activity_regularizer": null, "kernel_constraint": null, "bias_constraint": null}, "inbound_nodes": [[["C6_relu", 0, 0, {}]]]}, {"name": "regression_submodel", "class_name": "Model", "config": {"name": "regression_submodel", "layers": [{"name": "input_2", "class_name": "InputLayer", "config": {"batch_input_shape": [null, null, null, 256], "dtype": "float32", "sparse": false, "name": "input_2"}, "inbound_nodes": []}, {"name": "pyramid_regression_0", "class_name": "Conv2D", "config": {"name": "pyramid_regression_0", "trainable": true, "filters": 256, "kernel_size": [3, 3], "strides": [1, 1], "padding": "same", "data_format": "channels_last", "dilation_rate": [1, 1], "activation": "relu", "use_bias": true, "kernel_initializer": {"class_name": "RandomNormal", "config": {"mean": 0.0, "stddev": 0.01, "seed": null}}, "bias_initializer": {"class_name": "Zeros", "config": {}}, "kernel_regularizer": null, "bias_regularizer": null, "activity_regularizer": null, "kernel_constraint": null, "bias_constraint": null}, "inbound_nodes": [[["input_2", 0, 0, {}]]]}, {"name": "pyramid_regression_1", "class_name": "Conv2D", "config": {"name": "pyramid_regression_1", "trainable": true, "filters": 256, "kernel_size": [3, 3], "strides": [1, 1], "padding": "same", "data_format": "channels_last", "dilation_rate": [1, 1], "activation": "relu", "use_bias": true, "kernel_initializer": {"class_name": "RandomNormal", "config": {"mean": 0.0, "stddev": 0.01, "seed": null}}, "bias_initializer": {"class_name": "Zeros", "config": {}}, "kernel_regularizer": null, "bias_regularizer": null, "activity_regularizer": null, "kernel_constraint": null, "bias_constraint": null}, "inbound_nodes": [[["pyramid_regression_0", 0, 0, {}]]]}, {"name": "pyramid_regression_2", "class_name": "Conv2D", "config": {"name": "pyramid_regression_2", "trainable": true, "filters": 256, "kernel_size": [3, 3], "strides": [1, 1], "padding": "same", "data_format": "channels_last", "dilation_rate": [1, 1], "activation": "relu", "use_bias": true, "kernel_initializer": {"class_name": "RandomNormal", "config": {"mean": 0.0, "stddev": 0.01, "seed": null}}, "bias_initializer": {"class_name": "Zeros", "config": {}}, "kernel_regularizer": null, "bias_regularizer": null, "activity_regularizer": null, "kernel_constraint": null, "bias_constraint": null}, "inbound_nodes": [[["pyramid_regression_1", 0, 0, {}]]]}, {"name": "pyramid_regression_3", "class_name": "Conv2D", "config": {"name": "pyramid_regression_3", "trainable": true, "filters": 256, "kernel_size": [3, 3], "strides": [1, 1], "padding": "same", "data_format": "channels_last", "dilation_rate": [1, 1], "activation": "relu", "use_bias": true, "kernel_initializer": {"class_name": "RandomNormal", "config": {"mean": 0.0, "stddev": 0.01, "seed": null}}, "bias_initializer": {"class_name": "Zeros", "config": {}}, "kernel_regularizer": null, "bias_regularizer": null, "activity_regularizer": null, "kernel_constraint": null, "bias_constraint": null}, "inbound_nodes": [[["pyramid_regression_2", 0, 0, {}]]]}, {"name": "pyramid_regression", "class_name": "Conv2D", "config": {"name": "pyramid_regression", "trainable": true, "filters": 36, "kernel_size": [3, 3], "strides": [1, 1], "padding": "same", "data_format": "channels_last", "dilation_rate": [1, 1], "activation": "linear", "use_bias": true, "kernel_initializer": {"class_name": "RandomNormal", "config": {"mean": 0.0, "stddev": 0.01, "seed": null}}, "bias_initializer": {"class_name": "Zeros", "config": {}}, "kernel_regularizer": null, "bias_regularizer": null, "activity_regularizer": null, "kernel_constraint": null, "bias_constraint": null}, "inbound_nodes": [[["pyramid_regression_3", 0, 0, {}]]]}, {"name": "pyramid_regression_reshape", "class_name": "Reshape", "config": {"name": "pyramid_regression_reshape", "trainable": true, "target_shape": [-1, 4]}, "inbound_nodes": [[["pyramid_regression", 0, 0, {}]]]}], "input_layers": [["input_2", 0, 0]], "output_layers": [["pyramid_regression_reshape", 0, 0]]}, "inbound_nodes": [[["P3", 0, 0, {}]], [["P4", 0, 0, {}]], [["P5", 0, 0, {}]], [["P6", 0, 0, {}]], [["P7", 0, 0, {}]]]}, {"name": "classification_submodel", "class_name": "Model", "config": {"name": "classification_submodel", "layers": [{"name": "input_3", "class_name": "InputLayer", "config": {"batch_input_shape": [null, null, null, 256], "dtype": "float32", "sparse": false, "name": "input_3"}, "inbound_nodes": []}, {"name": "pyramid_classification_0", "class_name": "Conv2D", "config": {"name": "pyramid_classification_0", "trainable": true, "filters": 256, "kernel_size": [3, 3], "strides": [1, 1], "padding": "same", "data_format": "channels_last", "dilation_rate": [1, 1], "activation": "relu", "use_bias": true, "kernel_initializer": {"class_name": "RandomNormal", "config": {"mean": 0.0, "stddev": 0.01, "seed": null}}, "bias_initializer": {"class_name": "Zeros", "config": {}}, "kernel_regularizer": null, "bias_regularizer": null, "activity_regularizer": null, "kernel_constraint": null, "bias_constraint": null}, "inbound_nodes": [[["input_3", 0, 0, {}]]]}, {"name": "pyramid_classification_1", "class_name": "Conv2D", "config": {"name": "pyramid_classification_1", "trainable": true, "filters": 256, "kernel_size": [3, 3], "strides": [1, 1], "padding": "same", "data_format": "channels_last", "dilation_rate": [1, 1], "activation": "relu", "use_bias": true, "kernel_initializer": {"class_name": "RandomNormal", "config": {"mean": 0.0, "stddev": 0.01, "seed": null}}, "bias_initializer": {"class_name": "Zeros", "config": {}}, "kernel_regularizer": null, "bias_regularizer": null, "activity_regularizer": null, "kernel_constraint": null, "bias_constraint": null}, "inbound_nodes": [[["pyramid_classification_0", 0, 0, {}]]]}, {"name": "pyramid_classification_2", "class_name": "Conv2D", "config": {"name": "pyramid_classification_2", "trainable": true, "filters": 256, "kernel_size": [3, 3], "strides": [1, 1], "padding": "same", "data_format": "channels_last", "dilation_rate": [1, 1], "activation": "relu", "use_bias": true, "kernel_initializer": {"class_name": "RandomNormal", "config": {"mean": 0.0, "stddev": 0.01, "seed": null}}, "bias_initializer": {"class_name": "Zeros", "config": {}}, "kernel_regularizer": null, "bias_regularizer": null, "activity_regularizer": null, "kernel_constraint": null, "bias_constraint": null}, "inbound_nodes": [[["pyramid_classification_1", 0, 0, {}]]]}, {"name": "pyramid_classification_3", "class_name": "Conv2D", "config": {"name": "pyramid_classification_3", "trainable": true, "filters": 256, "kernel_size": [3, 3], "strides": [1, 1], "padding": "same", "data_format": "channels_last", "dilation_rate": [1, 1], "activation": "relu", "use_bias": true, "kernel_initializer": {"class_name": "RandomNormal", "config": {"mean": 0.0, "stddev": 0.01, "seed": null}}, "bias_initializer": {"class_name": "Zeros", "config": {}}, "kernel_regularizer": null, "bias_regularizer": null, "activity_regularizer": null, "kernel_constraint": null, "bias_constraint": null}, "inbound_nodes": [[["pyramid_classification_2", 0, 0, {}]]]}, {"name": "pyramid_classification", "class_name": "Conv2D", "config": {"name": "pyramid_classification", "trainable": true, "filters": 18, "kernel_size": [3, 3], "strides": [1, 1], "padding": "same", "data_format": "channels_last", "dilation_rate": [1, 1], "activation": "linear", "use_bias": true, "kernel_initializer": {"class_name": "RandomNormal", "config": {"mean": 0.0, "stddev": 0.01, "seed": null}}, "bias_initializer": {"class_name": "PriorProbability", "config": {"probability": 0.01}}, "kernel_regularizer": null, "bias_regularizer": null, "activity_regularizer": null, "kernel_constraint": null, "bias_constraint": null}, "inbound_nodes": [[["pyramid_classification_3", 0, 0, {}]]]}, {"name": "pyramid_classification_reshape", "class_name": "Reshape", "config": {"name": "pyramid_classification_reshape", "trainable": true, "target_shape": [-1, 2]}, "inbound_nodes": [[["pyramid_classification", 0, 0, {}]]]}, {"name": "pyramid_classification_sigmoid", "class_name": "Activation", "config": {"name": "pyramid_classification_sigmoid", "trainable": true, "activation": "sigmoid"}, "inbound_nodes": [[["pyramid_classification_reshape", 0, 0, {}]]]}], "input_layers": [["input_3", 0, 0]], "output_layers": [["pyramid_classification_sigmoid", 0, 0]]}, "inbound_nodes": [[["P3", 0, 0, {}]], [["P4", 0, 0, {}]], [["P5", 0, 0, {}]], [["P6", 0, 0, {}]], [["P7", 0, 0, {}]]]}, {"name": "regression", "class_name": "Concatenate", "config": {"name": "regression", "trainable": true, "axis": 1}, "inbound_nodes": [[["regression_submodel", 1, 0, {}], ["regression_submodel", 2, 0, {}], ["regression_submodel", 3, 0, {}], ["regression_submodel", 4, 0, {}], ["regression_submodel", 5, 0, {}]]]}, {"name": "classification", "class_name": "Concatenate", "config": {"name": "classification", "trainable": true, "axis": 1}, "inbound_nodes": [[["classification_submodel", 1, 0, {}], ["classification_submodel", 2, 0, {}], ["classification_submodel", 3, 0, {}], ["classification_submodel", 4, 0, {}], ["classification_submodel", 5, 0, {}]]]}], "input_layers": [["input_1", 0, 0]], "output_layers": [["regression", 0, 0], ["classification", 0, 0]]}}}, "weightsManifest": [{"paths": ["group1-shard1of4.bin", "group1-shard2of4.bin", "group1-shard3of4.bin", "group1-shard4of4.bin"], "weights": [{"name": "C3_reduced/kernel", "shape": [1, 1, 256, 256], "dtype": "float32", "quantization": {"min": -0.11014090893315334, "scale": 0.0008604758510402605, "dtype": "uint8"}}, {"name": "C3_reduced/bias", "shape": [256], "dtype": "float32", "quantization": {"min": -0.0009020394892157878, "scale": 7.27451200980474e-06, "dtype": "uint8"}}, {"name": "C4_reduced/kernel", "shape": [1, 1, 512, 256], "dtype": "float32", "quantization": {"min": -0.09306125284409991, "scale": 0.0007327657704259836, "dtype": "uint8"}}, {"name": "C4_reduced/bias", "shape": [256], "dtype": "float32", "quantization": {"min": -0.001787606629031692, "scale": 1.4300853032253536e-05, "dtype": "uint8"}}, {"name": "C5_reduced/kernel", "shape": [1, 1, 1024, 256], "dtype": "float32", "quantization": {"min": -0.07136385277205823, "scale": 0.0005619201005673876, "dtype": "uint8"}}, {"name": "C5_reduced/bias", "shape": [256], "dtype": "float32", "quantization": {"min": -0.0016797836869955063, "scale": 1.3226643204689026e-05, "dtype": "uint8"}}, {"name": "P3/kernel", "shape": [3, 3, 256, 256], "dtype": "float32", "quantization": {"min": -0.03868862280950827, "scale": 0.00030463482527171866, "dtype": "uint8"}}, {"name": "P3/bias", "shape": [256], "dtype": "float32", "quantization": {"min": -0.0006394480998792192, "scale": 4.918831537532456e-06, "dtype": "uint8"}}, {"name": "P4/kernel", "shape": [3, 3, 256, 256], "dtype": "float32", "quantization": {"min": -0.038570465761072495, "scale": 0.00030133176375837887, "dtype": "uint8"}}, {"name": "P4/bias", "shape": [256], "dtype": "float32", "quantization": {"min": -0.0008078787831918282, "scale": 6.120293812059305e-06, "dtype": "uint8"}}, {"name": "P5/kernel", "shape": [3, 3, 256, 256], "dtype": "float32", "quantization": {"min": -0.038631319532207414, "scale": 0.0003018071838453704, "dtype": "uint8"}}, {"name": "P5/bias", "shape": [256], "dtype": "float32", "quantization": {"min": -0.0004883678333249455, "scale": 3.7566756409611187e-06, "dtype": "uint8"}}, {"name": "P6/kernel", "shape": [3, 3, 1024, 256], "dtype": "float32", "quantization": {"min": -0.02277309318967894, "scale": 0.00017931569440692079, "dtype": "uint8"}}, {"name": "P6/bias", "shape": [256], "dtype": "float32", "quantization": {"min": -2.175325522223241e-05, "scale": 1.8915874106289052e-07, "dtype": "uint8"}}, {"name": "P7/kernel", "shape": [3, 3, 256, 256], "dtype": "float32", "quantization": {"min": -0.035942826244760966, "scale": 0.0002830143798800076, "dtype": "uint8"}}, {"name": "P7/bias", "shape": [256], "dtype": "float32", "quantization": {"min": -2.4413019691208178e-08, "scale": 1.6061197165268537e-10, "dtype": "uint8"}}, {"name": "pyramid_classification_0/kernel", "shape": [3, 3, 256, 256], "dtype": "float32", "quantization": {"min": -0.050189753563380714, "scale": 0.0003831278897967993, "dtype": "uint8"}}, {"name": "pyramid_classification_0/bias", "shape": [256], "dtype": "float32", "quantization": {"min": -0.00045713184597701126, "scale": 4.155744054336466e-06, "dtype": "uint8"}}, {"name": "pyramid_classification_1/kernel", "shape": [3, 3, 256, 256], "dtype": "float32", "quantization": {"min": -0.04855789419482736, "scale": 0.00038538011265736, "dtype": "uint8"}}, {"name": "pyramid_classification_1/bias", "shape": [256], "dtype": "float32", "quantization": {"min": -0.0007050462242891537, "scale": 4.930393176847229e-06, "dtype": "uint8"}}, {"name": "pyramid_classification_2/kernel", "shape": [3, 3, 256, 256], "dtype": "float32", "quantization": {"min": -0.05010001986634498, "scale": 0.0004106559005438113, "dtype": "uint8"}}, {"name": "pyramid_classification_2/bias", "shape": [256], "dtype": "float32", "quantization": {"min": -0.0005752439460004954, "scale": 5.045999526320135e-06, "dtype": "uint8"}}, {"name": "pyramid_classification_3/kernel", "shape": [3, 3, 256, 256], "dtype": "float32", "quantization": {"min": -0.048385577166781706, "scale": 0.0003933786761526968, "dtype": "uint8"}}, {"name": "pyramid_classification_3/bias", "shape": [256], "dtype": "float32", "quantization": {"min": -0.0011183407027548287, "scale": 7.931494345778928e-06, "dtype": "uint8"}}, {"name": "pyramid_classification/kernel", "shape": [3, 3, 256, 18], "dtype": "float32", "quantization": {"min": -0.04142046754851061, "scale": 0.0003161867751794703, "dtype": "uint8"}}, {"name": "pyramid_classification/bias", "shape": [18], "dtype": "float32", "quantization": {"min": -4.595357894897461, "scale": 4.596336215150122e-06, "dtype": "uint8"}}, {"name": "conv1/kernel", "shape": [3, 3, 3, 32], "dtype": "float32", "quantization": {"min": -0.8737494167159585, "scale": 0.006196804373872046, "dtype": "uint8"}}, {"name": "conv1_bn/gamma", "shape": [32], "dtype": "float32", "quantization": {"min": -0.25172346690121816, "scale": 0.013984637050067677, "dtype": "uint8"}}, {"name": "conv1_bn/beta", "shape": [32], "dtype": "float32", "quantization": {"min": -2.8675148487091064, "scale": 0.024934911727905275, "dtype": "uint8"}}, {"name": "conv1_bn/moving_mean", "shape": [32], "dtype": "float32", "quantization": {"min": -0.45092540745641674, "scale": 0.0035505937594993444, "dtype": "uint8"}}, {"name": "conv1_bn/moving_variance", "shape": [32], "dtype": "float32", "quantization": {"min": 2.7572641068214785e-25, "scale": 0.010778091468063055, "dtype": "uint8"}}, {"name": "conv_dw_1/depthwise_kernel", "shape": [3, 3, 32, 1], "dtype": "float32", "quantization": {"min": -30.62852190803079, "scale": 0.2141854678883272, "dtype": "uint8"}}, {"name": "conv_dw_10/depthwise_kernel", "shape": [3, 3, 512, 1], "dtype": "float32", "quantization": {"min": -5.118069405649223, "scale": 0.0412747532713647, "dtype": "uint8"}}, {"name": "conv_dw_10_bn/gamma", "shape": [512], "dtype": "float32", "quantization": {"min": 0.3524848222732544, "scale": 0.009149584583207672, "dtype": "uint8"}}, {"name": "conv_dw_10_bn/beta", "shape": [512], "dtype": "float32", "quantization": {"min": -3.9740387804367963, "scale": 0.030806502173928652, "dtype": "uint8"}}, {"name": "conv_dw_10_bn/moving_mean", "shape": [512], "dtype": "float32", "quantization": {"min": -19.254479860791974, "scale": 0.10940045375449985, "dtype": "uint8"}}, {"name": "conv_dw_10_bn/moving_variance", "shape": [512], "dtype": "float32", "quantization": {"min": -0.0, "scale": 0.21637389239142923, "dtype": "uint8"}}, {"name": "conv_dw_11/depthwise_kernel", "shape": [3, 3, 512, 1], "dtype": "float32", "quantization": {"min": -4.118403148651123, "scale": 0.037102731068929036, "dtype": "uint8"}}, {"name": "conv_dw_11_bn/gamma", "shape": [512], "dtype": "float32", "quantization": {"min": 0.44019055366516113, "scale": 0.00917946965086694, "dtype": "uint8"}}, {"name": "conv_dw_11_bn/beta", "shape": [512], "dtype": "float32", "quantization": {"min": -3.0016980535843794, "scale": 0.02805325283723719, "dtype": "uint8"}}, {"name": "conv_dw_11_bn/moving_mean", "shape": [512], "dtype": "float32", "quantization": {"min": -13.225946882659313, "scale": 0.08876474417892156, "dtype": "uint8"}}, {"name": "conv_dw_11_bn/moving_variance", "shape": [512], "dtype": "float32", "quantization": {"min": 0.42935267090797424, "scale": 0.35085490766693567, "dtype": "uint8"}}, {"name": "conv_dw_12/depthwise_kernel", "shape": [3, 3, 512, 1], "dtype": "float32", "quantization": {"min": -2.2660519562515558, "scale": 0.016186085401796828, "dtype": "uint8"}}, {"name": "conv_dw_12_bn/gamma", "shape": [512], "dtype": "float32", "quantization": {"min": 0.44528013467788696, "scale": 0.010089117639205034, "dtype": "uint8"}}, {"name": "conv_dw_12_bn/beta", "shape": [512], "dtype": "float32", "quantization": {"min": -2.2475768612880334, "scale": 0.029189309886857574, "dtype": "uint8"}}, {"name": "conv_dw_12_bn/moving_mean", "shape": [512], "dtype": "float32", "quantization": {"min": -11.478747983072317, "scale": 0.07042176676731483, "dtype": "uint8"}}, {"name": "conv_dw_12_bn/moving_variance", "shape": [512], "dtype": "float32", "quantization": {"min": 0.6277162432670593, "scale": 0.2515826349164925, "dtype": "uint8"}}, {"name": "conv_dw_13/depthwise_kernel", "shape": [3, 3, 1024, 1], "dtype": "float32", "quantization": {"min": -2.4446138475455492, "scale": 0.020203420227649167, "dtype": "uint8"}}, {"name": "conv_dw_13_bn/gamma", "shape": [1024], "dtype": "float32", "quantization": {"min": 0.5534107089042664, "scale": 0.015766029030668968, "dtype": "uint8"}}, {"name": "conv_dw_13_bn/beta", "shape": [1024], "dtype": "float32", "quantization": {"min": -4.3753399512347055, "scale": 0.032897292866426356, "dtype": "uint8"}}, {"name": "conv_dw_13_bn/moving_mean", "shape": [1024], "dtype": "float32", "quantization": {"min": -7.9745537458681595, "scale": 0.05995905072081323, "dtype": "uint8"}}, {"name": "conv_dw_13_bn/moving_variance", "shape": [1024], "dtype": "float32", "quantization": {"min": -0.0, "scale": 0.07224338755888098, "dtype": "uint8"}}, {"name": "conv_dw_1_bn/gamma", "shape": [32], "dtype": "float32", "quantization": {"min": 0.02729351632297039, "scale": 0.014302689136535514, "dtype": "uint8"}}, {"name": "conv_dw_1_bn/beta", "shape": [32], "dtype": "float32", "quantization": {"min": -1.2451093337115118, "scale": 0.024902186674230237, "dtype": "uint8"}}, {"name": "conv_dw_1_bn/moving_mean", "shape": [32], "dtype": "float32", "quantization": {"min": -20.381324857823987, "scale": 0.2830739563586665, "dtype": "uint8"}}, {"name": "conv_dw_1_bn/moving_variance", "shape": [32], "dtype": "float32", "quantization": {"min": -0.0, "scale": 1.4642621208639706, "dtype": "uint8"}}, {"name": "conv_dw_2/depthwise_kernel", "shape": [3, 3, 64, 1], "dtype": "float32", "quantization": {"min": -6.283252145729812, "scale": 0.049474426344329234, "dtype": "uint8"}}, {"name": "conv_dw_2_bn/gamma", "shape": [64], "dtype": "float32", "quantization": {"min": -0.05608271142723513, "scale": 0.011216542285447027, "dtype": "uint8"}}, {"name": "conv_dw_2_bn/beta", "shape": [64], "dtype": "float32", "quantization": {"min": -2.244726723315669, "scale": 0.029535877938364066, "dtype": "uint8"}}, {"name": "conv_dw_2_bn/moving_mean", "shape": [64], "dtype": "float32", "quantization": {"min": -30.180033665077357, "scale": 0.26243507534849875, "dtype": "uint8"}}, {"name": "conv_dw_2_bn/moving_variance", "shape": [64], "dtype": "float32", "quantization": {"min": -0.0, "scale": 1.5629915125229779, "dtype": "uint8"}}, {"name": "conv_dw_3/depthwise_kernel", "shape": [3, 3, 128, 1], "dtype": "float32", "quantization": {"min": -10.775189511916215, "scale": 0.09209563685398475, "dtype": "uint8"}}, {"name": "conv_dw_3_bn/gamma", "shape": [128], "dtype": "float32", "quantization": {"min": 0.507670521736145, "scale": 0.0258866361543244, "dtype": "uint8"}}, {"name": "conv_dw_3_bn/beta", "shape": [128], "dtype": "float32", "quantization": {"min": -1.6926995726192697, "scale": 0.028211659543654496, "dtype": "uint8"}}, {"name": "conv_dw_3_bn/moving_mean", "shape": [128], "dtype": "float32", "quantization": {"min": -26.91519344554228, "scale": 0.16821995903463924, "dtype": "uint8"}}, {"name": "conv_dw_3_bn/moving_variance", "shape": [128], "dtype": "float32", "quantization": {"min": -0.0, "scale": 0.37575940898820465, "dtype": "uint8"}}, {"name": "conv_dw_4/depthwise_kernel", "shape": [3, 3, 128, 1], "dtype": "float32", "quantization": {"min": -2.522335656483968, "scale": 0.02119609795364679, "dtype": "uint8"}}, {"name": "conv_dw_4_bn/gamma", "shape": [128], "dtype": "float32", "quantization": {"min": 0.6081265807151794, "scale": 0.006502590226192101, "dtype": "uint8"}}, {"name": "conv_dw_4_bn/beta", "shape": [128], "dtype": "float32", "quantization": {"min": -1.8512256622314451, "scale": 0.027223906797521253, "dtype": "uint8"}}, {"name": "conv_dw_4_bn/moving_mean", "shape": [128], "dtype": "float32", "quantization": {"min": -48.205009909237134, "scale": 0.3171382230870864, "dtype": "uint8"}}, {"name": "conv_dw_4_bn/moving_variance", "shape": [128], "dtype": "float32", "quantization": {"min": -0.0, "scale": 0.7965870576746323, "dtype": "uint8"}}, {"name": "conv_dw_5/depthwise_kernel", "shape": [3, 3, 256, 1], "dtype": "float32", "quantization": {"min": -6.168885201098872, "scale": 0.05459190443450329, "dtype": "uint8"}}, {"name": "conv_dw_5_bn/gamma", "shape": [256], "dtype": "float32", "quantization": {"min": 0.5002305507659912, "scale": 0.008245244680666456, "dtype": "uint8"}}, {"name": "conv_dw_5_bn/beta", "shape": [256], "dtype": "float32", "quantization": {"min": -2.465999855714686, "scale": 0.023485712911568438, "dtype": "uint8"}}, {"name": "conv_dw_5_bn/moving_mean", "shape": [256], "dtype": "float32", "quantization": {"min": -18.7882282855464, "scale": 0.14126487432741652, "dtype": "uint8"}}, {"name": "conv_dw_5_bn/moving_variance", "shape": [256], "dtype": "float32", "quantization": {"min": 4.2337898776168004e-05, "scale": 0.23796747097499868, "dtype": "uint8"}}, {"name": "conv_dw_6/depthwise_kernel", "shape": [3, 3, 256, 1], "dtype": "float32", "quantization": {"min": -2.309325214460784, "scale": 0.018041603237974876, "dtype": "uint8"}}, {"name": "conv_dw_6_bn/gamma", "shape": [256], "dtype": "float32", "quantization": {"min": 0.415602445602417, "scale": 0.016112292981615255, "dtype": "uint8"}}, {"name": "conv_dw_6_bn/beta", "shape": [256], "dtype": "float32", "quantization": {"min": -4.298200401605344, "scale": 0.03523115083283069, "dtype": "uint8"}}, {"name": "conv_dw_6_bn/moving_mean", "shape": [256], "dtype": "float32", "quantization": {"min": -28.51271526860256, "scale": 0.18882592893114278, "dtype": "uint8"}}, {"name": "conv_dw_6_bn/moving_variance", "shape": [256], "dtype": "float32", "quantization": {"min": 0.8530005812644958, "scale": 0.40681931762134327, "dtype": "uint8"}}, {"name": "conv_dw_7/depthwise_kernel", "shape": [3, 3, 512, 1], "dtype": "float32", "quantization": {"min": -4.531659967759077, "scale": 0.039066034204819626, "dtype": "uint8"}}, {"name": "conv_dw_7_bn/gamma", "shape": [512], "dtype": "float32", "quantization": {"min": 0.5424039363861084, "scale": 0.010085561228733437, "dtype": "uint8"}}, {"name": "conv_dw_7_bn/beta", "shape": [512], "dtype": "float32", "quantization": {"min": -2.6610315285476984, "scale": 0.025586841620650946, "dtype": "uint8"}}, {"name": "conv_dw_7_bn/moving_mean", "shape": [512], "dtype": "float32", "quantization": {"min": -11.923445129394532, "scale": 0.08964996337890625, "dtype": "uint8"}}, {"name": "conv_dw_7_bn/moving_variance", "shape": [512], "dtype": "float32", "quantization": {"min": 0.17759831249713898, "scale": 0.17230020662148793, "dtype": "uint8"}}, {"name": "conv_dw_8/depthwise_kernel", "shape": [3, 3, 512, 1], "dtype": "float32", "quantization": {"min": -3.491858328089995, "scale": 0.03754686374290317, "dtype": "uint8"}}, {"name": "conv_dw_8_bn/gamma", "shape": [512], "dtype": "float32", "quantization": {"min": 0.5102470517158508, "scale": 0.010490262040904924, "dtype": "uint8"}}, {"name": "conv_dw_8_bn/beta", "shape": [512], "dtype": "float32", "quantization": {"min": -2.9823938538046444, "scale": 0.03313770948671827, "dtype": "uint8"}}, {"name": "conv_dw_8_bn/moving_mean", "shape": [512], "dtype": "float32", "quantization": {"min": -12.49215228884828, "scale": 0.1105500202552945, "dtype": "uint8"}}, {"name": "conv_dw_8_bn/moving_variance", "shape": [512], "dtype": "float32", "quantization": {"min": 0.7930492162704468, "scale": 0.18875498911913705, "dtype": "uint8"}}, {"name": "conv_dw_9/depthwise_kernel", "shape": [3, 3, 512, 1], "dtype": "float32", "quantization": {"min": -3.9665905484966206, "scale": 0.03510257122563381, "dtype": "uint8"}}, {"name": "conv_dw_9_bn/gamma", "shape": [512], "dtype": "float32", "quantization": {"min": 0.4245857000350952, "scale": 0.012280948021832635, "dtype": "uint8"}}, {"name": "conv_dw_9_bn/beta", "shape": [512], "dtype": "float32", "quantization": {"min": -3.345440241869758, "scale": 0.025933645285812077, "dtype": "uint8"}}, {"name": "conv_dw_9_bn/moving_mean", "shape": [512], "dtype": "float32", "quantization": {"min": -12.436570279738483, "scale": 0.08820262609743605, "dtype": "uint8"}}, {"name": "conv_dw_9_bn/moving_variance", "shape": [512], "dtype": "float32", "quantization": {"min": -0.0, "scale": 0.18013299680223652, "dtype": "uint8"}}, {"name": "conv_pw_1/kernel", "shape": [1, 1, 32, 64], "dtype": "float32", "quantization": {"min": -1.1099218326456406, "scale": 0.009023754736956428, "dtype": "uint8"}}, {"name": "conv_pw_10/kernel", "shape": [1, 1, 512, 512], "dtype": "float32", "quantization": {"min": -0.4383180724639519, "scale": 0.0055483300311892645, "dtype": "uint8"}}, {"name": "conv_pw_10_bn/gamma", "shape": [512], "dtype": "float32", "quantization": {"min": 0.4122234880924225, "scale": 0.010894712162952798, "dtype": "uint8"}}, {"name": "conv_pw_10_bn/beta", "shape": [512], "dtype": "float32", "quantization": {"min": -1.5630870632096834, "scale": 0.015029683300093109, "dtype": "uint8"}}, {"name": "conv_pw_10_bn/moving_mean", "shape": [512], "dtype": "float32", "quantization": {"min": -5.070127360026042, "scale": 0.0372803482354856, "dtype": "uint8"}}, {"name": "conv_pw_10_bn/moving_variance", "shape": [512], "dtype": "float32", "quantization": {"min": 0.2034895420074463, "scale": 0.004725979356204762, "dtype": "uint8"}}, {"name": "conv_pw_11/kernel", "shape": [1, 1, 512, 512], "dtype": "float32", "quantization": {"min": -0.5219310395857867, "scale": 0.006443593081306009, "dtype": "uint8"}}, {"name": "conv_pw_11_bn/gamma", "shape": [512], "dtype": "float32", "quantization": {"min": 0.2709439694881439, "scale": 0.007852964424619488, "dtype": "uint8"}}, {"name": "conv_pw_11_bn/beta", "shape": [512], "dtype": "float32", "quantization": {"min": -2.080681627871943, "scale": 0.016645453022975546, "dtype": "uint8"}}, {"name": "conv_pw_11_bn/moving_mean", "shape": [512], "dtype": "float32", "quantization": {"min": -5.343091089585248, "scale": 0.03710479923323089, "dtype": "uint8"}}, {"name": "conv_pw_11_bn/moving_variance", "shape": [512], "dtype": "float32", "quantization": {"min": 0.19112226366996765, "scale": 0.0067071237984825584, "dtype": "uint8"}}, {"name": "conv_pw_12/kernel", "shape": [1, 1, 512, 1024], "dtype": "float32", "quantization": {"min": -0.8253452403872621, "scale": 0.005895323145623301, "dtype": "uint8"}}, {"name": "conv_pw_12_bn/gamma", "shape": [1024], "dtype": "float32", "quantization": {"min": 0.05526162311434746, "scale": 0.012016471183183147, "dtype": "uint8"}}, {"name": "conv_pw_12_bn/beta", "shape": [1024], "dtype": "float32", "quantization": {"min": -2.935718548064138, "scale": 0.018698844255185594, "dtype": "uint8"}}, {"name": "conv_pw_12_bn/moving_mean", "shape": [1024], "dtype": "float32", "quantization": {"min": -5.049038441975911, "scale": 0.037125282661587586, "dtype": "uint8"}}, {"name": "conv_pw_12_bn/moving_variance", "shape": [1024], "dtype": "float32", "quantization": {"min": 3.2772420190169413e-25, "scale": 0.008685978721169864, "dtype": "uint8"}}, {"name": "conv_pw_13/kernel", "shape": [1, 1, 1024, 1024], "dtype": "float32", "quantization": {"min": -0.5049541315611671, "scale": 0.003854611691306619, "dtype": "uint8"}}, {"name": "conv_pw_13_bn/gamma", "shape": [1024], "dtype": "float32", "quantization": {"min": 5.501310348510742, "scale": 0.011722751692229626, "dtype": "uint8"}}, {"name": "conv_pw_13_bn/beta", "shape": [1024], "dtype": "float32", "quantization": {"min": -7.35698938369751, "scale": 0.015481073716107538, "dtype": "uint8"}}, {"name": "conv_pw_13_bn/moving_mean", "shape": [1024], "dtype": "float32", "quantization": {"min": -3.7609953487620635, "scale": 0.026118023255292108, "dtype": "uint8"}}, {"name": "conv_pw_13_bn/moving_variance", "shape": [1024], "dtype": "float32", "quantization": {"min": 0.28157615661621094, "scale": 0.0018200427878136728, "dtype": "uint8"}}, {"name": "conv_pw_1_bn/gamma", "shape": [64], "dtype": "float32", "quantization": {"min": 0.35251274704933167, "scale": 0.03222290709906933, "dtype": "uint8"}}, {"name": "conv_pw_1_bn/beta", "shape": [64], "dtype": "float32", "quantization": {"min": -3.4335665843066048, "scale": 0.027468532674452838, "dtype": "uint8"}}, {"name": "conv_pw_1_bn/moving_mean", "shape": [64], "dtype": "float32", "quantization": {"min": -6.921702216653262, "scale": 0.057680851805443856, "dtype": "uint8"}}, {"name": "conv_pw_1_bn/moving_variance", "shape": [64], "dtype": "float32", "quantization": {"min": 3.166555158142393e-26, "scale": 0.00888522840013691, "dtype": "uint8"}}, {"name": "conv_pw_2/kernel", "shape": [1, 1, 64, 128], "dtype": "float32", "quantization": {"min": -0.8831501007080078, "scale": 0.0073595841725667315, "dtype": "uint8"}}, {"name": "conv_pw_2_bn/gamma", "shape": [128], "dtype": "float32", "quantization": {"min": -0.2571875821141636, "scale": 0.017145838807610905, "dtype": "uint8"}}, {"name": "conv_pw_2_bn/beta", "shape": [128], "dtype": "float32", "quantization": {"min": -3.0645646385118073, "scale": 0.02864079101412904, "dtype": "uint8"}}, {"name": "conv_pw_2_bn/moving_mean", "shape": [128], "dtype": "float32", "quantization": {"min": -7.270628405552284, "scale": 0.06609662186865713, "dtype": "uint8"}}, {"name": "conv_pw_2_bn/moving_variance", "shape": [128], "dtype": "float32", "quantization": {"min": 3.560022337631914e-26, "scale": 0.018265817679610906, "dtype": "uint8"}}, {"name": "conv_pw_3/kernel", "shape": [1, 1, 128, 128], "dtype": "float32", "quantization": {"min": -1.1424693724688362, "scale": 0.010578420115452188, "dtype": "uint8"}}, {"name": "conv_pw_3_bn/gamma", "shape": [128], "dtype": "float32", "quantization": {"min": 0.18623612821102142, "scale": 0.015331510527461184, "dtype": "uint8"}}, {"name": "conv_pw_3_bn/beta", "shape": [128], "dtype": "float32", "quantization": {"min": -3.4402049915463317, "scale": 0.03340004846161487, "dtype": "uint8"}}, {"name": "conv_pw_3_bn/moving_mean", "shape": [128], "dtype": "float32", "quantization": {"min": -5.686266057631548, "scale": 0.049445791805491725, "dtype": "uint8"}}, {"name": "conv_pw_3_bn/moving_variance", "shape": [128], "dtype": "float32", "quantization": {"min": 3.698233250673296e-23, "scale": 0.014609924017214308, "dtype": "uint8"}}, {"name": "conv_pw_4/kernel", "shape": [1, 1, 128, 256], "dtype": "float32", "quantization": {"min": -0.755432305616491, "scale": 0.008036513889537139, "dtype": "uint8"}}, {"name": "conv_pw_4_bn/gamma", "shape": [256], "dtype": "float32", "quantization": {"min": 0.35095077753067017, "scale": 0.010912602321774352, "dtype": "uint8"}}, {"name": "conv_pw_4_bn/beta", "shape": [256], "dtype": "float32", "quantization": {"min": -2.7974577511058136, "scale": 0.02331214792588178, "dtype": "uint8"}}, {"name": "conv_pw_4_bn/moving_mean", "shape": [256], "dtype": "float32", "quantization": {"min": -4.0675209045410154, "scale": 0.04622182846069336, "dtype": "uint8"}}, {"name": "conv_pw_4_bn/moving_variance", "shape": [256], "dtype": "float32", "quantization": {"min": 0.1906011998653412, "scale": 0.01107907821150387, "dtype": "uint8"}}, {"name": "conv_pw_5/kernel", "shape": [1, 1, 256, 256], "dtype": "float32", "quantization": {"min": -0.8179444670677185, "scale": 0.006058847904205323, "dtype": "uint8"}}, {"name": "conv_pw_5_bn/gamma", "shape": [256], "dtype": "float32", "quantization": {"min": 0.32946181297302246, "scale": 0.010818409452251359, "dtype": "uint8"}}, {"name": "conv_pw_5_bn/beta", "shape": [256], "dtype": "float32", "quantization": {"min": -2.379916217280369, "scale": 0.02288380978154201, "dtype": "uint8"}}, {"name": "conv_pw_5_bn/moving_mean", "shape": [256], "dtype": "float32", "quantization": {"min": -2.797086135078879, "scale": 0.03215041534573424, "dtype": "uint8"}}, {"name": "conv_pw_5_bn/moving_variance", "shape": [256], "dtype": "float32", "quantization": {"min": 0.29128211736679077, "scale": 0.0098074803165361, "dtype": "uint8"}}, {"name": "conv_pw_6/kernel", "shape": [1, 1, 256, 512], "dtype": "float32", "quantization": {"min": -0.5440759200675814, "scale": 0.0044596386890785366, "dtype": "uint8"}}, {"name": "conv_pw_6_bn/gamma", "shape": [512], "dtype": "float32", "quantization": {"min": 0.13475298881530762, "scale": 0.00871289851618748, "dtype": "uint8"}}, {"name": "conv_pw_6_bn/beta", "shape": [512], "dtype": "float32", "quantization": {"min": -0.9139804791001712, "scale": 0.01287296449436861, "dtype": "uint8"}}, {"name": "conv_pw_6_bn/moving_mean", "shape": [512], "dtype": "float32", "quantization": {"min": -4.867460980134852, "scale": 0.03356869641472312, "dtype": "uint8"}}, {"name": "conv_pw_6_bn/moving_variance", "shape": [512], "dtype": "float32", "quantization": {"min": 0.23708520829677582, "scale": 0.011321525538668912, "dtype": "uint8"}}, {"name": "conv_pw_7/kernel", "shape": [1, 1, 512, 512], "dtype": "float32", "quantization": {"min": -0.5802242662392411, "scale": 0.0044632635864557, "dtype": "uint8"}}, {"name": "conv_pw_7_bn/gamma", "shape": [512], "dtype": "float32", "quantization": {"min": 0.28437870740890503, "scale": 0.007288058832579968, "dtype": "uint8"}}, {"name": "conv_pw_7_bn/beta", "shape": [512], "dtype": "float32", "quantization": {"min": -1.1750679810841878, "scale": 0.013824329189225739, "dtype": "uint8"}}, {"name": "conv_pw_7_bn/moving_mean", "shape": [512], "dtype": "float32", "quantization": {"min": -3.716958339541566, "scale": 0.030466871635586607, "dtype": "uint8"}}, {"name": "conv_pw_7_bn/moving_variance", "shape": [512], "dtype": "float32", "quantization": {"min": 0.43054497241973877, "scale": 0.013847776955249263, "dtype": "uint8"}}, {"name": "conv_pw_8/kernel", "shape": [1, 1, 512, 512], "dtype": "float32", "quantization": {"min": -0.5260279543259565, "scale": 0.005057961099288043, "dtype": "uint8"}}, {"name": "conv_pw_8_bn/gamma", "shape": [512], "dtype": "float32", "quantization": {"min": 0.19040143489837646, "scale": 0.0077560775420245, "dtype": "uint8"}}, {"name": "conv_pw_8_bn/beta", "shape": [512], "dtype": "float32", "quantization": {"min": -2.609927423327577, "scale": 0.019923110101737227, "dtype": "uint8"}}, {"name": "conv_pw_8_bn/moving_mean", "shape": [512], "dtype": "float32", "quantization": {"min": -3.421556921566234, "scale": 0.02851297434638528, "dtype": "uint8"}}, {"name": "conv_pw_8_bn/moving_variance", "shape": [512], "dtype": "float32", "quantization": {"min": 2.2378767243034088e-20, "scale": 0.00809939982844334, "dtype": "uint8"}}, {"name": "conv_pw_9/kernel", "shape": [1, 1, 512, 512], "dtype": "float32", "quantization": {"min": -0.685242022486294, "scale": 0.005663157210630529, "dtype": "uint8"}}, {"name": "conv_pw_9_bn/gamma", "shape": [512], "dtype": "float32", "quantization": {"min": 0.17156356573104858, "scale": 0.012657421944188136, "dtype": "uint8"}}, {"name": "conv_pw_9_bn/beta", "shape": [512], "dtype": "float32", "quantization": {"min": -2.206808973761166, "scale": 0.023229568144854378, "dtype": "uint8"}}, {"name": "conv_pw_9_bn/moving_mean", "shape": [512], "dtype": "float32", "quantization": {"min": -2.4732658161836514, "scale": 0.022900609409107882, "dtype": "uint8"}}, {"name": "conv_pw_9_bn/moving_variance", "shape": [512], "dtype": "float32", "quantization": {"min": 5.527485021479756e-16, "scale": 0.006698033388923195, "dtype": "uint8"}}, {"name": "pyramid_regression_0/kernel", "shape": [3, 3, 256, 256], "dtype": "float32", "quantization": {"min": -0.04725492140826057, "scale": 0.0003691790735020357, "dtype": "uint8"}}, {"name": "pyramid_regression_0/bias", "shape": [256], "dtype": "float32", "quantization": {"min": -0.000858727750350155, "scale": 7.402825434053061e-06, "dtype": "uint8"}}, {"name": "pyramid_regression_1/kernel", "shape": [3, 3, 256, 256], "dtype": "float32", "quantization": {"min": -0.049722761923775956, "scale": 0.0003854477668509764, "dtype": "uint8"}}, {"name": "pyramid_regression_1/bias", "shape": [256], "dtype": "float32", "quantization": {"min": -0.000881508578245035, "scale": 9.478586862849838e-06, "dtype": "uint8"}}, {"name": "pyramid_regression_2/kernel", "shape": [3, 3, 256, 256], "dtype": "float32", "quantization": {"min": -0.05211306100382525, "scale": 0.0003860226741024092, "dtype": "uint8"}}, {"name": "pyramid_regression_2/bias", "shape": [256], "dtype": "float32", "quantization": {"min": -0.0014268896113350696, "scale": 1.2627341693230704e-05, "dtype": "uint8"}}, {"name": "pyramid_regression_3/kernel", "shape": [3, 3, 256, 256], "dtype": "float32", "quantization": {"min": -0.04898210886646719, "scale": 0.0003739092279882992, "dtype": "uint8"}}, {"name": "pyramid_regression_3/bias", "shape": [256], "dtype": "float32", "quantization": {"min": -0.0019271051620735839, "scale": 1.6059209683946533e-05, "dtype": "uint8"}}, {"name": "pyramid_regression/kernel", "shape": [3, 3, 256, 36], "dtype": "float32", "quantization": {"min": -0.04353584214752795, "scale": 0.00034012376677756214, "dtype": "uint8"}}, {"name": "pyramid_regression/bias", "shape": [36], "dtype": "float32", "quantization": {"min": -0.0019075751962030637, "scale": 1.5508741432545233e-05, "dtype": "uint8"}}]}]}