{"format": "layers-model", "generatedBy": "keras v2.2.4", "convertedBy": "TensorFlow.js Converter v1.2.2.1", "modelTopology": {"keras_version": "2.2.4", "backend": "tensorflow", "model_config": {"class_name": "Model", "config": {"name": "retinanet", "layers": [{"name": "input_1", "class_name": "InputLayer", "config": {"batch_input_shape": [null, 512, 512, 3], "dtype": "float32", "sparse": false, "name": "input_1"}, "inbound_nodes": []}, {"name": "conv1", "class_name": "Conv2D", "config": {"name": "conv1", "trainable": true, "filters": 64, "kernel_size": [7, 7], "strides": [2, 2], "padding": "same", "data_format": "channels_last", "dilation_rate": [1, 1], "activation": "linear", "use_bias": false, "kernel_initializer": {"class_name": "VarianceScaling", "config": {"scale": 1.0, "mode": "fan_avg", "distribution": "uniform", "seed": null}}, "bias_initializer": {"class_name": "Zeros", "config": {}}, "kernel_regularizer": null, "bias_regularizer": null, "activity_regularizer": null, "kernel_constraint": null, "bias_constraint": null}, "inbound_nodes": [[["input_1", 0, 0, {}]]]}, {"name": "bn_conv1", "class_name": "BatchNormalization", "config": {"name": "bn_conv1", "trainable": false, "axis": 3, "momentum": 0.99, "epsilon": 1e-05, "center": true, "scale": true, "beta_initializer": {"class_name": "Zeros", "config": {}}, "gamma_initializer": {"class_name": "Ones", "config": {}}, "moving_mean_initializer": {"class_name": "Zeros", "config": {}}, "moving_variance_initializer": {"class_name": "Ones", "config": {}}, "beta_regularizer": null, "gamma_regularizer": null, "beta_constraint": null, "gamma_constraint": null, "freeze": true}, "inbound_nodes": [[["conv1", 0, 0, {}]]]}, {"name": "conv1_relu", "class_name": "Activation", "config": {"name": "conv1_relu", "trainable": true, "activation": "relu"}, "inbound_nodes": [[["bn_conv1", 0, 0, {}]]]}, {"name": "pool1", "class_name": "MaxPooling2D", "config": {"name": "pool1", "trainable": true, "pool_size": [3, 3], "padding": "same", "strides": [2, 2], "data_format": "channels_last"}, "inbound_nodes": [[["conv1_relu", 0, 0, {}]]]}, {"name": "res2a_branch2a", "class_name": "Conv2D", "config": {"name": "res2a_branch2a", "trainable": true, "filters": 64, "kernel_size": [1, 1], "strides": [1, 1], "padding": "valid", "data_format": "channels_last", "dilation_rate": [1, 1], "activation": "linear", "use_bias": false, "kernel_initializer": {"class_name": "VarianceScaling", "config": {"scale": 2.0, "mode": "fan_in", "distribution": "normal", "seed": null}}, "bias_initializer": {"class_name": "Zeros", "config": {}}, "kernel_regularizer": null, "bias_regularizer": null, "activity_regularizer": null, "kernel_constraint": null, "bias_constraint": null}, "inbound_nodes": [[["pool1", 0, 0, {}]]]}, {"name": "bn2a_branch2a", "class_name": "BatchNormalization", "config": {"name": "bn2a_branch2a", "trainable": false, "axis": 3, "momentum": 0.99, "epsilon": 1e-05, "center": true, "scale": true, "beta_initializer": {"class_name": "Zeros", "config": {}}, "gamma_initializer": {"class_name": "Ones", "config": {}}, "moving_mean_initializer": {"class_name": "Zeros", "config": {}}, "moving_variance_initializer": {"class_name": "Ones", "config": {}}, "beta_regularizer": null, "gamma_regularizer": null, "beta_constraint": null, "gamma_constraint": null, "freeze": true}, "inbound_nodes": [[["res2a_branch2a", 0, 0, {}]]]}, {"name": "res2a_branch2a_relu", "class_name": "Activation", "config": {"name": "res2a_branch2a_relu", "trainable": true, "activation": "relu"}, "inbound_nodes": [[["bn2a_branch2a", 0, 0, {}]]]}, {"name": "padding2a_branch2b", "class_name": "ZeroPadding2D", "config": {"name": "padding2a_branch2b", "trainable": true, "padding": [[1, 1], [1, 1]], "data_format": "channels_last"}, "inbound_nodes": [[["res2a_branch2a_relu", 0, 0, {}]]]}, {"name": "res2a_branch2b", "class_name": "Conv2D", "config": {"name": "res2a_branch2b", "trainable": true, "filters": 64, "kernel_size": [3, 3], "strides": [1, 1], "padding": "valid", "data_format": "channels_last", "dilation_rate": [1, 1], "activation": "linear", "use_bias": false, "kernel_initializer": {"class_name": "VarianceScaling", "config": {"scale": 2.0, "mode": "fan_in", "distribution": "normal", "seed": null}}, "bias_initializer": {"class_name": "Zeros", "config": {}}, "kernel_regularizer": null, "bias_regularizer": null, "activity_regularizer": null, "kernel_constraint": null, "bias_constraint": null}, "inbound_nodes": [[["padding2a_branch2b", 0, 0, {}]]]}, {"name": "bn2a_branch2b", "class_name": "BatchNormalization", "config": {"name": "bn2a_branch2b", "trainable": false, "axis": 3, "momentum": 0.99, "epsilon": 1e-05, "center": true, "scale": true, "beta_initializer": {"class_name": "Zeros", "config": {}}, "gamma_initializer": {"class_name": "Ones", "config": {}}, "moving_mean_initializer": {"class_name": "Zeros", "config": {}}, "moving_variance_initializer": {"class_name": "Ones", "config": {}}, "beta_regularizer": null, "gamma_regularizer": null, "beta_constraint": null, "gamma_constraint": null, "freeze": true}, "inbound_nodes": [[["res2a_branch2b", 0, 0, {}]]]}, {"name": "res2a_branch2b_relu", "class_name": "Activation", "config": {"name": "res2a_branch2b_relu", "trainable": true, "activation": "relu"}, "inbound_nodes": [[["bn2a_branch2b", 0, 0, {}]]]}, {"name": "res2a_branch2c", "class_name": "Conv2D", "config": {"name": "res2a_branch2c", "trainable": true, "filters": 256, "kernel_size": [1, 1], "strides": [1, 1], "padding": "valid", "data_format": "channels_last", "dilation_rate": [1, 1], "activation": "linear", "use_bias": false, "kernel_initializer": {"class_name": "VarianceScaling", "config": {"scale": 2.0, "mode": "fan_in", "distribution": "normal", "seed": null}}, "bias_initializer": {"class_name": "Zeros", "config": {}}, "kernel_regularizer": null, "bias_regularizer": null, "activity_regularizer": null, "kernel_constraint": null, "bias_constraint": null}, "inbound_nodes": [[["res2a_branch2b_relu", 0, 0, {}]]]}, {"name": "res2a_branch1", "class_name": "Conv2D", "config": {"name": "res2a_branch1", "trainable": true, "filters": 256, "kernel_size": [1, 1], "strides": [1, 1], "padding": "valid", "data_format": "channels_last", "dilation_rate": [1, 1], "activation": "linear", "use_bias": false, "kernel_initializer": {"class_name": "VarianceScaling", "config": {"scale": 2.0, "mode": "fan_in", "distribution": "normal", "seed": null}}, "bias_initializer": {"class_name": "Zeros", "config": {}}, "kernel_regularizer": null, "bias_regularizer": null, "activity_regularizer": null, "kernel_constraint": null, "bias_constraint": null}, "inbound_nodes": [[["pool1", 0, 0, {}]]]}, {"name": "bn2a_branch2c", "class_name": "BatchNormalization", "config": {"name": "bn2a_branch2c", "trainable": false, "axis": 3, "momentum": 0.99, "epsilon": 1e-05, "center": true, "scale": true, "beta_initializer": {"class_name": "Zeros", "config": {}}, "gamma_initializer": {"class_name": "Ones", "config": {}}, "moving_mean_initializer": {"class_name": "Zeros", "config": {}}, "moving_variance_initializer": {"class_name": "Ones", "config": {}}, "beta_regularizer": null, "gamma_regularizer": null, "beta_constraint": null, "gamma_constraint": null, "freeze": true}, "inbound_nodes": [[["res2a_branch2c", 0, 0, {}]]]}, {"name": "bn2a_branch1", "class_name": "BatchNormalization", "config": {"name": "bn2a_branch1", "trainable": false, "axis": 3, "momentum": 0.99, "epsilon": 1e-05, "center": true, "scale": true, "beta_initializer": {"class_name": "Zeros", "config": {}}, "gamma_initializer": {"class_name": "Ones", "config": {}}, "moving_mean_initializer": {"class_name": "Zeros", "config": {}}, "moving_variance_initializer": {"class_name": "Ones", "config": {}}, "beta_regularizer": null, "gamma_regularizer": null, "beta_constraint": null, "gamma_constraint": null, "freeze": true}, "inbound_nodes": [[["res2a_branch1", 0, 0, {}]]]}, {"name": "res2a", "class_name": "Add", "config": {"name": "res2a", "trainable": true}, "inbound_nodes": [[["bn2a_branch2c", 0, 0, {}], ["bn2a_branch1", 0, 0, {}]]]}, {"name": "res2a_relu", "class_name": "Activation", "config": {"name": "res2a_relu", "trainable": true, "activation": "relu"}, "inbound_nodes": [[["res2a", 0, 0, {}]]]}, {"name": "res2b_branch2a", "class_name": "Conv2D", "config": {"name": "res2b_branch2a", "trainable": true, "filters": 64, "kernel_size": [1, 1], "strides": [1, 1], "padding": "valid", "data_format": "channels_last", "dilation_rate": [1, 1], "activation": "linear", "use_bias": false, "kernel_initializer": {"class_name": "VarianceScaling", "config": {"scale": 2.0, "mode": "fan_in", "distribution": "normal", "seed": null}}, "bias_initializer": {"class_name": "Zeros", "config": {}}, "kernel_regularizer": null, "bias_regularizer": null, "activity_regularizer": null, "kernel_constraint": null, "bias_constraint": null}, "inbound_nodes": [[["res2a_relu", 0, 0, {}]]]}, {"name": "bn2b_branch2a", "class_name": "BatchNormalization", "config": {"name": "bn2b_branch2a", "trainable": false, "axis": 3, "momentum": 0.99, "epsilon": 1e-05, "center": true, "scale": true, "beta_initializer": {"class_name": "Zeros", "config": {}}, "gamma_initializer": {"class_name": "Ones", "config": {}}, "moving_mean_initializer": {"class_name": "Zeros", "config": {}}, "moving_variance_initializer": {"class_name": "Ones", "config": {}}, "beta_regularizer": null, "gamma_regularizer": null, "beta_constraint": null, "gamma_constraint": null, "freeze": true}, "inbound_nodes": [[["res2b_branch2a", 0, 0, {}]]]}, {"name": "res2b_branch2a_relu", "class_name": "Activation", "config": {"name": "res2b_branch2a_relu", "trainable": true, "activation": "relu"}, "inbound_nodes": [[["bn2b_branch2a", 0, 0, {}]]]}, {"name": "padding2b_branch2b", "class_name": "ZeroPadding2D", "config": {"name": "padding2b_branch2b", "trainable": true, "padding": [[1, 1], [1, 1]], "data_format": "channels_last"}, "inbound_nodes": [[["res2b_branch2a_relu", 0, 0, {}]]]}, {"name": "res2b_branch2b", "class_name": "Conv2D", "config": {"name": "res2b_branch2b", "trainable": true, "filters": 64, "kernel_size": [3, 3], "strides": [1, 1], "padding": "valid", "data_format": "channels_last", "dilation_rate": [1, 1], "activation": "linear", "use_bias": false, "kernel_initializer": {"class_name": "VarianceScaling", "config": {"scale": 2.0, "mode": "fan_in", "distribution": "normal", "seed": null}}, "bias_initializer": {"class_name": "Zeros", "config": {}}, "kernel_regularizer": null, "bias_regularizer": null, "activity_regularizer": null, "kernel_constraint": null, "bias_constraint": null}, "inbound_nodes": [[["padding2b_branch2b", 0, 0, {}]]]}, {"name": "bn2b_branch2b", "class_name": "BatchNormalization", "config": {"name": "bn2b_branch2b", "trainable": false, "axis": 3, "momentum": 0.99, "epsilon": 1e-05, "center": true, "scale": true, "beta_initializer": {"class_name": "Zeros", "config": {}}, "gamma_initializer": {"class_name": "Ones", "config": {}}, "moving_mean_initializer": {"class_name": "Zeros", "config": {}}, "moving_variance_initializer": {"class_name": "Ones", "config": {}}, "beta_regularizer": null, "gamma_regularizer": null, "beta_constraint": null, "gamma_constraint": null, "freeze": true}, "inbound_nodes": [[["res2b_branch2b", 0, 0, {}]]]}, {"name": "res2b_branch2b_relu", "class_name": "Activation", "config": {"name": "res2b_branch2b_relu", "trainable": true, "activation": "relu"}, "inbound_nodes": [[["bn2b_branch2b", 0, 0, {}]]]}, {"name": "res2b_branch2c", "class_name": "Conv2D", "config": {"name": "res2b_branch2c", "trainable": true, "filters": 256, "kernel_size": [1, 1], "strides": [1, 1], "padding": "valid", "data_format": "channels_last", "dilation_rate": [1, 1], "activation": "linear", "use_bias": false, "kernel_initializer": {"class_name": "VarianceScaling", "config": {"scale": 2.0, "mode": "fan_in", "distribution": "normal", "seed": null}}, "bias_initializer": {"class_name": "Zeros", "config": {}}, "kernel_regularizer": null, "bias_regularizer": null, "activity_regularizer": null, "kernel_constraint": null, "bias_constraint": null}, "inbound_nodes": [[["res2b_branch2b_relu", 0, 0, {}]]]}, {"name": "bn2b_branch2c", "class_name": "BatchNormalization", "config": {"name": "bn2b_branch2c", "trainable": false, "axis": 3, "momentum": 0.99, "epsilon": 1e-05, "center": true, "scale": true, "beta_initializer": {"class_name": "Zeros", "config": {}}, "gamma_initializer": {"class_name": "Ones", "config": {}}, "moving_mean_initializer": {"class_name": "Zeros", "config": {}}, "moving_variance_initializer": {"class_name": "Ones", "config": {}}, "beta_regularizer": null, "gamma_regularizer": null, "beta_constraint": null, "gamma_constraint": null, "freeze": true}, "inbound_nodes": [[["res2b_branch2c", 0, 0, {}]]]}, {"name": "res2b", "class_name": "Add", "config": {"name": "res2b", "trainable": true}, "inbound_nodes": [[["bn2b_branch2c", 0, 0, {}], ["res2a_relu", 0, 0, {}]]]}, {"name": "res2b_relu", "class_name": "Activation", "config": {"name": "res2b_relu", "trainable": true, "activation": "relu"}, "inbound_nodes": [[["res2b", 0, 0, {}]]]}, {"name": "res2c_branch2a", "class_name": "Conv2D", "config": {"name": "res2c_branch2a", "trainable": true, "filters": 64, "kernel_size": [1, 1], "strides": [1, 1], "padding": "valid", "data_format": "channels_last", "dilation_rate": [1, 1], "activation": "linear", "use_bias": false, "kernel_initializer": {"class_name": "VarianceScaling", "config": {"scale": 2.0, "mode": "fan_in", "distribution": "normal", "seed": null}}, "bias_initializer": {"class_name": "Zeros", "config": {}}, "kernel_regularizer": null, "bias_regularizer": null, "activity_regularizer": null, "kernel_constraint": null, "bias_constraint": null}, "inbound_nodes": [[["res2b_relu", 0, 0, {}]]]}, {"name": "bn2c_branch2a", "class_name": "BatchNormalization", "config": {"name": "bn2c_branch2a", "trainable": false, "axis": 3, "momentum": 0.99, "epsilon": 1e-05, "center": true, "scale": true, "beta_initializer": {"class_name": "Zeros", "config": {}}, "gamma_initializer": {"class_name": "Ones", "config": {}}, "moving_mean_initializer": {"class_name": "Zeros", "config": {}}, "moving_variance_initializer": {"class_name": "Ones", "config": {}}, "beta_regularizer": null, "gamma_regularizer": null, "beta_constraint": null, "gamma_constraint": null, "freeze": true}, "inbound_nodes": [[["res2c_branch2a", 0, 0, {}]]]}, {"name": "res2c_branch2a_relu", "class_name": "Activation", "config": {"name": "res2c_branch2a_relu", "trainable": true, "activation": "relu"}, "inbound_nodes": [[["bn2c_branch2a", 0, 0, {}]]]}, {"name": "padding2c_branch2b", "class_name": "ZeroPadding2D", "config": {"name": "padding2c_branch2b", "trainable": true, "padding": [[1, 1], [1, 1]], "data_format": "channels_last"}, "inbound_nodes": [[["res2c_branch2a_relu", 0, 0, {}]]]}, {"name": "res2c_branch2b", "class_name": "Conv2D", "config": {"name": "res2c_branch2b", "trainable": true, "filters": 64, "kernel_size": [3, 3], "strides": [1, 1], "padding": "valid", "data_format": "channels_last", "dilation_rate": [1, 1], "activation": "linear", "use_bias": false, "kernel_initializer": {"class_name": "VarianceScaling", "config": {"scale": 2.0, "mode": "fan_in", "distribution": "normal", "seed": null}}, "bias_initializer": {"class_name": "Zeros", "config": {}}, "kernel_regularizer": null, "bias_regularizer": null, "activity_regularizer": null, "kernel_constraint": null, "bias_constraint": null}, "inbound_nodes": [[["padding2c_branch2b", 0, 0, {}]]]}, {"name": "bn2c_branch2b", "class_name": "BatchNormalization", "config": {"name": "bn2c_branch2b", "trainable": false, "axis": 3, "momentum": 0.99, "epsilon": 1e-05, "center": true, "scale": true, "beta_initializer": {"class_name": "Zeros", "config": {}}, "gamma_initializer": {"class_name": "Ones", "config": {}}, "moving_mean_initializer": {"class_name": "Zeros", "config": {}}, "moving_variance_initializer": {"class_name": "Ones", "config": {}}, "beta_regularizer": null, "gamma_regularizer": null, "beta_constraint": null, "gamma_constraint": null, "freeze": true}, "inbound_nodes": [[["res2c_branch2b", 0, 0, {}]]]}, {"name": "res2c_branch2b_relu", "class_name": "Activation", "config": {"name": "res2c_branch2b_relu", "trainable": true, "activation": "relu"}, "inbound_nodes": [[["bn2c_branch2b", 0, 0, {}]]]}, {"name": "res2c_branch2c", "class_name": "Conv2D", "config": {"name": "res2c_branch2c", "trainable": true, "filters": 256, "kernel_size": [1, 1], "strides": [1, 1], "padding": "valid", "data_format": "channels_last", "dilation_rate": [1, 1], "activation": "linear", "use_bias": false, "kernel_initializer": {"class_name": "VarianceScaling", "config": {"scale": 2.0, "mode": "fan_in", "distribution": "normal", "seed": null}}, "bias_initializer": {"class_name": "Zeros", "config": {}}, "kernel_regularizer": null, "bias_regularizer": null, "activity_regularizer": null, "kernel_constraint": null, "bias_constraint": null}, "inbound_nodes": [[["res2c_branch2b_relu", 0, 0, {}]]]}, {"name": "bn2c_branch2c", "class_name": "BatchNormalization", "config": {"name": "bn2c_branch2c", "trainable": false, "axis": 3, "momentum": 0.99, "epsilon": 1e-05, "center": true, "scale": true, "beta_initializer": {"class_name": "Zeros", "config": {}}, "gamma_initializer": {"class_name": "Ones", "config": {}}, "moving_mean_initializer": {"class_name": "Zeros", "config": {}}, "moving_variance_initializer": {"class_name": "Ones", "config": {}}, "beta_regularizer": null, "gamma_regularizer": null, "beta_constraint": null, "gamma_constraint": null, "freeze": true}, "inbound_nodes": [[["res2c_branch2c", 0, 0, {}]]]}, {"name": "res2c", "class_name": "Add", "config": {"name": "res2c", "trainable": true}, "inbound_nodes": [[["bn2c_branch2c", 0, 0, {}], ["res2b_relu", 0, 0, {}]]]}, {"name": "res2c_relu", "class_name": "Activation", "config": {"name": "res2c_relu", "trainable": true, "activation": "relu"}, "inbound_nodes": [[["res2c", 0, 0, {}]]]}, {"name": "res3a_branch2a", "class_name": "Conv2D", "config": {"name": "res3a_branch2a", "trainable": true, "filters": 128, "kernel_size": [1, 1], "strides": [2, 2], "padding": "valid", "data_format": "channels_last", "dilation_rate": [1, 1], "activation": "linear", "use_bias": false, "kernel_initializer": {"class_name": "VarianceScaling", "config": {"scale": 2.0, "mode": "fan_in", "distribution": "normal", "seed": null}}, "bias_initializer": {"class_name": "Zeros", "config": {}}, "kernel_regularizer": null, "bias_regularizer": null, "activity_regularizer": null, "kernel_constraint": null, "bias_constraint": null}, "inbound_nodes": [[["res2c_relu", 0, 0, {}]]]}, {"name": "bn3a_branch2a", "class_name": "BatchNormalization", "config": {"name": "bn3a_branch2a", "trainable": false, "axis": 3, "momentum": 0.99, "epsilon": 1e-05, "center": true, "scale": true, "beta_initializer": {"class_name": "Zeros", "config": {}}, "gamma_initializer": {"class_name": "Ones", "config": {}}, "moving_mean_initializer": {"class_name": "Zeros", "config": {}}, "moving_variance_initializer": {"class_name": "Ones", "config": {}}, "beta_regularizer": null, "gamma_regularizer": null, "beta_constraint": null, "gamma_constraint": null, "freeze": true}, "inbound_nodes": [[["res3a_branch2a", 0, 0, {}]]]}, {"name": "res3a_branch2a_relu", "class_name": "Activation", "config": {"name": "res3a_branch2a_relu", "trainable": true, "activation": "relu"}, "inbound_nodes": [[["bn3a_branch2a", 0, 0, {}]]]}, {"name": "padding3a_branch2b", "class_name": "ZeroPadding2D", "config": {"name": "padding3a_branch2b", "trainable": true, "padding": [[1, 1], [1, 1]], "data_format": "channels_last"}, "inbound_nodes": [[["res3a_branch2a_relu", 0, 0, {}]]]}, {"name": "res3a_branch2b", "class_name": "Conv2D", "config": {"name": "res3a_branch2b", "trainable": true, "filters": 128, "kernel_size": [3, 3], "strides": [1, 1], "padding": "valid", "data_format": "channels_last", "dilation_rate": [1, 1], "activation": "linear", "use_bias": false, "kernel_initializer": {"class_name": "VarianceScaling", "config": {"scale": 2.0, "mode": "fan_in", "distribution": "normal", "seed": null}}, "bias_initializer": {"class_name": "Zeros", "config": {}}, "kernel_regularizer": null, "bias_regularizer": null, "activity_regularizer": null, "kernel_constraint": null, "bias_constraint": null}, "inbound_nodes": [[["padding3a_branch2b", 0, 0, {}]]]}, {"name": "bn3a_branch2b", "class_name": "BatchNormalization", "config": {"name": "bn3a_branch2b", "trainable": false, "axis": 3, "momentum": 0.99, "epsilon": 1e-05, "center": true, "scale": true, "beta_initializer": {"class_name": "Zeros", "config": {}}, "gamma_initializer": {"class_name": "Ones", "config": {}}, "moving_mean_initializer": {"class_name": "Zeros", "config": {}}, "moving_variance_initializer": {"class_name": "Ones", "config": {}}, "beta_regularizer": null, "gamma_regularizer": null, "beta_constraint": null, "gamma_constraint": null, "freeze": true}, "inbound_nodes": [[["res3a_branch2b", 0, 0, {}]]]}, {"name": "res3a_branch2b_relu", "class_name": "Activation", "config": {"name": "res3a_branch2b_relu", "trainable": true, "activation": "relu"}, "inbound_nodes": [[["bn3a_branch2b", 0, 0, {}]]]}, {"name": "res3a_branch2c", "class_name": "Conv2D", "config": {"name": "res3a_branch2c", "trainable": true, "filters": 512, "kernel_size": [1, 1], "strides": [1, 1], "padding": "valid", "data_format": "channels_last", "dilation_rate": [1, 1], "activation": "linear", "use_bias": false, "kernel_initializer": {"class_name": "VarianceScaling", "config": {"scale": 2.0, "mode": "fan_in", "distribution": "normal", "seed": null}}, "bias_initializer": {"class_name": "Zeros", "config": {}}, "kernel_regularizer": null, "bias_regularizer": null, "activity_regularizer": null, "kernel_constraint": null, "bias_constraint": null}, "inbound_nodes": [[["res3a_branch2b_relu", 0, 0, {}]]]}, {"name": "res3a_branch1", "class_name": "Conv2D", "config": {"name": "res3a_branch1", "trainable": true, "filters": 512, "kernel_size": [1, 1], "strides": [2, 2], "padding": "valid", "data_format": "channels_last", "dilation_rate": [1, 1], "activation": "linear", "use_bias": false, "kernel_initializer": {"class_name": "VarianceScaling", "config": {"scale": 2.0, "mode": "fan_in", "distribution": "normal", "seed": null}}, "bias_initializer": {"class_name": "Zeros", "config": {}}, "kernel_regularizer": null, "bias_regularizer": null, "activity_regularizer": null, "kernel_constraint": null, "bias_constraint": null}, "inbound_nodes": [[["res2c_relu", 0, 0, {}]]]}, {"name": "bn3a_branch2c", "class_name": "BatchNormalization", "config": {"name": "bn3a_branch2c", "trainable": false, "axis": 3, "momentum": 0.99, "epsilon": 1e-05, "center": true, "scale": true, "beta_initializer": {"class_name": "Zeros", "config": {}}, "gamma_initializer": {"class_name": "Ones", "config": {}}, "moving_mean_initializer": {"class_name": "Zeros", "config": {}}, "moving_variance_initializer": {"class_name": "Ones", "config": {}}, "beta_regularizer": null, "gamma_regularizer": null, "beta_constraint": null, "gamma_constraint": null, "freeze": true}, "inbound_nodes": [[["res3a_branch2c", 0, 0, {}]]]}, {"name": "bn3a_branch1", "class_name": "BatchNormalization", "config": {"name": "bn3a_branch1", "trainable": false, "axis": 3, "momentum": 0.99, "epsilon": 1e-05, "center": true, "scale": true, "beta_initializer": {"class_name": "Zeros", "config": {}}, "gamma_initializer": {"class_name": "Ones", "config": {}}, "moving_mean_initializer": {"class_name": "Zeros", "config": {}}, "moving_variance_initializer": {"class_name": "Ones", "config": {}}, "beta_regularizer": null, "gamma_regularizer": null, "beta_constraint": null, "gamma_constraint": null, "freeze": true}, "inbound_nodes": [[["res3a_branch1", 0, 0, {}]]]}, {"name": "res3a", "class_name": "Add", "config": {"name": "res3a", "trainable": true}, "inbound_nodes": [[["bn3a_branch2c", 0, 0, {}], ["bn3a_branch1", 0, 0, {}]]]}, {"name": "res3a_relu", "class_name": "Activation", "config": {"name": "res3a_relu", "trainable": true, "activation": "relu"}, "inbound_nodes": [[["res3a", 0, 0, {}]]]}, {"name": "res3b_branch2a", "class_name": "Conv2D", "config": {"name": "res3b_branch2a", "trainable": true, "filters": 128, "kernel_size": [1, 1], "strides": [1, 1], "padding": "valid", "data_format": "channels_last", "dilation_rate": [1, 1], "activation": "linear", "use_bias": false, "kernel_initializer": {"class_name": "VarianceScaling", "config": {"scale": 2.0, "mode": "fan_in", "distribution": "normal", "seed": null}}, "bias_initializer": {"class_name": "Zeros", "config": {}}, "kernel_regularizer": null, "bias_regularizer": null, "activity_regularizer": null, "kernel_constraint": null, "bias_constraint": null}, "inbound_nodes": [[["res3a_relu", 0, 0, {}]]]}, {"name": "bn3b_branch2a", "class_name": "BatchNormalization", "config": {"name": "bn3b_branch2a", "trainable": false, "axis": 3, "momentum": 0.99, "epsilon": 1e-05, "center": true, "scale": true, "beta_initializer": {"class_name": "Zeros", "config": {}}, "gamma_initializer": {"class_name": "Ones", "config": {}}, "moving_mean_initializer": {"class_name": "Zeros", "config": {}}, "moving_variance_initializer": {"class_name": "Ones", "config": {}}, "beta_regularizer": null, "gamma_regularizer": null, "beta_constraint": null, "gamma_constraint": null, "freeze": true}, "inbound_nodes": [[["res3b_branch2a", 0, 0, {}]]]}, {"name": "res3b_branch2a_relu", "class_name": "Activation", "config": {"name": "res3b_branch2a_relu", "trainable": true, "activation": "relu"}, "inbound_nodes": [[["bn3b_branch2a", 0, 0, {}]]]}, {"name": "padding3b_branch2b", "class_name": "ZeroPadding2D", "config": {"name": "padding3b_branch2b", "trainable": true, "padding": [[1, 1], [1, 1]], "data_format": "channels_last"}, "inbound_nodes": [[["res3b_branch2a_relu", 0, 0, {}]]]}, {"name": "res3b_branch2b", "class_name": "Conv2D", "config": {"name": "res3b_branch2b", "trainable": true, "filters": 128, "kernel_size": [3, 3], "strides": [1, 1], "padding": "valid", "data_format": "channels_last", "dilation_rate": [1, 1], "activation": "linear", "use_bias": false, "kernel_initializer": {"class_name": "VarianceScaling", "config": {"scale": 2.0, "mode": "fan_in", "distribution": "normal", "seed": null}}, "bias_initializer": {"class_name": "Zeros", "config": {}}, "kernel_regularizer": null, "bias_regularizer": null, "activity_regularizer": null, "kernel_constraint": null, "bias_constraint": null}, "inbound_nodes": [[["padding3b_branch2b", 0, 0, {}]]]}, {"name": "bn3b_branch2b", "class_name": "BatchNormalization", "config": {"name": "bn3b_branch2b", "trainable": false, "axis": 3, "momentum": 0.99, "epsilon": 1e-05, "center": true, "scale": true, "beta_initializer": {"class_name": "Zeros", "config": {}}, "gamma_initializer": {"class_name": "Ones", "config": {}}, "moving_mean_initializer": {"class_name": "Zeros", "config": {}}, "moving_variance_initializer": {"class_name": "Ones", "config": {}}, "beta_regularizer": null, "gamma_regularizer": null, "beta_constraint": null, "gamma_constraint": null, "freeze": true}, "inbound_nodes": [[["res3b_branch2b", 0, 0, {}]]]}, {"name": "res3b_branch2b_relu", "class_name": "Activation", "config": {"name": "res3b_branch2b_relu", "trainable": true, "activation": "relu"}, "inbound_nodes": [[["bn3b_branch2b", 0, 0, {}]]]}, {"name": "res3b_branch2c", "class_name": "Conv2D", "config": {"name": "res3b_branch2c", "trainable": true, "filters": 512, "kernel_size": [1, 1], "strides": [1, 1], "padding": "valid", "data_format": "channels_last", "dilation_rate": [1, 1], "activation": "linear", "use_bias": false, "kernel_initializer": {"class_name": "VarianceScaling", "config": {"scale": 2.0, "mode": "fan_in", "distribution": "normal", "seed": null}}, "bias_initializer": {"class_name": "Zeros", "config": {}}, "kernel_regularizer": null, "bias_regularizer": null, "activity_regularizer": null, "kernel_constraint": null, "bias_constraint": null}, "inbound_nodes": [[["res3b_branch2b_relu", 0, 0, {}]]]}, {"name": "bn3b_branch2c", "class_name": "BatchNormalization", "config": {"name": "bn3b_branch2c", "trainable": false, "axis": 3, "momentum": 0.99, "epsilon": 1e-05, "center": true, "scale": true, "beta_initializer": {"class_name": "Zeros", "config": {}}, "gamma_initializer": {"class_name": "Ones", "config": {}}, "moving_mean_initializer": {"class_name": "Zeros", "config": {}}, "moving_variance_initializer": {"class_name": "Ones", "config": {}}, "beta_regularizer": null, "gamma_regularizer": null, "beta_constraint": null, "gamma_constraint": null, "freeze": true}, "inbound_nodes": [[["res3b_branch2c", 0, 0, {}]]]}, {"name": "res3b", "class_name": "Add", "config": {"name": "res3b", "trainable": true}, "inbound_nodes": [[["bn3b_branch2c", 0, 0, {}], ["res3a_relu", 0, 0, {}]]]}, {"name": "res3b_relu", "class_name": "Activation", "config": {"name": "res3b_relu", "trainable": true, "activation": "relu"}, "inbound_nodes": [[["res3b", 0, 0, {}]]]}, {"name": "res3c_branch2a", "class_name": "Conv2D", "config": {"name": "res3c_branch2a", "trainable": true, "filters": 128, "kernel_size": [1, 1], "strides": [1, 1], "padding": "valid", "data_format": "channels_last", "dilation_rate": [1, 1], "activation": "linear", "use_bias": false, "kernel_initializer": {"class_name": "VarianceScaling", "config": {"scale": 2.0, "mode": "fan_in", "distribution": "normal", "seed": null}}, "bias_initializer": {"class_name": "Zeros", "config": {}}, "kernel_regularizer": null, "bias_regularizer": null, "activity_regularizer": null, "kernel_constraint": null, "bias_constraint": null}, "inbound_nodes": [[["res3b_relu", 0, 0, {}]]]}, {"name": "bn3c_branch2a", "class_name": "BatchNormalization", "config": {"name": "bn3c_branch2a", "trainable": false, "axis": 3, "momentum": 0.99, "epsilon": 1e-05, "center": true, "scale": true, "beta_initializer": {"class_name": "Zeros", "config": {}}, "gamma_initializer": {"class_name": "Ones", "config": {}}, "moving_mean_initializer": {"class_name": "Zeros", "config": {}}, "moving_variance_initializer": {"class_name": "Ones", "config": {}}, "beta_regularizer": null, "gamma_regularizer": null, "beta_constraint": null, "gamma_constraint": null, "freeze": true}, "inbound_nodes": [[["res3c_branch2a", 0, 0, {}]]]}, {"name": "res3c_branch2a_relu", "class_name": "Activation", "config": {"name": "res3c_branch2a_relu", "trainable": true, "activation": "relu"}, "inbound_nodes": [[["bn3c_branch2a", 0, 0, {}]]]}, {"name": "padding3c_branch2b", "class_name": "ZeroPadding2D", "config": {"name": "padding3c_branch2b", "trainable": true, "padding": [[1, 1], [1, 1]], "data_format": "channels_last"}, "inbound_nodes": [[["res3c_branch2a_relu", 0, 0, {}]]]}, {"name": "res3c_branch2b", "class_name": "Conv2D", "config": {"name": "res3c_branch2b", "trainable": true, "filters": 128, "kernel_size": [3, 3], "strides": [1, 1], "padding": "valid", "data_format": "channels_last", "dilation_rate": [1, 1], "activation": "linear", "use_bias": false, "kernel_initializer": {"class_name": "VarianceScaling", "config": {"scale": 2.0, "mode": "fan_in", "distribution": "normal", "seed": null}}, "bias_initializer": {"class_name": "Zeros", "config": {}}, "kernel_regularizer": null, "bias_regularizer": null, "activity_regularizer": null, "kernel_constraint": null, "bias_constraint": null}, "inbound_nodes": [[["padding3c_branch2b", 0, 0, {}]]]}, {"name": "bn3c_branch2b", "class_name": "BatchNormalization", "config": {"name": "bn3c_branch2b", "trainable": false, "axis": 3, "momentum": 0.99, "epsilon": 1e-05, "center": true, "scale": true, "beta_initializer": {"class_name": "Zeros", "config": {}}, "gamma_initializer": {"class_name": "Ones", "config": {}}, "moving_mean_initializer": {"class_name": "Zeros", "config": {}}, "moving_variance_initializer": {"class_name": "Ones", "config": {}}, "beta_regularizer": null, "gamma_regularizer": null, "beta_constraint": null, "gamma_constraint": null, "freeze": true}, "inbound_nodes": [[["res3c_branch2b", 0, 0, {}]]]}, {"name": "res3c_branch2b_relu", "class_name": "Activation", "config": {"name": "res3c_branch2b_relu", "trainable": true, "activation": "relu"}, "inbound_nodes": [[["bn3c_branch2b", 0, 0, {}]]]}, {"name": "res3c_branch2c", "class_name": "Conv2D", "config": {"name": "res3c_branch2c", "trainable": true, "filters": 512, "kernel_size": [1, 1], "strides": [1, 1], "padding": "valid", "data_format": "channels_last", "dilation_rate": [1, 1], "activation": "linear", "use_bias": false, "kernel_initializer": {"class_name": "VarianceScaling", "config": {"scale": 2.0, "mode": "fan_in", "distribution": "normal", "seed": null}}, "bias_initializer": {"class_name": "Zeros", "config": {}}, "kernel_regularizer": null, "bias_regularizer": null, "activity_regularizer": null, "kernel_constraint": null, "bias_constraint": null}, "inbound_nodes": [[["res3c_branch2b_relu", 0, 0, {}]]]}, {"name": "bn3c_branch2c", "class_name": "BatchNormalization", "config": {"name": "bn3c_branch2c", "trainable": false, "axis": 3, "momentum": 0.99, "epsilon": 1e-05, "center": true, "scale": true, "beta_initializer": {"class_name": "Zeros", "config": {}}, "gamma_initializer": {"class_name": "Ones", "config": {}}, "moving_mean_initializer": {"class_name": "Zeros", "config": {}}, "moving_variance_initializer": {"class_name": "Ones", "config": {}}, "beta_regularizer": null, "gamma_regularizer": null, "beta_constraint": null, "gamma_constraint": null, "freeze": true}, "inbound_nodes": [[["res3c_branch2c", 0, 0, {}]]]}, {"name": "res3c", "class_name": "Add", "config": {"name": "res3c", "trainable": true}, "inbound_nodes": [[["bn3c_branch2c", 0, 0, {}], ["res3b_relu", 0, 0, {}]]]}, {"name": "res3c_relu", "class_name": "Activation", "config": {"name": "res3c_relu", "trainable": true, "activation": "relu"}, "inbound_nodes": [[["res3c", 0, 0, {}]]]}, {"name": "res3d_branch2a", "class_name": "Conv2D", "config": {"name": "res3d_branch2a", "trainable": true, "filters": 128, "kernel_size": [1, 1], "strides": [1, 1], "padding": "valid", "data_format": "channels_last", "dilation_rate": [1, 1], "activation": "linear", "use_bias": false, "kernel_initializer": {"class_name": "VarianceScaling", "config": {"scale": 2.0, "mode": "fan_in", "distribution": "normal", "seed": null}}, "bias_initializer": {"class_name": "Zeros", "config": {}}, "kernel_regularizer": null, "bias_regularizer": null, "activity_regularizer": null, "kernel_constraint": null, "bias_constraint": null}, "inbound_nodes": [[["res3c_relu", 0, 0, {}]]]}, {"name": "bn3d_branch2a", "class_name": "BatchNormalization", "config": {"name": "bn3d_branch2a", "trainable": false, "axis": 3, "momentum": 0.99, "epsilon": 1e-05, "center": true, "scale": true, "beta_initializer": {"class_name": "Zeros", "config": {}}, "gamma_initializer": {"class_name": "Ones", "config": {}}, "moving_mean_initializer": {"class_name": "Zeros", "config": {}}, "moving_variance_initializer": {"class_name": "Ones", "config": {}}, "beta_regularizer": null, "gamma_regularizer": null, "beta_constraint": null, "gamma_constraint": null, "freeze": true}, "inbound_nodes": [[["res3d_branch2a", 0, 0, {}]]]}, {"name": "res3d_branch2a_relu", "class_name": "Activation", "config": {"name": "res3d_branch2a_relu", "trainable": true, "activation": "relu"}, "inbound_nodes": [[["bn3d_branch2a", 0, 0, {}]]]}, {"name": "padding3d_branch2b", "class_name": "ZeroPadding2D", "config": {"name": "padding3d_branch2b", "trainable": true, "padding": [[1, 1], [1, 1]], "data_format": "channels_last"}, "inbound_nodes": [[["res3d_branch2a_relu", 0, 0, {}]]]}, {"name": "res3d_branch2b", "class_name": "Conv2D", "config": {"name": "res3d_branch2b", "trainable": true, "filters": 128, "kernel_size": [3, 3], "strides": [1, 1], "padding": "valid", "data_format": "channels_last", "dilation_rate": [1, 1], "activation": "linear", "use_bias": false, "kernel_initializer": {"class_name": "VarianceScaling", "config": {"scale": 2.0, "mode": "fan_in", "distribution": "normal", "seed": null}}, "bias_initializer": {"class_name": "Zeros", "config": {}}, "kernel_regularizer": null, "bias_regularizer": null, "activity_regularizer": null, "kernel_constraint": null, "bias_constraint": null}, "inbound_nodes": [[["padding3d_branch2b", 0, 0, {}]]]}, {"name": "bn3d_branch2b", "class_name": "BatchNormalization", "config": {"name": "bn3d_branch2b", "trainable": false, "axis": 3, "momentum": 0.99, "epsilon": 1e-05, "center": true, "scale": true, "beta_initializer": {"class_name": "Zeros", "config": {}}, "gamma_initializer": {"class_name": "Ones", "config": {}}, "moving_mean_initializer": {"class_name": "Zeros", "config": {}}, "moving_variance_initializer": {"class_name": "Ones", "config": {}}, "beta_regularizer": null, "gamma_regularizer": null, "beta_constraint": null, "gamma_constraint": null, "freeze": true}, "inbound_nodes": [[["res3d_branch2b", 0, 0, {}]]]}, {"name": "res3d_branch2b_relu", "class_name": "Activation", "config": {"name": "res3d_branch2b_relu", "trainable": true, "activation": "relu"}, "inbound_nodes": [[["bn3d_branch2b", 0, 0, {}]]]}, {"name": "res3d_branch2c", "class_name": "Conv2D", "config": {"name": "res3d_branch2c", "trainable": true, "filters": 512, "kernel_size": [1, 1], "strides": [1, 1], "padding": "valid", "data_format": "channels_last", "dilation_rate": [1, 1], "activation": "linear", "use_bias": false, "kernel_initializer": {"class_name": "VarianceScaling", "config": {"scale": 2.0, "mode": "fan_in", "distribution": "normal", "seed": null}}, "bias_initializer": {"class_name": "Zeros", "config": {}}, "kernel_regularizer": null, "bias_regularizer": null, "activity_regularizer": null, "kernel_constraint": null, "bias_constraint": null}, "inbound_nodes": [[["res3d_branch2b_relu", 0, 0, {}]]]}, {"name": "bn3d_branch2c", "class_name": "BatchNormalization", "config": {"name": "bn3d_branch2c", "trainable": false, "axis": 3, "momentum": 0.99, "epsilon": 1e-05, "center": true, "scale": true, "beta_initializer": {"class_name": "Zeros", "config": {}}, "gamma_initializer": {"class_name": "Ones", "config": {}}, "moving_mean_initializer": {"class_name": "Zeros", "config": {}}, "moving_variance_initializer": {"class_name": "Ones", "config": {}}, "beta_regularizer": null, "gamma_regularizer": null, "beta_constraint": null, "gamma_constraint": null, "freeze": true}, "inbound_nodes": [[["res3d_branch2c", 0, 0, {}]]]}, {"name": "res3d", "class_name": "Add", "config": {"name": "res3d", "trainable": true}, "inbound_nodes": [[["bn3d_branch2c", 0, 0, {}], ["res3c_relu", 0, 0, {}]]]}, {"name": "res3d_relu", "class_name": "Activation", "config": {"name": "res3d_relu", "trainable": true, "activation": "relu"}, "inbound_nodes": [[["res3d", 0, 0, {}]]]}, {"name": "res4a_branch2a", "class_name": "Conv2D", "config": {"name": "res4a_branch2a", "trainable": true, "filters": 256, "kernel_size": [1, 1], "strides": [2, 2], "padding": "valid", "data_format": "channels_last", "dilation_rate": [1, 1], "activation": "linear", "use_bias": false, "kernel_initializer": {"class_name": "VarianceScaling", "config": {"scale": 2.0, "mode": "fan_in", "distribution": "normal", "seed": null}}, "bias_initializer": {"class_name": "Zeros", "config": {}}, "kernel_regularizer": null, "bias_regularizer": null, "activity_regularizer": null, "kernel_constraint": null, "bias_constraint": null}, "inbound_nodes": [[["res3d_relu", 0, 0, {}]]]}, {"name": "bn4a_branch2a", "class_name": "BatchNormalization", "config": {"name": "bn4a_branch2a", "trainable": false, "axis": 3, "momentum": 0.99, "epsilon": 1e-05, "center": true, "scale": true, "beta_initializer": {"class_name": "Zeros", "config": {}}, "gamma_initializer": {"class_name": "Ones", "config": {}}, "moving_mean_initializer": {"class_name": "Zeros", "config": {}}, "moving_variance_initializer": {"class_name": "Ones", "config": {}}, "beta_regularizer": null, "gamma_regularizer": null, "beta_constraint": null, "gamma_constraint": null, "freeze": true}, "inbound_nodes": [[["res4a_branch2a", 0, 0, {}]]]}, {"name": "res4a_branch2a_relu", "class_name": "Activation", "config": {"name": "res4a_branch2a_relu", "trainable": true, "activation": "relu"}, "inbound_nodes": [[["bn4a_branch2a", 0, 0, {}]]]}, {"name": "padding4a_branch2b", "class_name": "ZeroPadding2D", "config": {"name": "padding4a_branch2b", "trainable": true, "padding": [[1, 1], [1, 1]], "data_format": "channels_last"}, "inbound_nodes": [[["res4a_branch2a_relu", 0, 0, {}]]]}, {"name": "res4a_branch2b", "class_name": "Conv2D", "config": {"name": "res4a_branch2b", "trainable": true, "filters": 256, "kernel_size": [3, 3], "strides": [1, 1], "padding": "valid", "data_format": "channels_last", "dilation_rate": [1, 1], "activation": "linear", "use_bias": false, "kernel_initializer": {"class_name": "VarianceScaling", "config": {"scale": 2.0, "mode": "fan_in", "distribution": "normal", "seed": null}}, "bias_initializer": {"class_name": "Zeros", "config": {}}, "kernel_regularizer": null, "bias_regularizer": null, "activity_regularizer": null, "kernel_constraint": null, "bias_constraint": null}, "inbound_nodes": [[["padding4a_branch2b", 0, 0, {}]]]}, {"name": "bn4a_branch2b", "class_name": "BatchNormalization", "config": {"name": "bn4a_branch2b", "trainable": false, "axis": 3, "momentum": 0.99, "epsilon": 1e-05, "center": true, "scale": true, "beta_initializer": {"class_name": "Zeros", "config": {}}, "gamma_initializer": {"class_name": "Ones", "config": {}}, "moving_mean_initializer": {"class_name": "Zeros", "config": {}}, "moving_variance_initializer": {"class_name": "Ones", "config": {}}, "beta_regularizer": null, "gamma_regularizer": null, "beta_constraint": null, "gamma_constraint": null, "freeze": true}, "inbound_nodes": [[["res4a_branch2b", 0, 0, {}]]]}, {"name": "res4a_branch2b_relu", "class_name": "Activation", "config": {"name": "res4a_branch2b_relu", "trainable": true, "activation": "relu"}, "inbound_nodes": [[["bn4a_branch2b", 0, 0, {}]]]}, {"name": "res4a_branch2c", "class_name": "Conv2D", "config": {"name": "res4a_branch2c", "trainable": true, "filters": 1024, "kernel_size": [1, 1], "strides": [1, 1], "padding": "valid", "data_format": "channels_last", "dilation_rate": [1, 1], "activation": "linear", "use_bias": false, "kernel_initializer": {"class_name": "VarianceScaling", "config": {"scale": 2.0, "mode": "fan_in", "distribution": "normal", "seed": null}}, "bias_initializer": {"class_name": "Zeros", "config": {}}, "kernel_regularizer": null, "bias_regularizer": null, "activity_regularizer": null, "kernel_constraint": null, "bias_constraint": null}, "inbound_nodes": [[["res4a_branch2b_relu", 0, 0, {}]]]}, {"name": "res4a_branch1", "class_name": "Conv2D", "config": {"name": "res4a_branch1", "trainable": true, "filters": 1024, "kernel_size": [1, 1], "strides": [2, 2], "padding": "valid", "data_format": "channels_last", "dilation_rate": [1, 1], "activation": "linear", "use_bias": false, "kernel_initializer": {"class_name": "VarianceScaling", "config": {"scale": 2.0, "mode": "fan_in", "distribution": "normal", "seed": null}}, "bias_initializer": {"class_name": "Zeros", "config": {}}, "kernel_regularizer": null, "bias_regularizer": null, "activity_regularizer": null, "kernel_constraint": null, "bias_constraint": null}, "inbound_nodes": [[["res3d_relu", 0, 0, {}]]]}, {"name": "bn4a_branch2c", "class_name": "BatchNormalization", "config": {"name": "bn4a_branch2c", "trainable": false, "axis": 3, "momentum": 0.99, "epsilon": 1e-05, "center": true, "scale": true, "beta_initializer": {"class_name": "Zeros", "config": {}}, "gamma_initializer": {"class_name": "Ones", "config": {}}, "moving_mean_initializer": {"class_name": "Zeros", "config": {}}, "moving_variance_initializer": {"class_name": "Ones", "config": {}}, "beta_regularizer": null, "gamma_regularizer": null, "beta_constraint": null, "gamma_constraint": null, "freeze": true}, "inbound_nodes": [[["res4a_branch2c", 0, 0, {}]]]}, {"name": "bn4a_branch1", "class_name": "BatchNormalization", "config": {"name": "bn4a_branch1", "trainable": false, "axis": 3, "momentum": 0.99, "epsilon": 1e-05, "center": true, "scale": true, "beta_initializer": {"class_name": "Zeros", "config": {}}, "gamma_initializer": {"class_name": "Ones", "config": {}}, "moving_mean_initializer": {"class_name": "Zeros", "config": {}}, "moving_variance_initializer": {"class_name": "Ones", "config": {}}, "beta_regularizer": null, "gamma_regularizer": null, "beta_constraint": null, "gamma_constraint": null, "freeze": true}, "inbound_nodes": [[["res4a_branch1", 0, 0, {}]]]}, {"name": "res4a", "class_name": "Add", "config": {"name": "res4a", "trainable": true}, "inbound_nodes": [[["bn4a_branch2c", 0, 0, {}], ["bn4a_branch1", 0, 0, {}]]]}, {"name": "res4a_relu", "class_name": "Activation", "config": {"name": "res4a_relu", "trainable": true, "activation": "relu"}, "inbound_nodes": [[["res4a", 0, 0, {}]]]}, {"name": "res4b_branch2a", "class_name": "Conv2D", "config": {"name": "res4b_branch2a", "trainable": true, "filters": 256, "kernel_size": [1, 1], "strides": [1, 1], "padding": "valid", "data_format": "channels_last", "dilation_rate": [1, 1], "activation": "linear", "use_bias": false, "kernel_initializer": {"class_name": "VarianceScaling", "config": {"scale": 2.0, "mode": "fan_in", "distribution": "normal", "seed": null}}, "bias_initializer": {"class_name": "Zeros", "config": {}}, "kernel_regularizer": null, "bias_regularizer": null, "activity_regularizer": null, "kernel_constraint": null, "bias_constraint": null}, "inbound_nodes": [[["res4a_relu", 0, 0, {}]]]}, {"name": "bn4b_branch2a", "class_name": "BatchNormalization", "config": {"name": "bn4b_branch2a", "trainable": false, "axis": 3, "momentum": 0.99, "epsilon": 1e-05, "center": true, "scale": true, "beta_initializer": {"class_name": "Zeros", "config": {}}, "gamma_initializer": {"class_name": "Ones", "config": {}}, "moving_mean_initializer": {"class_name": "Zeros", "config": {}}, "moving_variance_initializer": {"class_name": "Ones", "config": {}}, "beta_regularizer": null, "gamma_regularizer": null, "beta_constraint": null, "gamma_constraint": null, "freeze": true}, "inbound_nodes": [[["res4b_branch2a", 0, 0, {}]]]}, {"name": "res4b_branch2a_relu", "class_name": "Activation", "config": {"name": "res4b_branch2a_relu", "trainable": true, "activation": "relu"}, "inbound_nodes": [[["bn4b_branch2a", 0, 0, {}]]]}, {"name": "padding4b_branch2b", "class_name": "ZeroPadding2D", "config": {"name": "padding4b_branch2b", "trainable": true, "padding": [[1, 1], [1, 1]], "data_format": "channels_last"}, "inbound_nodes": [[["res4b_branch2a_relu", 0, 0, {}]]]}, {"name": "res4b_branch2b", "class_name": "Conv2D", "config": {"name": "res4b_branch2b", "trainable": true, "filters": 256, "kernel_size": [3, 3], "strides": [1, 1], "padding": "valid", "data_format": "channels_last", "dilation_rate": [1, 1], "activation": "linear", "use_bias": false, "kernel_initializer": {"class_name": "VarianceScaling", "config": {"scale": 2.0, "mode": "fan_in", "distribution": "normal", "seed": null}}, "bias_initializer": {"class_name": "Zeros", "config": {}}, "kernel_regularizer": null, "bias_regularizer": null, "activity_regularizer": null, "kernel_constraint": null, "bias_constraint": null}, "inbound_nodes": [[["padding4b_branch2b", 0, 0, {}]]]}, {"name": "bn4b_branch2b", "class_name": "BatchNormalization", "config": {"name": "bn4b_branch2b", "trainable": false, "axis": 3, "momentum": 0.99, "epsilon": 1e-05, "center": true, "scale": true, "beta_initializer": {"class_name": "Zeros", "config": {}}, "gamma_initializer": {"class_name": "Ones", "config": {}}, "moving_mean_initializer": {"class_name": "Zeros", "config": {}}, "moving_variance_initializer": {"class_name": "Ones", "config": {}}, "beta_regularizer": null, "gamma_regularizer": null, "beta_constraint": null, "gamma_constraint": null, "freeze": true}, "inbound_nodes": [[["res4b_branch2b", 0, 0, {}]]]}, {"name": "res4b_branch2b_relu", "class_name": "Activation", "config": {"name": "res4b_branch2b_relu", "trainable": true, "activation": "relu"}, "inbound_nodes": [[["bn4b_branch2b", 0, 0, {}]]]}, {"name": "res4b_branch2c", "class_name": "Conv2D", "config": {"name": "res4b_branch2c", "trainable": true, "filters": 1024, "kernel_size": [1, 1], "strides": [1, 1], "padding": "valid", "data_format": "channels_last", "dilation_rate": [1, 1], "activation": "linear", "use_bias": false, "kernel_initializer": {"class_name": "VarianceScaling", "config": {"scale": 2.0, "mode": "fan_in", "distribution": "normal", "seed": null}}, "bias_initializer": {"class_name": "Zeros", "config": {}}, "kernel_regularizer": null, "bias_regularizer": null, "activity_regularizer": null, "kernel_constraint": null, "bias_constraint": null}, "inbound_nodes": [[["res4b_branch2b_relu", 0, 0, {}]]]}, {"name": "bn4b_branch2c", "class_name": "BatchNormalization", "config": {"name": "bn4b_branch2c", "trainable": false, "axis": 3, "momentum": 0.99, "epsilon": 1e-05, "center": true, "scale": true, "beta_initializer": {"class_name": "Zeros", "config": {}}, "gamma_initializer": {"class_name": "Ones", "config": {}}, "moving_mean_initializer": {"class_name": "Zeros", "config": {}}, "moving_variance_initializer": {"class_name": "Ones", "config": {}}, "beta_regularizer": null, "gamma_regularizer": null, "beta_constraint": null, "gamma_constraint": null, "freeze": true}, "inbound_nodes": [[["res4b_branch2c", 0, 0, {}]]]}, {"name": "res4b", "class_name": "Add", "config": {"name": "res4b", "trainable": true}, "inbound_nodes": [[["bn4b_branch2c", 0, 0, {}], ["res4a_relu", 0, 0, {}]]]}, {"name": "res4b_relu", "class_name": "Activation", "config": {"name": "res4b_relu", "trainable": true, "activation": "relu"}, "inbound_nodes": [[["res4b", 0, 0, {}]]]}, {"name": "res4c_branch2a", "class_name": "Conv2D", "config": {"name": "res4c_branch2a", "trainable": true, "filters": 256, "kernel_size": [1, 1], "strides": [1, 1], "padding": "valid", "data_format": "channels_last", "dilation_rate": [1, 1], "activation": "linear", "use_bias": false, "kernel_initializer": {"class_name": "VarianceScaling", "config": {"scale": 2.0, "mode": "fan_in", "distribution": "normal", "seed": null}}, "bias_initializer": {"class_name": "Zeros", "config": {}}, "kernel_regularizer": null, "bias_regularizer": null, "activity_regularizer": null, "kernel_constraint": null, "bias_constraint": null}, "inbound_nodes": [[["res4b_relu", 0, 0, {}]]]}, {"name": "bn4c_branch2a", "class_name": "BatchNormalization", "config": {"name": "bn4c_branch2a", "trainable": false, "axis": 3, "momentum": 0.99, "epsilon": 1e-05, "center": true, "scale": true, "beta_initializer": {"class_name": "Zeros", "config": {}}, "gamma_initializer": {"class_name": "Ones", "config": {}}, "moving_mean_initializer": {"class_name": "Zeros", "config": {}}, "moving_variance_initializer": {"class_name": "Ones", "config": {}}, "beta_regularizer": null, "gamma_regularizer": null, "beta_constraint": null, "gamma_constraint": null, "freeze": true}, "inbound_nodes": [[["res4c_branch2a", 0, 0, {}]]]}, {"name": "res4c_branch2a_relu", "class_name": "Activation", "config": {"name": "res4c_branch2a_relu", "trainable": true, "activation": "relu"}, "inbound_nodes": [[["bn4c_branch2a", 0, 0, {}]]]}, {"name": "padding4c_branch2b", "class_name": "ZeroPadding2D", "config": {"name": "padding4c_branch2b", "trainable": true, "padding": [[1, 1], [1, 1]], "data_format": "channels_last"}, "inbound_nodes": [[["res4c_branch2a_relu", 0, 0, {}]]]}, {"name": "res4c_branch2b", "class_name": "Conv2D", "config": {"name": "res4c_branch2b", "trainable": true, "filters": 256, "kernel_size": [3, 3], "strides": [1, 1], "padding": "valid", "data_format": "channels_last", "dilation_rate": [1, 1], "activation": "linear", "use_bias": false, "kernel_initializer": {"class_name": "VarianceScaling", "config": {"scale": 2.0, "mode": "fan_in", "distribution": "normal", "seed": null}}, "bias_initializer": {"class_name": "Zeros", "config": {}}, "kernel_regularizer": null, "bias_regularizer": null, "activity_regularizer": null, "kernel_constraint": null, "bias_constraint": null}, "inbound_nodes": [[["padding4c_branch2b", 0, 0, {}]]]}, {"name": "bn4c_branch2b", "class_name": "BatchNormalization", "config": {"name": "bn4c_branch2b", "trainable": false, "axis": 3, "momentum": 0.99, "epsilon": 1e-05, "center": true, "scale": true, "beta_initializer": {"class_name": "Zeros", "config": {}}, "gamma_initializer": {"class_name": "Ones", "config": {}}, "moving_mean_initializer": {"class_name": "Zeros", "config": {}}, "moving_variance_initializer": {"class_name": "Ones", "config": {}}, "beta_regularizer": null, "gamma_regularizer": null, "beta_constraint": null, "gamma_constraint": null, "freeze": true}, "inbound_nodes": [[["res4c_branch2b", 0, 0, {}]]]}, {"name": "res4c_branch2b_relu", "class_name": "Activation", "config": {"name": "res4c_branch2b_relu", "trainable": true, "activation": "relu"}, "inbound_nodes": [[["bn4c_branch2b", 0, 0, {}]]]}, {"name": "res4c_branch2c", "class_name": "Conv2D", "config": {"name": "res4c_branch2c", "trainable": true, "filters": 1024, "kernel_size": [1, 1], "strides": [1, 1], "padding": "valid", "data_format": "channels_last", "dilation_rate": [1, 1], "activation": "linear", "use_bias": false, "kernel_initializer": {"class_name": "VarianceScaling", "config": {"scale": 2.0, "mode": "fan_in", "distribution": "normal", "seed": null}}, "bias_initializer": {"class_name": "Zeros", "config": {}}, "kernel_regularizer": null, "bias_regularizer": null, "activity_regularizer": null, "kernel_constraint": null, "bias_constraint": null}, "inbound_nodes": [[["res4c_branch2b_relu", 0, 0, {}]]]}, {"name": "bn4c_branch2c", "class_name": "BatchNormalization", "config": {"name": "bn4c_branch2c", "trainable": false, "axis": 3, "momentum": 0.99, "epsilon": 1e-05, "center": true, "scale": true, "beta_initializer": {"class_name": "Zeros", "config": {}}, "gamma_initializer": {"class_name": "Ones", "config": {}}, "moving_mean_initializer": {"class_name": "Zeros", "config": {}}, "moving_variance_initializer": {"class_name": "Ones", "config": {}}, "beta_regularizer": null, "gamma_regularizer": null, "beta_constraint": null, "gamma_constraint": null, "freeze": true}, "inbound_nodes": [[["res4c_branch2c", 0, 0, {}]]]}, {"name": "res4c", "class_name": "Add", "config": {"name": "res4c", "trainable": true}, "inbound_nodes": [[["bn4c_branch2c", 0, 0, {}], ["res4b_relu", 0, 0, {}]]]}, {"name": "res4c_relu", "class_name": "Activation", "config": {"name": "res4c_relu", "trainable": true, "activation": "relu"}, "inbound_nodes": [[["res4c", 0, 0, {}]]]}, {"name": "res4d_branch2a", "class_name": "Conv2D", "config": {"name": "res4d_branch2a", "trainable": true, "filters": 256, "kernel_size": [1, 1], "strides": [1, 1], "padding": "valid", "data_format": "channels_last", "dilation_rate": [1, 1], "activation": "linear", "use_bias": false, "kernel_initializer": {"class_name": "VarianceScaling", "config": {"scale": 2.0, "mode": "fan_in", "distribution": "normal", "seed": null}}, "bias_initializer": {"class_name": "Zeros", "config": {}}, "kernel_regularizer": null, "bias_regularizer": null, "activity_regularizer": null, "kernel_constraint": null, "bias_constraint": null}, "inbound_nodes": [[["res4c_relu", 0, 0, {}]]]}, {"name": "bn4d_branch2a", "class_name": "BatchNormalization", "config": {"name": "bn4d_branch2a", "trainable": false, "axis": 3, "momentum": 0.99, "epsilon": 1e-05, "center": true, "scale": true, "beta_initializer": {"class_name": "Zeros", "config": {}}, "gamma_initializer": {"class_name": "Ones", "config": {}}, "moving_mean_initializer": {"class_name": "Zeros", "config": {}}, "moving_variance_initializer": {"class_name": "Ones", "config": {}}, "beta_regularizer": null, "gamma_regularizer": null, "beta_constraint": null, "gamma_constraint": null, "freeze": true}, "inbound_nodes": [[["res4d_branch2a", 0, 0, {}]]]}, {"name": "res4d_branch2a_relu", "class_name": "Activation", "config": {"name": "res4d_branch2a_relu", "trainable": true, "activation": "relu"}, "inbound_nodes": [[["bn4d_branch2a", 0, 0, {}]]]}, {"name": "padding4d_branch2b", "class_name": "ZeroPadding2D", "config": {"name": "padding4d_branch2b", "trainable": true, "padding": [[1, 1], [1, 1]], "data_format": "channels_last"}, "inbound_nodes": [[["res4d_branch2a_relu", 0, 0, {}]]]}, {"name": "res4d_branch2b", "class_name": "Conv2D", "config": {"name": "res4d_branch2b", "trainable": true, "filters": 256, "kernel_size": [3, 3], "strides": [1, 1], "padding": "valid", "data_format": "channels_last", "dilation_rate": [1, 1], "activation": "linear", "use_bias": false, "kernel_initializer": {"class_name": "VarianceScaling", "config": {"scale": 2.0, "mode": "fan_in", "distribution": "normal", "seed": null}}, "bias_initializer": {"class_name": "Zeros", "config": {}}, "kernel_regularizer": null, "bias_regularizer": null, "activity_regularizer": null, "kernel_constraint": null, "bias_constraint": null}, "inbound_nodes": [[["padding4d_branch2b", 0, 0, {}]]]}, {"name": "bn4d_branch2b", "class_name": "BatchNormalization", "config": {"name": "bn4d_branch2b", "trainable": false, "axis": 3, "momentum": 0.99, "epsilon": 1e-05, "center": true, "scale": true, "beta_initializer": {"class_name": "Zeros", "config": {}}, "gamma_initializer": {"class_name": "Ones", "config": {}}, "moving_mean_initializer": {"class_name": "Zeros", "config": {}}, "moving_variance_initializer": {"class_name": "Ones", "config": {}}, "beta_regularizer": null, "gamma_regularizer": null, "beta_constraint": null, "gamma_constraint": null, "freeze": true}, "inbound_nodes": [[["res4d_branch2b", 0, 0, {}]]]}, {"name": "res4d_branch2b_relu", "class_name": "Activation", "config": {"name": "res4d_branch2b_relu", "trainable": true, "activation": "relu"}, "inbound_nodes": [[["bn4d_branch2b", 0, 0, {}]]]}, {"name": "res4d_branch2c", "class_name": "Conv2D", "config": {"name": "res4d_branch2c", "trainable": true, "filters": 1024, "kernel_size": [1, 1], "strides": [1, 1], "padding": "valid", "data_format": "channels_last", "dilation_rate": [1, 1], "activation": "linear", "use_bias": false, "kernel_initializer": {"class_name": "VarianceScaling", "config": {"scale": 2.0, "mode": "fan_in", "distribution": "normal", "seed": null}}, "bias_initializer": {"class_name": "Zeros", "config": {}}, "kernel_regularizer": null, "bias_regularizer": null, "activity_regularizer": null, "kernel_constraint": null, "bias_constraint": null}, "inbound_nodes": [[["res4d_branch2b_relu", 0, 0, {}]]]}, {"name": "bn4d_branch2c", "class_name": "BatchNormalization", "config": {"name": "bn4d_branch2c", "trainable": false, "axis": 3, "momentum": 0.99, "epsilon": 1e-05, "center": true, "scale": true, "beta_initializer": {"class_name": "Zeros", "config": {}}, "gamma_initializer": {"class_name": "Ones", "config": {}}, "moving_mean_initializer": {"class_name": "Zeros", "config": {}}, "moving_variance_initializer": {"class_name": "Ones", "config": {}}, "beta_regularizer": null, "gamma_regularizer": null, "beta_constraint": null, "gamma_constraint": null, "freeze": true}, "inbound_nodes": [[["res4d_branch2c", 0, 0, {}]]]}, {"name": "res4d", "class_name": "Add", "config": {"name": "res4d", "trainable": true}, "inbound_nodes": [[["bn4d_branch2c", 0, 0, {}], ["res4c_relu", 0, 0, {}]]]}, {"name": "res4d_relu", "class_name": "Activation", "config": {"name": "res4d_relu", "trainable": true, "activation": "relu"}, "inbound_nodes": [[["res4d", 0, 0, {}]]]}, {"name": "res4e_branch2a", "class_name": "Conv2D", "config": {"name": "res4e_branch2a", "trainable": true, "filters": 256, "kernel_size": [1, 1], "strides": [1, 1], "padding": "valid", "data_format": "channels_last", "dilation_rate": [1, 1], "activation": "linear", "use_bias": false, "kernel_initializer": {"class_name": "VarianceScaling", "config": {"scale": 2.0, "mode": "fan_in", "distribution": "normal", "seed": null}}, "bias_initializer": {"class_name": "Zeros", "config": {}}, "kernel_regularizer": null, "bias_regularizer": null, "activity_regularizer": null, "kernel_constraint": null, "bias_constraint": null}, "inbound_nodes": [[["res4d_relu", 0, 0, {}]]]}, {"name": "bn4e_branch2a", "class_name": "BatchNormalization", "config": {"name": "bn4e_branch2a", "trainable": false, "axis": 3, "momentum": 0.99, "epsilon": 1e-05, "center": true, "scale": true, "beta_initializer": {"class_name": "Zeros", "config": {}}, "gamma_initializer": {"class_name": "Ones", "config": {}}, "moving_mean_initializer": {"class_name": "Zeros", "config": {}}, "moving_variance_initializer": {"class_name": "Ones", "config": {}}, "beta_regularizer": null, "gamma_regularizer": null, "beta_constraint": null, "gamma_constraint": null, "freeze": true}, "inbound_nodes": [[["res4e_branch2a", 0, 0, {}]]]}, {"name": "res4e_branch2a_relu", "class_name": "Activation", "config": {"name": "res4e_branch2a_relu", "trainable": true, "activation": "relu"}, "inbound_nodes": [[["bn4e_branch2a", 0, 0, {}]]]}, {"name": "padding4e_branch2b", "class_name": "ZeroPadding2D", "config": {"name": "padding4e_branch2b", "trainable": true, "padding": [[1, 1], [1, 1]], "data_format": "channels_last"}, "inbound_nodes": [[["res4e_branch2a_relu", 0, 0, {}]]]}, {"name": "res4e_branch2b", "class_name": "Conv2D", "config": {"name": "res4e_branch2b", "trainable": true, "filters": 256, "kernel_size": [3, 3], "strides": [1, 1], "padding": "valid", "data_format": "channels_last", "dilation_rate": [1, 1], "activation": "linear", "use_bias": false, "kernel_initializer": {"class_name": "VarianceScaling", "config": {"scale": 2.0, "mode": "fan_in", "distribution": "normal", "seed": null}}, "bias_initializer": {"class_name": "Zeros", "config": {}}, "kernel_regularizer": null, "bias_regularizer": null, "activity_regularizer": null, "kernel_constraint": null, "bias_constraint": null}, "inbound_nodes": [[["padding4e_branch2b", 0, 0, {}]]]}, {"name": "bn4e_branch2b", "class_name": "BatchNormalization", "config": {"name": "bn4e_branch2b", "trainable": false, "axis": 3, "momentum": 0.99, "epsilon": 1e-05, "center": true, "scale": true, "beta_initializer": {"class_name": "Zeros", "config": {}}, "gamma_initializer": {"class_name": "Ones", "config": {}}, "moving_mean_initializer": {"class_name": "Zeros", "config": {}}, "moving_variance_initializer": {"class_name": "Ones", "config": {}}, "beta_regularizer": null, "gamma_regularizer": null, "beta_constraint": null, "gamma_constraint": null, "freeze": true}, "inbound_nodes": [[["res4e_branch2b", 0, 0, {}]]]}, {"name": "res4e_branch2b_relu", "class_name": "Activation", "config": {"name": "res4e_branch2b_relu", "trainable": true, "activation": "relu"}, "inbound_nodes": [[["bn4e_branch2b", 0, 0, {}]]]}, {"name": "res4e_branch2c", "class_name": "Conv2D", "config": {"name": "res4e_branch2c", "trainable": true, "filters": 1024, "kernel_size": [1, 1], "strides": [1, 1], "padding": "valid", "data_format": "channels_last", "dilation_rate": [1, 1], "activation": "linear", "use_bias": false, "kernel_initializer": {"class_name": "VarianceScaling", "config": {"scale": 2.0, "mode": "fan_in", "distribution": "normal", "seed": null}}, "bias_initializer": {"class_name": "Zeros", "config": {}}, "kernel_regularizer": null, "bias_regularizer": null, "activity_regularizer": null, "kernel_constraint": null, "bias_constraint": null}, "inbound_nodes": [[["res4e_branch2b_relu", 0, 0, {}]]]}, {"name": "bn4e_branch2c", "class_name": "BatchNormalization", "config": {"name": "bn4e_branch2c", "trainable": false, "axis": 3, "momentum": 0.99, "epsilon": 1e-05, "center": true, "scale": true, "beta_initializer": {"class_name": "Zeros", "config": {}}, "gamma_initializer": {"class_name": "Ones", "config": {}}, "moving_mean_initializer": {"class_name": "Zeros", "config": {}}, "moving_variance_initializer": {"class_name": "Ones", "config": {}}, "beta_regularizer": null, "gamma_regularizer": null, "beta_constraint": null, "gamma_constraint": null, "freeze": true}, "inbound_nodes": [[["res4e_branch2c", 0, 0, {}]]]}, {"name": "res4e", "class_name": "Add", "config": {"name": "res4e", "trainable": true}, "inbound_nodes": [[["bn4e_branch2c", 0, 0, {}], ["res4d_relu", 0, 0, {}]]]}, {"name": "res4e_relu", "class_name": "Activation", "config": {"name": "res4e_relu", "trainable": true, "activation": "relu"}, "inbound_nodes": [[["res4e", 0, 0, {}]]]}, {"name": "res4f_branch2a", "class_name": "Conv2D", "config": {"name": "res4f_branch2a", "trainable": true, "filters": 256, "kernel_size": [1, 1], "strides": [1, 1], "padding": "valid", "data_format": "channels_last", "dilation_rate": [1, 1], "activation": "linear", "use_bias": false, "kernel_initializer": {"class_name": "VarianceScaling", "config": {"scale": 2.0, "mode": "fan_in", "distribution": "normal", "seed": null}}, "bias_initializer": {"class_name": "Zeros", "config": {}}, "kernel_regularizer": null, "bias_regularizer": null, "activity_regularizer": null, "kernel_constraint": null, "bias_constraint": null}, "inbound_nodes": [[["res4e_relu", 0, 0, {}]]]}, {"name": "bn4f_branch2a", "class_name": "BatchNormalization", "config": {"name": "bn4f_branch2a", "trainable": false, "axis": 3, "momentum": 0.99, "epsilon": 1e-05, "center": true, "scale": true, "beta_initializer": {"class_name": "Zeros", "config": {}}, "gamma_initializer": {"class_name": "Ones", "config": {}}, "moving_mean_initializer": {"class_name": "Zeros", "config": {}}, "moving_variance_initializer": {"class_name": "Ones", "config": {}}, "beta_regularizer": null, "gamma_regularizer": null, "beta_constraint": null, "gamma_constraint": null, "freeze": true}, "inbound_nodes": [[["res4f_branch2a", 0, 0, {}]]]}, {"name": "res4f_branch2a_relu", "class_name": "Activation", "config": {"name": "res4f_branch2a_relu", "trainable": true, "activation": "relu"}, "inbound_nodes": [[["bn4f_branch2a", 0, 0, {}]]]}, {"name": "padding4f_branch2b", "class_name": "ZeroPadding2D", "config": {"name": "padding4f_branch2b", "trainable": true, "padding": [[1, 1], [1, 1]], "data_format": "channels_last"}, "inbound_nodes": [[["res4f_branch2a_relu", 0, 0, {}]]]}, {"name": "res4f_branch2b", "class_name": "Conv2D", "config": {"name": "res4f_branch2b", "trainable": true, "filters": 256, "kernel_size": [3, 3], "strides": [1, 1], "padding": "valid", "data_format": "channels_last", "dilation_rate": [1, 1], "activation": "linear", "use_bias": false, "kernel_initializer": {"class_name": "VarianceScaling", "config": {"scale": 2.0, "mode": "fan_in", "distribution": "normal", "seed": null}}, "bias_initializer": {"class_name": "Zeros", "config": {}}, "kernel_regularizer": null, "bias_regularizer": null, "activity_regularizer": null, "kernel_constraint": null, "bias_constraint": null}, "inbound_nodes": [[["padding4f_branch2b", 0, 0, {}]]]}, {"name": "bn4f_branch2b", "class_name": "BatchNormalization", "config": {"name": "bn4f_branch2b", "trainable": false, "axis": 3, "momentum": 0.99, "epsilon": 1e-05, "center": true, "scale": true, "beta_initializer": {"class_name": "Zeros", "config": {}}, "gamma_initializer": {"class_name": "Ones", "config": {}}, "moving_mean_initializer": {"class_name": "Zeros", "config": {}}, "moving_variance_initializer": {"class_name": "Ones", "config": {}}, "beta_regularizer": null, "gamma_regularizer": null, "beta_constraint": null, "gamma_constraint": null, "freeze": true}, "inbound_nodes": [[["res4f_branch2b", 0, 0, {}]]]}, {"name": "res4f_branch2b_relu", "class_name": "Activation", "config": {"name": "res4f_branch2b_relu", "trainable": true, "activation": "relu"}, "inbound_nodes": [[["bn4f_branch2b", 0, 0, {}]]]}, {"name": "res4f_branch2c", "class_name": "Conv2D", "config": {"name": "res4f_branch2c", "trainable": true, "filters": 1024, "kernel_size": [1, 1], "strides": [1, 1], "padding": "valid", "data_format": "channels_last", "dilation_rate": [1, 1], "activation": "linear", "use_bias": false, "kernel_initializer": {"class_name": "VarianceScaling", "config": {"scale": 2.0, "mode": "fan_in", "distribution": "normal", "seed": null}}, "bias_initializer": {"class_name": "Zeros", "config": {}}, "kernel_regularizer": null, "bias_regularizer": null, "activity_regularizer": null, "kernel_constraint": null, "bias_constraint": null}, "inbound_nodes": [[["res4f_branch2b_relu", 0, 0, {}]]]}, {"name": "bn4f_branch2c", "class_name": "BatchNormalization", "config": {"name": "bn4f_branch2c", "trainable": false, "axis": 3, "momentum": 0.99, "epsilon": 1e-05, "center": true, "scale": true, "beta_initializer": {"class_name": "Zeros", "config": {}}, "gamma_initializer": {"class_name": "Ones", "config": {}}, "moving_mean_initializer": {"class_name": "Zeros", "config": {}}, "moving_variance_initializer": {"class_name": "Ones", "config": {}}, "beta_regularizer": null, "gamma_regularizer": null, "beta_constraint": null, "gamma_constraint": null, "freeze": true}, "inbound_nodes": [[["res4f_branch2c", 0, 0, {}]]]}, {"name": "res4f", "class_name": "Add", "config": {"name": "res4f", "trainable": true}, "inbound_nodes": [[["bn4f_branch2c", 0, 0, {}], ["res4e_relu", 0, 0, {}]]]}, {"name": "res4f_relu", "class_name": "Activation", "config": {"name": "res4f_relu", "trainable": true, "activation": "relu"}, "inbound_nodes": [[["res4f", 0, 0, {}]]]}, {"name": "res5a_branch2a", "class_name": "Conv2D", "config": {"name": "res5a_branch2a", "trainable": true, "filters": 512, "kernel_size": [1, 1], "strides": [2, 2], "padding": "valid", "data_format": "channels_last", "dilation_rate": [1, 1], "activation": "linear", "use_bias": false, "kernel_initializer": {"class_name": "VarianceScaling", "config": {"scale": 2.0, "mode": "fan_in", "distribution": "normal", "seed": null}}, "bias_initializer": {"class_name": "Zeros", "config": {}}, "kernel_regularizer": null, "bias_regularizer": null, "activity_regularizer": null, "kernel_constraint": null, "bias_constraint": null}, "inbound_nodes": [[["res4f_relu", 0, 0, {}]]]}, {"name": "bn5a_branch2a", "class_name": "BatchNormalization", "config": {"name": "bn5a_branch2a", "trainable": false, "axis": 3, "momentum": 0.99, "epsilon": 1e-05, "center": true, "scale": true, "beta_initializer": {"class_name": "Zeros", "config": {}}, "gamma_initializer": {"class_name": "Ones", "config": {}}, "moving_mean_initializer": {"class_name": "Zeros", "config": {}}, "moving_variance_initializer": {"class_name": "Ones", "config": {}}, "beta_regularizer": null, "gamma_regularizer": null, "beta_constraint": null, "gamma_constraint": null, "freeze": true}, "inbound_nodes": [[["res5a_branch2a", 0, 0, {}]]]}, {"name": "res5a_branch2a_relu", "class_name": "Activation", "config": {"name": "res5a_branch2a_relu", "trainable": true, "activation": "relu"}, "inbound_nodes": [[["bn5a_branch2a", 0, 0, {}]]]}, {"name": "padding5a_branch2b", "class_name": "ZeroPadding2D", "config": {"name": "padding5a_branch2b", "trainable": true, "padding": [[1, 1], [1, 1]], "data_format": "channels_last"}, "inbound_nodes": [[["res5a_branch2a_relu", 0, 0, {}]]]}, {"name": "res5a_branch2b", "class_name": "Conv2D", "config": {"name": "res5a_branch2b", "trainable": true, "filters": 512, "kernel_size": [3, 3], "strides": [1, 1], "padding": "valid", "data_format": "channels_last", "dilation_rate": [1, 1], "activation": "linear", "use_bias": false, "kernel_initializer": {"class_name": "VarianceScaling", "config": {"scale": 2.0, "mode": "fan_in", "distribution": "normal", "seed": null}}, "bias_initializer": {"class_name": "Zeros", "config": {}}, "kernel_regularizer": null, "bias_regularizer": null, "activity_regularizer": null, "kernel_constraint": null, "bias_constraint": null}, "inbound_nodes": [[["padding5a_branch2b", 0, 0, {}]]]}, {"name": "bn5a_branch2b", "class_name": "BatchNormalization", "config": {"name": "bn5a_branch2b", "trainable": false, "axis": 3, "momentum": 0.99, "epsilon": 1e-05, "center": true, "scale": true, "beta_initializer": {"class_name": "Zeros", "config": {}}, "gamma_initializer": {"class_name": "Ones", "config": {}}, "moving_mean_initializer": {"class_name": "Zeros", "config": {}}, "moving_variance_initializer": {"class_name": "Ones", "config": {}}, "beta_regularizer": null, "gamma_regularizer": null, "beta_constraint": null, "gamma_constraint": null, "freeze": true}, "inbound_nodes": [[["res5a_branch2b", 0, 0, {}]]]}, {"name": "res5a_branch2b_relu", "class_name": "Activation", "config": {"name": "res5a_branch2b_relu", "trainable": true, "activation": "relu"}, "inbound_nodes": [[["bn5a_branch2b", 0, 0, {}]]]}, {"name": "res5a_branch2c", "class_name": "Conv2D", "config": {"name": "res5a_branch2c", "trainable": true, "filters": 2048, "kernel_size": [1, 1], "strides": [1, 1], "padding": "valid", "data_format": "channels_last", "dilation_rate": [1, 1], "activation": "linear", "use_bias": false, "kernel_initializer": {"class_name": "VarianceScaling", "config": {"scale": 2.0, "mode": "fan_in", "distribution": "normal", "seed": null}}, "bias_initializer": {"class_name": "Zeros", "config": {}}, "kernel_regularizer": null, "bias_regularizer": null, "activity_regularizer": null, "kernel_constraint": null, "bias_constraint": null}, "inbound_nodes": [[["res5a_branch2b_relu", 0, 0, {}]]]}, {"name": "res5a_branch1", "class_name": "Conv2D", "config": {"name": "res5a_branch1", "trainable": true, "filters": 2048, "kernel_size": [1, 1], "strides": [2, 2], "padding": "valid", "data_format": "channels_last", "dilation_rate": [1, 1], "activation": "linear", "use_bias": false, "kernel_initializer": {"class_name": "VarianceScaling", "config": {"scale": 2.0, "mode": "fan_in", "distribution": "normal", "seed": null}}, "bias_initializer": {"class_name": "Zeros", "config": {}}, "kernel_regularizer": null, "bias_regularizer": null, "activity_regularizer": null, "kernel_constraint": null, "bias_constraint": null}, "inbound_nodes": [[["res4f_relu", 0, 0, {}]]]}, {"name": "bn5a_branch2c", "class_name": "BatchNormalization", "config": {"name": "bn5a_branch2c", "trainable": false, "axis": 3, "momentum": 0.99, "epsilon": 1e-05, "center": true, "scale": true, "beta_initializer": {"class_name": "Zeros", "config": {}}, "gamma_initializer": {"class_name": "Ones", "config": {}}, "moving_mean_initializer": {"class_name": "Zeros", "config": {}}, "moving_variance_initializer": {"class_name": "Ones", "config": {}}, "beta_regularizer": null, "gamma_regularizer": null, "beta_constraint": null, "gamma_constraint": null, "freeze": true}, "inbound_nodes": [[["res5a_branch2c", 0, 0, {}]]]}, {"name": "bn5a_branch1", "class_name": "BatchNormalization", "config": {"name": "bn5a_branch1", "trainable": false, "axis": 3, "momentum": 0.99, "epsilon": 1e-05, "center": true, "scale": true, "beta_initializer": {"class_name": "Zeros", "config": {}}, "gamma_initializer": {"class_name": "Ones", "config": {}}, "moving_mean_initializer": {"class_name": "Zeros", "config": {}}, "moving_variance_initializer": {"class_name": "Ones", "config": {}}, "beta_regularizer": null, "gamma_regularizer": null, "beta_constraint": null, "gamma_constraint": null, "freeze": true}, "inbound_nodes": [[["res5a_branch1", 0, 0, {}]]]}, {"name": "res5a", "class_name": "Add", "config": {"name": "res5a", "trainable": true}, "inbound_nodes": [[["bn5a_branch2c", 0, 0, {}], ["bn5a_branch1", 0, 0, {}]]]}, {"name": "res5a_relu", "class_name": "Activation", "config": {"name": "res5a_relu", "trainable": true, "activation": "relu"}, "inbound_nodes": [[["res5a", 0, 0, {}]]]}, {"name": "res5b_branch2a", "class_name": "Conv2D", "config": {"name": "res5b_branch2a", "trainable": true, "filters": 512, "kernel_size": [1, 1], "strides": [1, 1], "padding": "valid", "data_format": "channels_last", "dilation_rate": [1, 1], "activation": "linear", "use_bias": false, "kernel_initializer": {"class_name": "VarianceScaling", "config": {"scale": 2.0, "mode": "fan_in", "distribution": "normal", "seed": null}}, "bias_initializer": {"class_name": "Zeros", "config": {}}, "kernel_regularizer": null, "bias_regularizer": null, "activity_regularizer": null, "kernel_constraint": null, "bias_constraint": null}, "inbound_nodes": [[["res5a_relu", 0, 0, {}]]]}, {"name": "bn5b_branch2a", "class_name": "BatchNormalization", "config": {"name": "bn5b_branch2a", "trainable": false, "axis": 3, "momentum": 0.99, "epsilon": 1e-05, "center": true, "scale": true, "beta_initializer": {"class_name": "Zeros", "config": {}}, "gamma_initializer": {"class_name": "Ones", "config": {}}, "moving_mean_initializer": {"class_name": "Zeros", "config": {}}, "moving_variance_initializer": {"class_name": "Ones", "config": {}}, "beta_regularizer": null, "gamma_regularizer": null, "beta_constraint": null, "gamma_constraint": null, "freeze": true}, "inbound_nodes": [[["res5b_branch2a", 0, 0, {}]]]}, {"name": "res5b_branch2a_relu", "class_name": "Activation", "config": {"name": "res5b_branch2a_relu", "trainable": true, "activation": "relu"}, "inbound_nodes": [[["bn5b_branch2a", 0, 0, {}]]]}, {"name": "padding5b_branch2b", "class_name": "ZeroPadding2D", "config": {"name": "padding5b_branch2b", "trainable": true, "padding": [[1, 1], [1, 1]], "data_format": "channels_last"}, "inbound_nodes": [[["res5b_branch2a_relu", 0, 0, {}]]]}, {"name": "res5b_branch2b", "class_name": "Conv2D", "config": {"name": "res5b_branch2b", "trainable": true, "filters": 512, "kernel_size": [3, 3], "strides": [1, 1], "padding": "valid", "data_format": "channels_last", "dilation_rate": [1, 1], "activation": "linear", "use_bias": false, "kernel_initializer": {"class_name": "VarianceScaling", "config": {"scale": 2.0, "mode": "fan_in", "distribution": "normal", "seed": null}}, "bias_initializer": {"class_name": "Zeros", "config": {}}, "kernel_regularizer": null, "bias_regularizer": null, "activity_regularizer": null, "kernel_constraint": null, "bias_constraint": null}, "inbound_nodes": [[["padding5b_branch2b", 0, 0, {}]]]}, {"name": "bn5b_branch2b", "class_name": "BatchNormalization", "config": {"name": "bn5b_branch2b", "trainable": false, "axis": 3, "momentum": 0.99, "epsilon": 1e-05, "center": true, "scale": true, "beta_initializer": {"class_name": "Zeros", "config": {}}, "gamma_initializer": {"class_name": "Ones", "config": {}}, "moving_mean_initializer": {"class_name": "Zeros", "config": {}}, "moving_variance_initializer": {"class_name": "Ones", "config": {}}, "beta_regularizer": null, "gamma_regularizer": null, "beta_constraint": null, "gamma_constraint": null, "freeze": true}, "inbound_nodes": [[["res5b_branch2b", 0, 0, {}]]]}, {"name": "res5b_branch2b_relu", "class_name": "Activation", "config": {"name": "res5b_branch2b_relu", "trainable": true, "activation": "relu"}, "inbound_nodes": [[["bn5b_branch2b", 0, 0, {}]]]}, {"name": "res5b_branch2c", "class_name": "Conv2D", "config": {"name": "res5b_branch2c", "trainable": true, "filters": 2048, "kernel_size": [1, 1], "strides": [1, 1], "padding": "valid", "data_format": "channels_last", "dilation_rate": [1, 1], "activation": "linear", "use_bias": false, "kernel_initializer": {"class_name": "VarianceScaling", "config": {"scale": 2.0, "mode": "fan_in", "distribution": "normal", "seed": null}}, "bias_initializer": {"class_name": "Zeros", "config": {}}, "kernel_regularizer": null, "bias_regularizer": null, "activity_regularizer": null, "kernel_constraint": null, "bias_constraint": null}, "inbound_nodes": [[["res5b_branch2b_relu", 0, 0, {}]]]}, {"name": "bn5b_branch2c", "class_name": "BatchNormalization", "config": {"name": "bn5b_branch2c", "trainable": false, "axis": 3, "momentum": 0.99, "epsilon": 1e-05, "center": true, "scale": true, "beta_initializer": {"class_name": "Zeros", "config": {}}, "gamma_initializer": {"class_name": "Ones", "config": {}}, "moving_mean_initializer": {"class_name": "Zeros", "config": {}}, "moving_variance_initializer": {"class_name": "Ones", "config": {}}, "beta_regularizer": null, "gamma_regularizer": null, "beta_constraint": null, "gamma_constraint": null, "freeze": true}, "inbound_nodes": [[["res5b_branch2c", 0, 0, {}]]]}, {"name": "res5b", "class_name": "Add", "config": {"name": "res5b", "trainable": true}, "inbound_nodes": [[["bn5b_branch2c", 0, 0, {}], ["res5a_relu", 0, 0, {}]]]}, {"name": "res5b_relu", "class_name": "Activation", "config": {"name": "res5b_relu", "trainable": true, "activation": "relu"}, "inbound_nodes": [[["res5b", 0, 0, {}]]]}, {"name": "res5c_branch2a", "class_name": "Conv2D", "config": {"name": "res5c_branch2a", "trainable": true, "filters": 512, "kernel_size": [1, 1], "strides": [1, 1], "padding": "valid", "data_format": "channels_last", "dilation_rate": [1, 1], "activation": "linear", "use_bias": false, "kernel_initializer": {"class_name": "VarianceScaling", "config": {"scale": 2.0, "mode": "fan_in", "distribution": "normal", "seed": null}}, "bias_initializer": {"class_name": "Zeros", "config": {}}, "kernel_regularizer": null, "bias_regularizer": null, "activity_regularizer": null, "kernel_constraint": null, "bias_constraint": null}, "inbound_nodes": [[["res5b_relu", 0, 0, {}]]]}, {"name": "bn5c_branch2a", "class_name": "BatchNormalization", "config": {"name": "bn5c_branch2a", "trainable": false, "axis": 3, "momentum": 0.99, "epsilon": 1e-05, "center": true, "scale": true, "beta_initializer": {"class_name": "Zeros", "config": {}}, "gamma_initializer": {"class_name": "Ones", "config": {}}, "moving_mean_initializer": {"class_name": "Zeros", "config": {}}, "moving_variance_initializer": {"class_name": "Ones", "config": {}}, "beta_regularizer": null, "gamma_regularizer": null, "beta_constraint": null, "gamma_constraint": null, "freeze": true}, "inbound_nodes": [[["res5c_branch2a", 0, 0, {}]]]}, {"name": "res5c_branch2a_relu", "class_name": "Activation", "config": {"name": "res5c_branch2a_relu", "trainable": true, "activation": "relu"}, "inbound_nodes": [[["bn5c_branch2a", 0, 0, {}]]]}, {"name": "padding5c_branch2b", "class_name": "ZeroPadding2D", "config": {"name": "padding5c_branch2b", "trainable": true, "padding": [[1, 1], [1, 1]], "data_format": "channels_last"}, "inbound_nodes": [[["res5c_branch2a_relu", 0, 0, {}]]]}, {"name": "res5c_branch2b", "class_name": "Conv2D", "config": {"name": "res5c_branch2b", "trainable": true, "filters": 512, "kernel_size": [3, 3], "strides": [1, 1], "padding": "valid", "data_format": "channels_last", "dilation_rate": [1, 1], "activation": "linear", "use_bias": false, "kernel_initializer": {"class_name": "VarianceScaling", "config": {"scale": 2.0, "mode": "fan_in", "distribution": "normal", "seed": null}}, "bias_initializer": {"class_name": "Zeros", "config": {}}, "kernel_regularizer": null, "bias_regularizer": null, "activity_regularizer": null, "kernel_constraint": null, "bias_constraint": null}, "inbound_nodes": [[["padding5c_branch2b", 0, 0, {}]]]}, {"name": "bn5c_branch2b", "class_name": "BatchNormalization", "config": {"name": "bn5c_branch2b", "trainable": false, "axis": 3, "momentum": 0.99, "epsilon": 1e-05, "center": true, "scale": true, "beta_initializer": {"class_name": "Zeros", "config": {}}, "gamma_initializer": {"class_name": "Ones", "config": {}}, "moving_mean_initializer": {"class_name": "Zeros", "config": {}}, "moving_variance_initializer": {"class_name": "Ones", "config": {}}, "beta_regularizer": null, "gamma_regularizer": null, "beta_constraint": null, "gamma_constraint": null, "freeze": true}, "inbound_nodes": [[["res5c_branch2b", 0, 0, {}]]]}, {"name": "res5c_branch2b_relu", "class_name": "Activation", "config": {"name": "res5c_branch2b_relu", "trainable": true, "activation": "relu"}, "inbound_nodes": [[["bn5c_branch2b", 0, 0, {}]]]}, {"name": "res5c_branch2c", "class_name": "Conv2D", "config": {"name": "res5c_branch2c", "trainable": true, "filters": 2048, "kernel_size": [1, 1], "strides": [1, 1], "padding": "valid", "data_format": "channels_last", "dilation_rate": [1, 1], "activation": "linear", "use_bias": false, "kernel_initializer": {"class_name": "VarianceScaling", "config": {"scale": 2.0, "mode": "fan_in", "distribution": "normal", "seed": null}}, "bias_initializer": {"class_name": "Zeros", "config": {}}, "kernel_regularizer": null, "bias_regularizer": null, "activity_regularizer": null, "kernel_constraint": null, "bias_constraint": null}, "inbound_nodes": [[["res5c_branch2b_relu", 0, 0, {}]]]}, {"name": "bn5c_branch2c", "class_name": "BatchNormalization", "config": {"name": "bn5c_branch2c", "trainable": false, "axis": 3, "momentum": 0.99, "epsilon": 1e-05, "center": true, "scale": true, "beta_initializer": {"class_name": "Zeros", "config": {}}, "gamma_initializer": {"class_name": "Ones", "config": {}}, "moving_mean_initializer": {"class_name": "Zeros", "config": {}}, "moving_variance_initializer": {"class_name": "Ones", "config": {}}, "beta_regularizer": null, "gamma_regularizer": null, "beta_constraint": null, "gamma_constraint": null, "freeze": true}, "inbound_nodes": [[["res5c_branch2c", 0, 0, {}]]]}, {"name": "res5c", "class_name": "Add", "config": {"name": "res5c", "trainable": true}, "inbound_nodes": [[["bn5c_branch2c", 0, 0, {}], ["res5b_relu", 0, 0, {}]]]}, {"name": "res5c_relu", "class_name": "Activation", "config": {"name": "res5c_relu", "trainable": true, "activation": "relu"}, "inbound_nodes": [[["res5c", 0, 0, {}]]]}, {"name": "C5_reduced", "class_name": "Conv2D", "config": {"name": "C5_reduced", "trainable": true, "filters": 256, "kernel_size": [1, 1], "strides": [1, 1], "padding": "same", "data_format": "channels_last", "dilation_rate": [1, 1], "activation": "linear", "use_bias": true, "kernel_initializer": {"class_name": "VarianceScaling", "config": {"scale": 1.0, "mode": "fan_avg", "distribution": "uniform", "seed": null}}, "bias_initializer": {"class_name": "Zeros", "config": {}}, "kernel_regularizer": null, "bias_regularizer": null, "activity_regularizer": null, "kernel_constraint": null, "bias_constraint": null}, "inbound_nodes": [[["res5c_relu", 0, 0, {}]]]}, {"name": "P5_upsampled", "class_name": "UpsampleLike", "config": {"name": "P5_upsampled", "trainable": true}, "inbound_nodes": [[["C5_reduced", 0, 0, {}], ["res4f_relu", 0, 0, {}]]]}, {"name": "C4_reduced", "class_name": "Conv2D", "config": {"name": "C4_reduced", "trainable": true, "filters": 256, "kernel_size": [1, 1], "strides": [1, 1], "padding": "same", "data_format": "channels_last", "dilation_rate": [1, 1], "activation": "linear", "use_bias": true, "kernel_initializer": {"class_name": "VarianceScaling", "config": {"scale": 1.0, "mode": "fan_avg", "distribution": "uniform", "seed": null}}, "bias_initializer": {"class_name": "Zeros", "config": {}}, "kernel_regularizer": null, "bias_regularizer": null, "activity_regularizer": null, "kernel_constraint": null, "bias_constraint": null}, "inbound_nodes": [[["res4f_relu", 0, 0, {}]]]}, {"name": "P4_merged", "class_name": "Add", "config": {"name": "P4_merged", "trainable": true}, "inbound_nodes": [[["P5_upsampled", 0, 0, {}], ["C4_reduced", 0, 0, {}]]]}, {"name": "P4_upsampled", "class_name": "UpsampleLike", "config": {"name": "P4_upsampled", "trainable": true}, "inbound_nodes": [[["P4_merged", 0, 0, {}], ["res3d_relu", 0, 0, {}]]]}, {"name": "C3_reduced", "class_name": "Conv2D", "config": {"name": "C3_reduced", "trainable": true, "filters": 256, "kernel_size": [1, 1], "strides": [1, 1], "padding": "same", "data_format": "channels_last", "dilation_rate": [1, 1], "activation": "linear", "use_bias": true, "kernel_initializer": {"class_name": "VarianceScaling", "config": {"scale": 1.0, "mode": "fan_avg", "distribution": "uniform", "seed": null}}, "bias_initializer": {"class_name": "Zeros", "config": {}}, "kernel_regularizer": null, "bias_regularizer": null, "activity_regularizer": null, "kernel_constraint": null, "bias_constraint": null}, "inbound_nodes": [[["res3d_relu", 0, 0, {}]]]}, {"name": "P6", "class_name": "Conv2D", "config": {"name": "P6", "trainable": true, "filters": 256, "kernel_size": [3, 3], "strides": [2, 2], "padding": "same", "data_format": "channels_last", "dilation_rate": [1, 1], "activation": "linear", "use_bias": true, "kernel_initializer": {"class_name": "VarianceScaling", "config": {"scale": 1.0, "mode": "fan_avg", "distribution": "uniform", "seed": null}}, "bias_initializer": {"class_name": "Zeros", "config": {}}, "kernel_regularizer": null, "bias_regularizer": null, "activity_regularizer": null, "kernel_constraint": null, "bias_constraint": null}, "inbound_nodes": [[["res5c_relu", 0, 0, {}]]]}, {"name": "P3_merged", "class_name": "Add", "config": {"name": "P3_merged", "trainable": true}, "inbound_nodes": [[["P4_upsampled", 0, 0, {}], ["C3_reduced", 0, 0, {}]]]}, {"name": "C6_relu", "class_name": "Activation", "config": {"name": "C6_relu", "trainable": true, "activation": "relu"}, "inbound_nodes": [[["P6", 0, 0, {}]]]}, {"name": "P3", "class_name": "Conv2D", "config": {"name": "P3", "trainable": true, "filters": 256, "kernel_size": [3, 3], "strides": [1, 1], "padding": "same", "data_format": "channels_last", "dilation_rate": [1, 1], "activation": "linear", "use_bias": true, "kernel_initializer": {"class_name": "VarianceScaling", "config": {"scale": 1.0, "mode": "fan_avg", "distribution": "uniform", "seed": null}}, "bias_initializer": {"class_name": "Zeros", "config": {}}, "kernel_regularizer": null, "bias_regularizer": null, "activity_regularizer": null, "kernel_constraint": null, "bias_constraint": null}, "inbound_nodes": [[["P3_merged", 0, 0, {}]]]}, {"name": "P4", "class_name": "Conv2D", "config": {"name": "P4", "trainable": true, "filters": 256, "kernel_size": [3, 3], "strides": [1, 1], "padding": "same", "data_format": "channels_last", "dilation_rate": [1, 1], "activation": "linear", "use_bias": true, "kernel_initializer": {"class_name": "VarianceScaling", "config": {"scale": 1.0, "mode": "fan_avg", "distribution": "uniform", "seed": null}}, "bias_initializer": {"class_name": "Zeros", "config": {}}, "kernel_regularizer": null, "bias_regularizer": null, "activity_regularizer": null, "kernel_constraint": null, "bias_constraint": null}, "inbound_nodes": [[["P4_merged", 0, 0, {}]]]}, {"name": "P5", "class_name": "Conv2D", "config": {"name": "P5", "trainable": true, "filters": 256, "kernel_size": [3, 3], "strides": [1, 1], "padding": "same", "data_format": "channels_last", "dilation_rate": [1, 1], "activation": "linear", "use_bias": true, "kernel_initializer": {"class_name": "VarianceScaling", "config": {"scale": 1.0, "mode": "fan_avg", "distribution": "uniform", "seed": null}}, "bias_initializer": {"class_name": "Zeros", "config": {}}, "kernel_regularizer": null, "bias_regularizer": null, "activity_regularizer": null, "kernel_constraint": null, "bias_constraint": null}, "inbound_nodes": [[["C5_reduced", 0, 0, {}]]]}, {"name": "P7", "class_name": "Conv2D", "config": {"name": "P7", "trainable": true, "filters": 256, "kernel_size": [3, 3], "strides": [2, 2], "padding": "same", "data_format": "channels_last", "dilation_rate": [1, 1], "activation": "linear", "use_bias": true, "kernel_initializer": {"class_name": "VarianceScaling", "config": {"scale": 1.0, "mode": "fan_avg", "distribution": "uniform", "seed": null}}, "bias_initializer": {"class_name": "Zeros", "config": {}}, "kernel_regularizer": null, "bias_regularizer": null, "activity_regularizer": null, "kernel_constraint": null, "bias_constraint": null}, "inbound_nodes": [[["C6_relu", 0, 0, {}]]]}, {"name": "regression_submodel", "class_name": "Model", "config": {"name": "regression_submodel", "layers": [{"name": "input_2", "class_name": "InputLayer", "config": {"batch_input_shape": [null, null, null, 256], "dtype": "float32", "sparse": false, "name": "input_2"}, "inbound_nodes": []}, {"name": "pyramid_regression_0", "class_name": "Conv2D", "config": {"name": "pyramid_regression_0", "trainable": true, "filters": 256, "kernel_size": [3, 3], "strides": [1, 1], "padding": "same", "data_format": "channels_last", "dilation_rate": [1, 1], "activation": "relu", "use_bias": true, "kernel_initializer": {"class_name": "RandomNormal", "config": {"mean": 0.0, "stddev": 0.01, "seed": null}}, "bias_initializer": {"class_name": "Zeros", "config": {}}, "kernel_regularizer": null, "bias_regularizer": null, "activity_regularizer": null, "kernel_constraint": null, "bias_constraint": null}, "inbound_nodes": [[["input_2", 0, 0, {}]]]}, {"name": "pyramid_regression_1", "class_name": "Conv2D", "config": {"name": "pyramid_regression_1", "trainable": true, "filters": 256, "kernel_size": [3, 3], "strides": [1, 1], "padding": "same", "data_format": "channels_last", "dilation_rate": [1, 1], "activation": "relu", "use_bias": true, "kernel_initializer": {"class_name": "RandomNormal", "config": {"mean": 0.0, "stddev": 0.01, "seed": null}}, "bias_initializer": {"class_name": "Zeros", "config": {}}, "kernel_regularizer": null, "bias_regularizer": null, "activity_regularizer": null, "kernel_constraint": null, "bias_constraint": null}, "inbound_nodes": [[["pyramid_regression_0", 0, 0, {}]]]}, {"name": "pyramid_regression_2", "class_name": "Conv2D", "config": {"name": "pyramid_regression_2", "trainable": true, "filters": 256, "kernel_size": [3, 3], "strides": [1, 1], "padding": "same", "data_format": "channels_last", "dilation_rate": [1, 1], "activation": "relu", "use_bias": true, "kernel_initializer": {"class_name": "RandomNormal", "config": {"mean": 0.0, "stddev": 0.01, "seed": null}}, "bias_initializer": {"class_name": "Zeros", "config": {}}, "kernel_regularizer": null, "bias_regularizer": null, "activity_regularizer": null, "kernel_constraint": null, "bias_constraint": null}, "inbound_nodes": [[["pyramid_regression_1", 0, 0, {}]]]}, {"name": "pyramid_regression_3", "class_name": "Conv2D", "config": {"name": "pyramid_regression_3", "trainable": true, "filters": 256, "kernel_size": [3, 3], "strides": [1, 1], "padding": "same", "data_format": "channels_last", "dilation_rate": [1, 1], "activation": "relu", "use_bias": true, "kernel_initializer": {"class_name": "RandomNormal", "config": {"mean": 0.0, "stddev": 0.01, "seed": null}}, "bias_initializer": {"class_name": "Zeros", "config": {}}, "kernel_regularizer": null, "bias_regularizer": null, "activity_regularizer": null, "kernel_constraint": null, "bias_constraint": null}, "inbound_nodes": [[["pyramid_regression_2", 0, 0, {}]]]}, {"name": "pyramid_regression", "class_name": "Conv2D", "config": {"name": "pyramid_regression", "trainable": true, "filters": 36, "kernel_size": [3, 3], "strides": [1, 1], "padding": "same", "data_format": "channels_last", "dilation_rate": [1, 1], "activation": "linear", "use_bias": true, "kernel_initializer": {"class_name": "RandomNormal", "config": {"mean": 0.0, "stddev": 0.01, "seed": null}}, "bias_initializer": {"class_name": "Zeros", "config": {}}, "kernel_regularizer": null, "bias_regularizer": null, "activity_regularizer": null, "kernel_constraint": null, "bias_constraint": null}, "inbound_nodes": [[["pyramid_regression_3", 0, 0, {}]]]}, {"name": "pyramid_regression_reshape", "class_name": "Reshape", "config": {"name": "pyramid_regression_reshape", "trainable": true, "target_shape": [-1, 4]}, "inbound_nodes": [[["pyramid_regression", 0, 0, {}]]]}], "input_layers": [["input_2", 0, 0]], "output_layers": [["pyramid_regression_reshape", 0, 0]]}, "inbound_nodes": [[["P3", 0, 0, {}]], [["P4", 0, 0, {}]], [["P5", 0, 0, {}]], [["P6", 0, 0, {}]], [["P7", 0, 0, {}]]]}, {"name": "classification_submodel", "class_name": "Model", "config": {"name": "classification_submodel", "layers": [{"name": "input_3", "class_name": "InputLayer", "config": {"batch_input_shape": [null, null, null, 256], "dtype": "float32", "sparse": false, "name": "input_3"}, "inbound_nodes": []}, {"name": "pyramid_classification_0", "class_name": "Conv2D", "config": {"name": "pyramid_classification_0", "trainable": true, "filters": 256, "kernel_size": [3, 3], "strides": [1, 1], "padding": "same", "data_format": "channels_last", "dilation_rate": [1, 1], "activation": "relu", "use_bias": true, "kernel_initializer": {"class_name": "RandomNormal", "config": {"mean": 0.0, "stddev": 0.01, "seed": null}}, "bias_initializer": {"class_name": "Zeros", "config": {}}, "kernel_regularizer": null, "bias_regularizer": null, "activity_regularizer": null, "kernel_constraint": null, "bias_constraint": null}, "inbound_nodes": [[["input_3", 0, 0, {}]]]}, {"name": "pyramid_classification_1", "class_name": "Conv2D", "config": {"name": "pyramid_classification_1", "trainable": true, "filters": 256, "kernel_size": [3, 3], "strides": [1, 1], "padding": "same", "data_format": "channels_last", "dilation_rate": [1, 1], "activation": "relu", "use_bias": true, "kernel_initializer": {"class_name": "RandomNormal", "config": {"mean": 0.0, "stddev": 0.01, "seed": null}}, "bias_initializer": {"class_name": "Zeros", "config": {}}, "kernel_regularizer": null, "bias_regularizer": null, "activity_regularizer": null, "kernel_constraint": null, "bias_constraint": null}, "inbound_nodes": [[["pyramid_classification_0", 0, 0, {}]]]}, {"name": "pyramid_classification_2", "class_name": "Conv2D", "config": {"name": "pyramid_classification_2", "trainable": true, "filters": 256, "kernel_size": [3, 3], "strides": [1, 1], "padding": "same", "data_format": "channels_last", "dilation_rate": [1, 1], "activation": "relu", "use_bias": true, "kernel_initializer": {"class_name": "RandomNormal", "config": {"mean": 0.0, "stddev": 0.01, "seed": null}}, "bias_initializer": {"class_name": "Zeros", "config": {}}, "kernel_regularizer": null, "bias_regularizer": null, "activity_regularizer": null, "kernel_constraint": null, "bias_constraint": null}, "inbound_nodes": [[["pyramid_classification_1", 0, 0, {}]]]}, {"name": "pyramid_classification_3", "class_name": "Conv2D", "config": {"name": "pyramid_classification_3", "trainable": true, "filters": 256, "kernel_size": [3, 3], "strides": [1, 1], "padding": "same", "data_format": "channels_last", "dilation_rate": [1, 1], "activation": "relu", "use_bias": true, "kernel_initializer": {"class_name": "RandomNormal", "config": {"mean": 0.0, "stddev": 0.01, "seed": null}}, "bias_initializer": {"class_name": "Zeros", "config": {}}, "kernel_regularizer": null, "bias_regularizer": null, "activity_regularizer": null, "kernel_constraint": null, "bias_constraint": null}, "inbound_nodes": [[["pyramid_classification_2", 0, 0, {}]]]}, {"name": "pyramid_classification", "class_name": "Conv2D", "config": {"name": "pyramid_classification", "trainable": true, "filters": 720, "kernel_size": [3, 3], "strides": [1, 1], "padding": "same", "data_format": "channels_last", "dilation_rate": [1, 1], "activation": "linear", "use_bias": true, "kernel_initializer": {"class_name": "RandomNormal", "config": {"mean": 0.0, "stddev": 0.01, "seed": null}}, "bias_initializer": {"class_name": "PriorProbability", "config": {"probability": 0.01}}, "kernel_regularizer": null, "bias_regularizer": null, "activity_regularizer": null, "kernel_constraint": null, "bias_constraint": null}, "inbound_nodes": [[["pyramid_classification_3", 0, 0, {}]]]}, {"name": "pyramid_classification_reshape", "class_name": "Reshape", "config": {"name": "pyramid_classification_reshape", "trainable": true, "target_shape": [-1, 80]}, "inbound_nodes": [[["pyramid_classification", 0, 0, {}]]]}, {"name": "pyramid_classification_sigmoid", "class_name": "Activation", "config": {"name": "pyramid_classification_sigmoid", "trainable": true, "activation": "sigmoid"}, "inbound_nodes": [[["pyramid_classification_reshape", 0, 0, {}]]]}], "input_layers": [["input_3", 0, 0]], "output_layers": [["pyramid_classification_sigmoid", 0, 0]]}, "inbound_nodes": [[["P3", 0, 0, {}]], [["P4", 0, 0, {}]], [["P5", 0, 0, {}]], [["P6", 0, 0, {}]], [["P7", 0, 0, {}]]]}, {"name": "regression", "class_name": "Concatenate", "config": {"name": "regression", "trainable": true, "axis": 1}, "inbound_nodes": [[["regression_submodel", 1, 0, {}], ["regression_submodel", 2, 0, {}], ["regression_submodel", 3, 0, {}], ["regression_submodel", 4, 0, {}], ["regression_submodel", 5, 0, {}]]]}, {"name": "classification", "class_name": "Concatenate", "config": {"name": "classification", "trainable": true, "axis": 1}, "inbound_nodes": [[["classification_submodel", 1, 0, {}], ["classification_submodel", 2, 0, {}], ["classification_submodel", 3, 0, {}], ["classification_submodel", 4, 0, {}], ["classification_submodel", 5, 0, {}]]]}], "input_layers": [["input_1", 0, 0]], "output_layers": [["regression", 0, 0], ["classification", 0, 0]]}}}, "weightsManifest": [{"paths": ["group1-shard1of10.bin", "group1-shard2of10.bin", "group1-shard3of10.bin", "group1-shard4of10.bin", "group1-shard5of10.bin", "group1-shard6of10.bin", "group1-shard7of10.bin", "group1-shard8of10.bin", "group1-shard9of10.bin", "group1-shard10of10.bin"], "weights": [{"name": "C3_reduced/kernel", "shape": [1, 1, 512, 256], "dtype": "float32", "quantization": {"min": -0.14428192786141938, "scale": 0.0011098609835493798, "dtype": "uint8"}}, {"name": "C3_reduced/bias", "shape": [256], "dtype": "float32", "quantization": {"min": -0.0181437207495465, "scale": 0.00012259270776720607, "dtype": "uint8"}}, {"name": "C4_reduced/kernel", "shape": [1, 1, 1024, 256], "dtype": "float32", "quantization": {"min": -0.12921151343513937, "scale": 0.0009788751017813589, "dtype": "uint8"}}, {"name": "C4_reduced/bias", "shape": [256], "dtype": "float32", "quantization": {"min": -0.024136308025495677, "scale": 0.00019947362004541882, "dtype": "uint8"}}, {"name": "C5_reduced/kernel", "shape": [1, 1, 2048, 256], "dtype": "float32", "quantization": {"min": -0.07161356678196029, "scale": 0.0005638863526138605, "dtype": "uint8"}}, {"name": "C5_reduced/bias", "shape": [256], "dtype": "float32", "quantization": {"min": -0.01375956915172876, "scale": 0.00011278335370269476, "dtype": "uint8"}}, {"name": "P3/kernel", "shape": [3, 3, 256, 256], "dtype": "float32", "quantization": {"min": -0.07407417221396577, "scale": 0.0005698013247228136, "dtype": "uint8"}}, {"name": "P3/bias", "shape": [256], "dtype": "float32", "quantization": {"min": -0.031583929806947714, "scale": 0.0002845399081707001, "dtype": "uint8"}}, {"name": "P4/kernel", "shape": [3, 3, 256, 256], "dtype": "float32", "quantization": {"min": -0.06866805328457963, "scale": 0.000549344426276637, "dtype": "uint8"}}, {"name": "P4/bias", "shape": [256], "dtype": "float32", "quantization": {"min": -0.03871292745073636, "scale": 0.0003253187180734148, "dtype": "uint8"}}, {"name": "P5/kernel", "shape": [3, 3, 256, 256], "dtype": "float32", "quantization": {"min": -0.05861936644011853, "scale": 0.000457963800313426, "dtype": "uint8"}}, {"name": "P5/bias", "shape": [256], "dtype": "float32", "quantization": {"min": -0.06936429572456024, "scale": 0.0005138095979597055, "dtype": "uint8"}}, {"name": "P6/kernel", "shape": [3, 3, 2048, 256], "dtype": "float32", "quantization": {"min": -0.07646642152000876, "scale": 0.0007080224214815626, "dtype": "uint8"}}, {"name": "P6/bias", "shape": [256], "dtype": "float32", "quantization": {"min": -0.02906563810858072, "scale": 0.0002382429353162354, "dtype": "uint8"}}, {"name": "P7/kernel", "shape": [3, 3, 256, 256], "dtype": "float32", "quantization": {"min": -0.07645022597383051, "scale": 0.0006765506723347833, "dtype": "uint8"}}, {"name": "P7/bias", "shape": [256], "dtype": "float32", "quantization": {"min": -0.03712912314370567, "scale": 0.00027101549739931146, "dtype": "uint8"}}, {"name": "bn2a_branch1/gamma", "shape": [256], "dtype": "float32", "quantization": {"min": 0.0043527209199965, "scale": 0.012000088939698887, "dtype": "uint8"}}, {"name": "bn2a_branch1/beta", "shape": [256], "dtype": "float32", "quantization": {"min": -1.1212190571953269, "scale": 0.010381657936993768, "dtype": "uint8"}}, {"name": "bn2a_branch1/moving_mean", "shape": [256], "dtype": "float32", "quantization": {"min": -6.6734639036889165, "scale": 0.06416792215085497, "dtype": "uint8"}}, {"name": "bn2a_branch1/moving_variance", "shape": [256], "dtype": "float32", "quantization": {"min": 1.1424858712416608e-06, "scale": 0.028734928213443887, "dtype": "uint8"}}, {"name": "bn2a_branch2a/gamma", "shape": [64], "dtype": "float32", "quantization": {"min": 0.5092175602912903, "scale": 0.006105371316274007, "dtype": "uint8"}}, {"name": "bn2a_branch2a/beta", "shape": [64], "dtype": "float32", "quantization": {"min": -2.407364273071289, "scale": 0.023601610520306755, "dtype": "uint8"}}, {"name": "bn2a_branch2a/moving_mean", "shape": [64], "dtype": "float32", "quantization": {"min": -4.6082068948184745, "scale": 0.04800215515435911, "dtype": "uint8"}}, {"name": "bn2a_branch2a/moving_variance", "shape": [64], "dtype": "float32", "quantization": {"min": 0.05220366269350052, "scale": 0.03419518000354954, "dtype": "uint8"}}, {"name": "bn2a_branch2b/gamma", "shape": [64], "dtype": "float32", "quantization": {"min": 0.4204263389110565, "scale": 0.008271011768602857, "dtype": "uint8"}}, {"name": "bn2a_branch2b/beta", "shape": [64], "dtype": "float32", "quantization": {"min": -2.282603148853078, "scale": 0.032149340124691235, "dtype": "uint8"}}, {"name": "bn2a_branch2b/moving_mean", "shape": [64], "dtype": "float32", "quantization": {"min": -4.013449042451148, "scale": 0.027489377003090055, "dtype": "uint8"}}, {"name": "bn2a_branch2b/moving_variance", "shape": [64], "dtype": "float32", "quantization": {"min": 0.12235629558563232, "scale": 0.08373277000352448, "dtype": "uint8"}}, {"name": "bn2a_branch2c/gamma", "shape": [256], "dtype": "float32", "quantization": {"min": 0.011003042571246624, "scale": 0.011015497370823926, "dtype": "uint8"}}, {"name": "bn2a_branch2c/beta", "shape": [256], "dtype": "float32", "quantization": {"min": -1.1212190571953269, "scale": 0.010381657936993768, "dtype": "uint8"}}, {"name": "bn2a_branch2c/moving_mean", "shape": [256], "dtype": "float32", "quantization": {"min": -2.005644028794532, "scale": 0.015080030291688208, "dtype": "uint8"}}, {"name": "bn2a_branch2c/moving_variance", "shape": [256], "dtype": "float32", "quantization": {"min": 8.595875442551915e-07, "scale": 0.008380246063894875, "dtype": "uint8"}}, {"name": "bn2b_branch2a/gamma", "shape": [64], "dtype": "float32", "quantization": {"min": 0.7461968660354614, "scale": 0.004716993313209683, "dtype": "uint8"}}, {"name": "bn2b_branch2a/beta", "shape": [64], "dtype": "float32", "quantization": {"min": -1.6905940897324507, "scale": 0.012807530982821596, "dtype": "uint8"}}, {"name": "bn2b_branch2a/moving_mean", "shape": [64], "dtype": "float32", "quantization": {"min": -2.515720709632425, "scale": 0.014213111353855508, "dtype": "uint8"}}, {"name": "bn2b_branch2a/moving_variance", "shape": [64], "dtype": "float32", "quantization": {"min": 0.22886011004447937, "scale": 0.007600936819525326, "dtype": "uint8"}}, {"name": "bn2b_branch2b/gamma", "shape": [64], "dtype": "float32", "quantization": {"min": 0.6205095648765564, "scale": 0.003910624980926513, "dtype": "uint8"}}, {"name": "bn2b_branch2b/beta", "shape": [64], "dtype": "float32", "quantization": {"min": -2.002034819359873, "scale": 0.01725892085655063, "dtype": "uint8"}}, {"name": "bn2b_branch2b/moving_mean", "shape": [64], "dtype": "float32", "quantization": {"min": -1.3406322282903333, "scale": 0.008937548188602222, "dtype": "uint8"}}, {"name": "bn2b_branch2b/moving_variance", "shape": [64], "dtype": "float32", "quantization": {"min": 0.16632837057113647, "scale": 0.003731702122033811, "dtype": "uint8"}}, {"name": "bn2b_branch2c/gamma", "shape": [256], "dtype": "float32", "quantization": {"min": -0.01683870656233208, "scale": 0.00841935328116604, "dtype": "uint8"}}, {"name": "bn2b_branch2c/beta", "shape": [256], "dtype": "float32", "quantization": {"min": -1.7073775693482043, "scale": 0.011775017719642789, "dtype": "uint8"}}, {"name": "bn2b_branch2c/moving_mean", "shape": [256], "dtype": "float32", "quantization": {"min": -1.086528488935209, "scale": 0.008169387134851195, "dtype": "uint8"}}, {"name": "bn2b_branch2c/moving_variance", "shape": [256], "dtype": "float32", "quantization": {"min": 0.0003367012832313776, "scale": 0.0006959895502921998, "dtype": "uint8"}}, {"name": "bn2c_branch2a/gamma", "shape": [64], "dtype": "float32", "quantization": {"min": 0.5740686058998108, "scale": 0.004368531236461565, "dtype": "uint8"}}, {"name": "bn2c_branch2a/beta", "shape": [64], "dtype": "float32", "quantization": {"min": -1.8731157200009216, "scale": 0.011634259130440507, "dtype": "uint8"}}, {"name": "bn2c_branch2a/moving_mean", "shape": [64], "dtype": "float32", "quantization": {"min": -1.9946179759268665, "scale": 0.014349769610984652, "dtype": "uint8"}}, {"name": "bn2c_branch2a/moving_variance", "shape": [64], "dtype": "float32", "quantization": {"min": 2.1013129298808053e-06, "scale": 0.009826357398738836, "dtype": "uint8"}}, {"name": "bn2c_branch2b/gamma", "shape": [64], "dtype": "float32", "quantization": {"min": 0.7570450901985168, "scale": 0.0034989546327029958, "dtype": "uint8"}}, {"name": "bn2c_branch2b/beta", "shape": [64], "dtype": "float32", "quantization": {"min": -2.2182499548968146, "scale": 0.016074275035484163, "dtype": "uint8"}}, {"name": "bn2c_branch2b/moving_mean", "shape": [64], "dtype": "float32", "quantization": {"min": -1.3440699354106305, "scale": 0.006369999693889244, "dtype": "uint8"}}, {"name": "bn2c_branch2b/moving_variance", "shape": [64], "dtype": "float32", "quantization": {"min": 0.1354680061340332, "scale": 0.002801717028898351, "dtype": "uint8"}}, {"name": "bn2c_branch2c/gamma", "shape": [256], "dtype": "float32", "quantization": {"min": -0.060734340373207546, "scale": 0.008676334339029649, "dtype": "uint8"}}, {"name": "bn2c_branch2c/beta", "shape": [256], "dtype": "float32", "quantization": {"min": -1.5705417647081263, "scale": 0.012174742362078498, "dtype": "uint8"}}, {"name": "bn2c_branch2c/moving_mean", "shape": [256], "dtype": "float32", "quantization": {"min": -1.087880879757451, "scale": 0.008304434196621763, "dtype": "uint8"}}, {"name": "bn2c_branch2c/moving_variance", "shape": [256], "dtype": "float32", "quantization": {"min": 0.0005230105016380548, "scale": 0.0012333919814623453, "dtype": "uint8"}}, {"name": "bn3a_branch1/gamma", "shape": [512], "dtype": "float32", "quantization": {"min": 0.005530852824449539, "scale": 0.009985768488224816, "dtype": "uint8"}}, {"name": "bn3a_branch1/beta", "shape": [512], "dtype": "float32", "quantization": {"min": -1.5489482122309068, "scale": 0.010985448313694374, "dtype": "uint8"}}, {"name": "bn3a_branch1/moving_mean", "shape": [512], "dtype": "float32", "quantization": {"min": -2.3862001419067385, "scale": 0.020052102032829734, "dtype": "uint8"}}, {"name": "bn3a_branch1/moving_variance", "shape": [512], "dtype": "float32", "quantization": {"min": 0.0026763337664306164, "scale": 0.01592315098124684, "dtype": "uint8"}}, {"name": "bn3a_branch2a/gamma", "shape": [128], "dtype": "float32", "quantization": {"min": 0.6103370785713196, "scale": 0.004047261266147389, "dtype": "uint8"}}, {"name": "bn3a_branch2a/beta", "shape": [128], "dtype": "float32", "quantization": {"min": -1.5792655954173966, "scale": 0.011874177409153358, "dtype": "uint8"}}, {"name": "bn3a_branch2a/moving_mean", "shape": [128], "dtype": "float32", "quantization": {"min": -2.9416965933407053, "scale": 0.018158620946547563, "dtype": "uint8"}}, {"name": "bn3a_branch2a/moving_variance", "shape": [128], "dtype": "float32", "quantization": {"min": 0.17527830600738525, "scale": 0.009377583802915087, "dtype": "uint8"}}, {"name": "bn3a_branch2b/gamma", "shape": [128], "dtype": "float32", "quantization": {"min": 0.6048915386199951, "scale": 0.003987195445042031, "dtype": "uint8"}}, {"name": "bn3a_branch2b/beta", "shape": [128], "dtype": "float32", "quantization": {"min": -2.762347507476807, "scale": 0.01770735581715902, "dtype": "uint8"}}, {"name": "bn3a_branch2b/moving_mean", "shape": [128], "dtype": "float32", "quantization": {"min": -4.103226992663215, "scale": 0.023855970887576832, "dtype": "uint8"}}, {"name": "bn3a_branch2b/moving_variance", "shape": [128], "dtype": "float32", "quantization": {"min": 0.23013627529144287, "scale": 0.0075141500024234545, "dtype": "uint8"}}, {"name": "bn3a_branch2c/gamma", "shape": [512], "dtype": "float32", "quantization": {"min": -0.010732674043552548, "scale": 0.010732674043552548, "dtype": "uint8"}}, {"name": "bn3a_branch2c/beta", "shape": [512], "dtype": "float32", "quantization": {"min": -1.5489482122309068, "scale": 0.010985448313694374, "dtype": "uint8"}}, {"name": "bn3a_branch2c/moving_mean", "shape": [512], "dtype": "float32", "quantization": {"min": -1.0709070808747234, "scale": 0.008432339219486011, "dtype": "uint8"}}, {"name": "bn3a_branch2c/moving_variance", "shape": [512], "dtype": "float32", "quantization": {"min": 0.000684088678099215, "scale": 0.001741085191914702, "dtype": "uint8"}}, {"name": "bn3b_branch2a/gamma", "shape": [128], "dtype": "float32", "quantization": {"min": 0.5784836411476135, "scale": 0.003334476667291978, "dtype": "uint8"}}, {"name": "bn3b_branch2a/beta", "shape": [128], "dtype": "float32", "quantization": {"min": -4.356083624503192, "scale": 0.01936037166445863, "dtype": "uint8"}}, {"name": "bn3b_branch2a/moving_mean", "shape": [128], "dtype": "float32", "quantization": {"min": -2.0983867205825506, "scale": 0.01362588779599059, "dtype": "uint8"}}, {"name": "bn3b_branch2a/moving_variance", "shape": [128], "dtype": "float32", "quantization": {"min": 4.261433787178248e-06, "scale": 0.009396902838175175, "dtype": "uint8"}}, {"name": "bn3b_branch2b/gamma", "shape": [128], "dtype": "float32", "quantization": {"min": 0.5107861161231995, "scale": 0.005032846740647859, "dtype": "uint8"}}, {"name": "bn3b_branch2b/beta", "shape": [128], "dtype": "float32", "quantization": {"min": -3.8310447145910826, "scale": 0.020270077854979272, "dtype": "uint8"}}, {"name": "bn3b_branch2b/moving_mean", "shape": [128], "dtype": "float32", "quantization": {"min": -1.4234880466087192, "scale": 0.009954461864396637, "dtype": "uint8"}}, {"name": "bn3b_branch2b/moving_variance", "shape": [128], "dtype": "float32", "quantization": {"min": 0.17664289474487305, "scale": 0.0022617978208205277, "dtype": "uint8"}}, {"name": "bn3b_branch2c/gamma", "shape": [512], "dtype": "float32", "quantization": {"min": -0.06883143630682254, "scale": 0.008603929538352817, "dtype": "uint8"}}, {"name": "bn3b_branch2c/beta", "shape": [512], "dtype": "float32", "quantization": {"min": -1.5066896102007699, "scale": 0.010463122293060902, "dtype": "uint8"}}, {"name": "bn3b_branch2c/moving_mean", "shape": [512], "dtype": "float32", "quantization": {"min": -0.625652100058163, "scale": 0.004344806250403909, "dtype": "uint8"}}, {"name": "bn3b_branch2c/moving_variance", "shape": [512], "dtype": "float32", "quantization": {"min": 0.00038828252581879497, "scale": 0.0006010980466289409, "dtype": "uint8"}}, {"name": "bn3c_branch2a/gamma", "shape": [128], "dtype": "float32", "quantization": {"min": 0.40599995851516724, "scale": 0.005057214989381678, "dtype": "uint8"}}, {"name": "bn3c_branch2a/beta", "shape": [128], "dtype": "float32", "quantization": {"min": -2.693256499720555, "scale": 0.018197679052165912, "dtype": "uint8"}}, {"name": "bn3c_branch2a/moving_mean", "shape": [128], "dtype": "float32", "quantization": {"min": -1.8729887948316688, "scale": 0.013283608473983466, "dtype": "uint8"}}, {"name": "bn3c_branch2a/moving_variance", "shape": [128], "dtype": "float32", "quantization": {"min": 0.18360655009746552, "scale": 0.044506191097053824, "dtype": "uint8"}}, {"name": "bn3c_branch2b/gamma", "shape": [128], "dtype": "float32", "quantization": {"min": 0.46005693078041077, "scale": 0.0067400889069426295, "dtype": "uint8"}}, {"name": "bn3c_branch2b/beta", "shape": [128], "dtype": "float32", "quantization": {"min": -1.5868688835817226, "scale": 0.008531553137536143, "dtype": "uint8"}}, {"name": "bn3c_branch2b/moving_mean", "shape": [128], "dtype": "float32", "quantization": {"min": -1.4762281011132634, "scale": 0.012617334197549259, "dtype": "uint8"}}, {"name": "bn3c_branch2b/moving_variance", "shape": [128], "dtype": "float32", "quantization": {"min": 0.08016139268875122, "scale": 0.0070762005506777295, "dtype": "uint8"}}, {"name": "bn3c_branch2c/gamma", "shape": [512], "dtype": "float32", "quantization": {"min": -0.0, "scale": 0.011953397232162603, "dtype": "uint8"}}, {"name": "bn3c_branch2c/beta", "shape": [512], "dtype": "float32", "quantization": {"min": -2.3679071010327806, "scale": 0.011013521400152469, "dtype": "uint8"}}, {"name": "bn3c_branch2c/moving_mean", "shape": [512], "dtype": "float32", "quantization": {"min": -0.521700945554995, "scale": 0.004013084196576885, "dtype": "uint8"}}, {"name": "bn3c_branch2c/moving_variance", "shape": [512], "dtype": "float32", "quantization": {"min": 0.00010034152364823967, "scale": 0.0008596383587014405, "dtype": "uint8"}}, {"name": "bn3d_branch2a/gamma", "shape": [128], "dtype": "float32", "quantization": {"min": 0.7355023622512817, "scale": 0.006505683356640386, "dtype": "uint8"}}, {"name": "bn3d_branch2a/beta", "shape": [128], "dtype": "float32", "quantization": {"min": -2.6395202300127814, "scale": 0.013330910252589805, "dtype": "uint8"}}, {"name": "bn3d_branch2a/moving_mean", "shape": [128], "dtype": "float32", "quantization": {"min": -1.5174549962960038, "scale": 0.01107631384157667, "dtype": "uint8"}}, {"name": "bn3d_branch2a/moving_variance", "shape": [128], "dtype": "float32", "quantization": {"min": 0.3949695825576782, "scale": 0.008236408701129988, "dtype": "uint8"}}, {"name": "bn3d_branch2b/gamma", "shape": [128], "dtype": "float32", "quantization": {"min": 0.6816897988319397, "scale": 0.003971695666219674, "dtype": "uint8"}}, {"name": "bn3d_branch2b/beta", "shape": [128], "dtype": "float32", "quantization": {"min": -1.3599304549834308, "scale": 0.011623337222080605, "dtype": "uint8"}}, {"name": "bn3d_branch2b/moving_mean", "shape": [128], "dtype": "float32", "quantization": {"min": -1.3801050298354205, "scale": 0.011795769485772824, "dtype": "uint8"}}, {"name": "bn3d_branch2b/moving_variance", "shape": [128], "dtype": "float32", "quantization": {"min": 0.2500532567501068, "scale": 0.004850879954356773, "dtype": "uint8"}}, {"name": "bn3d_branch2c/gamma", "shape": [512], "dtype": "float32", "quantization": {"min": -0.006783438762467281, "scale": 0.006783438762467281, "dtype": "uint8"}}, {"name": "bn3d_branch2c/beta", "shape": [512], "dtype": "float32", "quantization": {"min": -1.8958592868318744, "scale": 0.012075536858801748, "dtype": "uint8"}}, {"name": "bn3d_branch2c/moving_mean", "shape": [512], "dtype": "float32", "quantization": {"min": -0.9014393289883932, "scale": 0.007575120411667169, "dtype": "uint8"}}, {"name": "bn3d_branch2c/moving_variance", "shape": [512], "dtype": "float32", "quantization": {"min": 0.00021288255811668932, "scale": 0.0009332763034549049, "dtype": "uint8"}}, {"name": "bn4a_branch1/gamma", "shape": [1024], "dtype": "float32", "quantization": {"min": 0.033979933708906174, "scale": 0.010765537400456035, "dtype": "uint8"}}, {"name": "bn4a_branch1/beta", "shape": [1024], "dtype": "float32", "quantization": {"min": -0.9375835227031333, "scale": 0.007157126127504835, "dtype": "uint8"}}, {"name": "bn4a_branch1/moving_mean", "shape": [1024], "dtype": "float32", "quantization": {"min": -1.9995872030071182, "scale": 0.016390059041041953, "dtype": "uint8"}}, {"name": "bn4a_branch1/moving_variance", "shape": [1024], "dtype": "float32", "quantization": {"min": 0.015027696266770363, "scale": 0.01128271820352358, "dtype": "uint8"}}, {"name": "bn4a_branch2a/gamma", "shape": [256], "dtype": "float32", "quantization": {"min": 0.6213442087173462, "scale": 0.003980505232717477, "dtype": "uint8"}}, {"name": "bn4a_branch2a/beta", "shape": [256], "dtype": "float32", "quantization": {"min": -1.4199508580507016, "scale": 0.009160973277746462, "dtype": "uint8"}}, {"name": "bn4a_branch2a/moving_mean", "shape": [256], "dtype": "float32", "quantization": {"min": -1.7981004051133698, "scale": 0.012315756199406643, "dtype": "uint8"}}, {"name": "bn4a_branch2a/moving_variance", "shape": [256], "dtype": "float32", "quantization": {"min": 0.40585967898368835, "scale": 0.008409963986452888, "dtype": "uint8"}}, {"name": "bn4a_branch2b/gamma", "shape": [256], "dtype": "float32", "quantization": {"min": 0.5854782462120056, "scale": 0.0045634833036684525, "dtype": "uint8"}}, {"name": "bn4a_branch2b/beta", "shape": [256], "dtype": "float32", "quantization": {"min": -1.8394469747356341, "scale": 0.012685841205073338, "dtype": "uint8"}}, {"name": "bn4a_branch2b/moving_mean", "shape": [256], "dtype": "float32", "quantization": {"min": -4.137841998829561, "scale": 0.031347287869920915, "dtype": "uint8"}}, {"name": "bn4a_branch2b/moving_variance", "shape": [256], "dtype": "float32", "quantization": {"min": 0.34219133853912354, "scale": 0.01904629492292217, "dtype": "uint8"}}, {"name": "bn4a_branch2c/gamma", "shape": [1024], "dtype": "float32", "quantization": {"min": 0.07113350182771683, "scale": 0.009002757043230768, "dtype": "uint8"}}, {"name": "bn4a_branch2c/beta", "shape": [1024], "dtype": "float32", "quantization": {"min": -0.9375835227031333, "scale": 0.007157126127504835, "dtype": "uint8"}}, {"name": "bn4a_branch2c/moving_mean", "shape": [1024], "dtype": "float32", "quantization": {"min": -0.7359124983058256, "scale": 0.004906083322038838, "dtype": "uint8"}}, {"name": "bn4a_branch2c/moving_variance", "shape": [1024], "dtype": "float32", "quantization": {"min": 0.005249861162155867, "scale": 0.001388090251780608, "dtype": "uint8"}}, {"name": "bn4b_branch2a/gamma", "shape": [256], "dtype": "float32", "quantization": {"min": 0.5655062198638916, "scale": 0.004619026184082031, "dtype": "uint8"}}, {"name": "bn4b_branch2a/beta", "shape": [256], "dtype": "float32", "quantization": {"min": -2.702526631074793, "scale": 0.014687644734102136, "dtype": "uint8"}}, {"name": "bn4b_branch2a/moving_mean", "shape": [256], "dtype": "float32", "quantization": {"min": -5.852475035424326, "scale": 0.03163500019148284, "dtype": "uint8"}}, {"name": "bn4b_branch2a/moving_variance", "shape": [256], "dtype": "float32", "quantization": {"min": 0.36715057492256165, "scale": 0.015014005992926804, "dtype": "uint8"}}, {"name": "bn4b_branch2b/gamma", "shape": [256], "dtype": "float32", "quantization": {"min": 0.5147577524185181, "scale": 0.00700385570526123, "dtype": "uint8"}}, {"name": "bn4b_branch2b/beta", "shape": [256], "dtype": "float32", "quantization": {"min": -2.556510229671703, "scale": 0.017273717768052047, "dtype": "uint8"}}, {"name": "bn4b_branch2b/moving_mean", "shape": [256], "dtype": "float32", "quantization": {"min": -2.377994551378138, "scale": 0.014070973676793715, "dtype": "uint8"}}, {"name": "bn4b_branch2b/moving_variance", "shape": [256], "dtype": "float32", "quantization": {"min": 0.10513381659984589, "scale": 0.00478037087356343, "dtype": "uint8"}}, {"name": "bn4b_branch2c/gamma", "shape": [1024], "dtype": "float32", "quantization": {"min": 0.05497802793979645, "scale": 0.007403893973313126, "dtype": "uint8"}}, {"name": "bn4b_branch2c/beta", "shape": [1024], "dtype": "float32", "quantization": {"min": -1.6495784834319471, "scale": 0.010440370148303462, "dtype": "uint8"}}, {"name": "bn4b_branch2c/moving_mean", "shape": [1024], "dtype": "float32", "quantization": {"min": -0.431716503349005, "scale": 0.0029569623517055137, "dtype": "uint8"}}, {"name": "bn4b_branch2c/moving_variance", "shape": [1024], "dtype": "float32", "quantization": {"min": 0.0014270668616518378, "scale": 0.0004776426193797413, "dtype": "uint8"}}, {"name": "bn4c_branch2a/gamma", "shape": [256], "dtype": "float32", "quantization": {"min": 0.4627031981945038, "scale": 0.005580297287772684, "dtype": "uint8"}}, {"name": "bn4c_branch2a/beta", "shape": [256], "dtype": "float32", "quantization": {"min": -2.399995290999319, "scale": 0.011320732504713769, "dtype": "uint8"}}, {"name": "bn4c_branch2a/moving_mean", "shape": [256], "dtype": "float32", "quantization": {"min": -2.171348979893853, "scale": 0.013656282892414167, "dtype": "uint8"}}, {"name": "bn4c_branch2a/moving_variance", "shape": [256], "dtype": "float32", "quantization": {"min": 0.31561028957366943, "scale": 0.013274288644977645, "dtype": "uint8"}}, {"name": "bn4c_branch2b/gamma", "shape": [256], "dtype": "float32", "quantization": {"min": 0.5552687048912048, "scale": 0.005275631184671439, "dtype": "uint8"}}, {"name": "bn4c_branch2b/beta", "shape": [256], "dtype": "float32", "quantization": {"min": -1.6561929513426388, "scale": 0.009252474588506362, "dtype": "uint8"}}, {"name": "bn4c_branch2b/moving_mean", "shape": [256], "dtype": "float32", "quantization": {"min": -0.9588183283805847, "scale": 0.007319223880767822, "dtype": "uint8"}}, {"name": "bn4c_branch2b/moving_variance", "shape": [256], "dtype": "float32", "quantization": {"min": 0.08332255482673645, "scale": 0.001503892272126441, "dtype": "uint8"}}, {"name": "bn4c_branch2c/gamma", "shape": [1024], "dtype": "float32", "quantization": {"min": 0.0488269217312336, "scale": 0.0054936423459473775, "dtype": "uint8"}}, {"name": "bn4c_branch2c/beta", "shape": [1024], "dtype": "float32", "quantization": {"min": -1.1985715249005486, "scale": 0.007009190204096775, "dtype": "uint8"}}, {"name": "bn4c_branch2c/moving_mean", "shape": [1024], "dtype": "float32", "quantization": {"min": -0.30009238521258036, "scale": 0.0025217847496855493, "dtype": "uint8"}}, {"name": "bn4c_branch2c/moving_variance", "shape": [1024], "dtype": "float32", "quantization": {"min": 0.0017046096036210656, "scale": 0.0003771924263085513, "dtype": "uint8"}}, {"name": "bn4d_branch2a/gamma", "shape": [256], "dtype": "float32", "quantization": {"min": 0.4422333836555481, "scale": 0.003570565756629495, "dtype": "uint8"}}, {"name": "bn4d_branch2a/beta", "shape": [256], "dtype": "float32", "quantization": {"min": -2.320081736527237, "scale": 0.0111008695527619, "dtype": "uint8"}}, {"name": "bn4d_branch2a/moving_mean", "shape": [256], "dtype": "float32", "quantization": {"min": -1.940459681959713, "scale": 0.011152067137699501, "dtype": "uint8"}}, {"name": "bn4d_branch2a/moving_variance", "shape": [256], "dtype": "float32", "quantization": {"min": 0.3172389268875122, "scale": 0.009561955227571375, "dtype": "uint8"}}, {"name": "bn4d_branch2b/gamma", "shape": [256], "dtype": "float32", "quantization": {"min": 0.5292788743972778, "scale": 0.005529026424183565, "dtype": "uint8"}}, {"name": "bn4d_branch2b/beta", "shape": [256], "dtype": "float32", "quantization": {"min": -1.6094315566268622, "scale": 0.009357160212946873, "dtype": "uint8"}}, {"name": "bn4d_branch2b/moving_mean", "shape": [256], "dtype": "float32", "quantization": {"min": -1.1220225927876493, "scale": 0.008565057960211063, "dtype": "uint8"}}, {"name": "bn4d_branch2b/moving_variance", "shape": [256], "dtype": "float32", "quantization": {"min": 0.07131592184305191, "scale": 0.0023700637852444367, "dtype": "uint8"}}, {"name": "bn4d_branch2c/gamma", "shape": [1024], "dtype": "float32", "quantization": {"min": -0.039588720482938426, "scale": 0.006598120080489738, "dtype": "uint8"}}, {"name": "bn4d_branch2c/beta", "shape": [1024], "dtype": "float32", "quantization": {"min": -1.4840727693894329, "scale": 0.007169433668547985, "dtype": "uint8"}}, {"name": "bn4d_branch2c/moving_mean", "shape": [1024], "dtype": "float32", "quantization": {"min": -0.3640890156521516, "scale": 0.0029843361938700955, "dtype": "uint8"}}, {"name": "bn4d_branch2c/moving_variance", "shape": [1024], "dtype": "float32", "quantization": {"min": 8.513742068316787e-05, "scale": 0.00041752554180657527, "dtype": "uint8"}}, {"name": "bn4e_branch2a/gamma", "shape": [256], "dtype": "float32", "quantization": {"min": 0.4382966458797455, "scale": 0.003950978844773536, "dtype": "uint8"}}, {"name": "bn4e_branch2a/beta", "shape": [256], "dtype": "float32", "quantization": {"min": -2.514182472930235, "scale": 0.012029581210192512, "dtype": "uint8"}}, {"name": "bn4e_branch2a/moving_mean", "shape": [256], "dtype": "float32", "quantization": {"min": -2.5767556386835433, "scale": 0.01244809487286736, "dtype": "uint8"}}, {"name": "bn4e_branch2a/moving_variance", "shape": [256], "dtype": "float32", "quantization": {"min": 0.4042649567127228, "scale": 0.005722995248495364, "dtype": "uint8"}}, {"name": "bn4e_branch2b/gamma", "shape": [256], "dtype": "float32", "quantization": {"min": 0.650596022605896, "scale": 0.004735287030537923, "dtype": "uint8"}}, {"name": "bn4e_branch2b/beta", "shape": [256], "dtype": "float32", "quantization": {"min": -1.587631996940164, "scale": 0.008820177760778689, "dtype": "uint8"}}, {"name": "bn4e_branch2b/moving_mean", "shape": [256], "dtype": "float32", "quantization": {"min": -0.4664080012078379, "scale": 0.0037613548484503054, "dtype": "uint8"}}, {"name": "bn4e_branch2b/moving_variance", "shape": [256], "dtype": "float32", "quantization": {"min": 0.05927896872162819, "scale": 0.0011478822459192837, "dtype": "uint8"}}, {"name": "bn4e_branch2c/gamma", "shape": [1024], "dtype": "float32", "quantization": {"min": -0.0, "scale": 0.005889593064328473, "dtype": "uint8"}}, {"name": "bn4e_branch2c/beta", "shape": [1024], "dtype": "float32", "quantization": {"min": -1.1102164591059966, "scale": 0.006853188019172818, "dtype": "uint8"}}, {"name": "bn4e_branch2c/moving_mean", "shape": [1024], "dtype": "float32", "quantization": {"min": -0.582913356668809, "scale": 0.006476815074097877, "dtype": "uint8"}}, {"name": "bn4e_branch2c/moving_variance", "shape": [1024], "dtype": "float32", "quantization": {"min": 0.0003081673930864781, "scale": 0.000678920701223736, "dtype": "uint8"}}, {"name": "bn4f_branch2a/gamma", "shape": [256], "dtype": "float32", "quantization": {"min": 0.4254356026649475, "scale": 0.004397019451739741, "dtype": "uint8"}}, {"name": "bn4f_branch2a/beta", "shape": [256], "dtype": "float32", "quantization": {"min": -1.973412836299223, "scale": 0.010963404646106794, "dtype": "uint8"}}, {"name": "bn4f_branch2a/moving_mean", "shape": [256], "dtype": "float32", "quantization": {"min": -1.1526873623623568, "scale": 0.008175087676328772, "dtype": "uint8"}}, {"name": "bn4f_branch2a/moving_variance", "shape": [256], "dtype": "float32", "quantization": {"min": 0.41855305433273315, "scale": 0.006663093613643273, "dtype": "uint8"}}, {"name": "bn4f_branch2b/gamma", "shape": [256], "dtype": "float32", "quantization": {"min": 0.6498118042945862, "scale": 0.00898982660443175, "dtype": "uint8"}}, {"name": "bn4f_branch2b/beta", "shape": [256], "dtype": "float32", "quantization": {"min": -1.089297287604388, "scale": 0.007310720051036161, "dtype": "uint8"}}, {"name": "bn4f_branch2b/moving_mean", "shape": [256], "dtype": "float32", "quantization": {"min": -0.9005843653398401, "scale": 0.005525057456072639, "dtype": "uint8"}}, {"name": "bn4f_branch2b/moving_variance", "shape": [256], "dtype": "float32", "quantization": {"min": 0.08530989289283752, "scale": 0.003451955201579075, "dtype": "uint8"}}, {"name": "bn4f_branch2c/gamma", "shape": [1024], "dtype": "float32", "quantization": {"min": 0.0042371368035674095, "scale": 0.00776500202642352, "dtype": "uint8"}}, {"name": "bn4f_branch2c/beta", "shape": [1024], "dtype": "float32", "quantization": {"min": -1.6410384411905325, "scale": 0.01131750649096919, "dtype": "uint8"}}, {"name": "bn4f_branch2c/moving_mean", "shape": [1024], "dtype": "float32", "quantization": {"min": -0.6195256667978624, "scale": 0.0044893164260714664, "dtype": "uint8"}}, {"name": "bn4f_branch2c/moving_variance", "shape": [1024], "dtype": "float32", "quantization": {"min": 0.0005924173747189343, "scale": 0.004464478793270959, "dtype": "uint8"}}, {"name": "bn5a_branch1/gamma", "shape": [2048], "dtype": "float32", "quantization": {"min": 0.26086774468421936, "scale": 0.016916715748169844, "dtype": "uint8"}}, {"name": "bn5a_branch1/beta", "shape": [2048], "dtype": "float32", "quantization": {"min": -1.805515895871555, "scale": 0.010942520581039727, "dtype": "uint8"}}, {"name": "bn5a_branch1/moving_mean", "shape": [2048], "dtype": "float32", "quantization": {"min": -1.4655994840696747, "scale": 0.01510927303164613, "dtype": "uint8"}}, {"name": "bn5a_branch1/moving_variance", "shape": [2048], "dtype": "float32", "quantization": {"min": 0.08673897385597229, "scale": 0.003595751757715263, "dtype": "uint8"}}, {"name": "bn5a_branch2a/gamma", "shape": [512], "dtype": "float32", "quantization": {"min": 0.5353331565856934, "scale": 0.004153029591429467, "dtype": "uint8"}}, {"name": "bn5a_branch2a/beta", "shape": [512], "dtype": "float32", "quantization": {"min": -1.755297362804413, "scale": 0.008015056451161703, "dtype": "uint8"}}, {"name": "bn5a_branch2a/moving_mean", "shape": [512], "dtype": "float32", "quantization": {"min": -2.4887769909466018, "scale": 0.014554251409044454, "dtype": "uint8"}}, {"name": "bn5a_branch2a/moving_variance", "shape": [512], "dtype": "float32", "quantization": {"min": 0.480496883392334, "scale": 0.00536352138893277, "dtype": "uint8"}}, {"name": "bn5a_branch2b/gamma", "shape": [512], "dtype": "float32", "quantization": {"min": 0.4557577669620514, "scale": 0.004259940572813445, "dtype": "uint8"}}, {"name": "bn5a_branch2b/beta", "shape": [512], "dtype": "float32", "quantization": {"min": -1.8243408203125002, "scale": 0.0104248046875, "dtype": "uint8"}}, {"name": "bn5a_branch2b/moving_mean", "shape": [512], "dtype": "float32", "quantization": {"min": -2.401713337617762, "scale": 0.013196227129767923, "dtype": "uint8"}}, {"name": "bn5a_branch2b/moving_variance", "shape": [512], "dtype": "float32", "quantization": {"min": 0.1678875833749771, "scale": 0.0036803642324372836, "dtype": "uint8"}}, {"name": "bn5a_branch2c/gamma", "shape": [2048], "dtype": "float32", "quantization": {"min": 0.8884433507919312, "scale": 0.010211021292443369, "dtype": "uint8"}}, {"name": "bn5a_branch2c/beta", "shape": [2048], "dtype": "float32", "quantization": {"min": -1.805515895871555, "scale": 0.010942520581039727, "dtype": "uint8"}}, {"name": "bn5a_branch2c/moving_mean", "shape": [2048], "dtype": "float32", "quantization": {"min": -0.5905624913234336, "scale": 0.005004766875622319, "dtype": "uint8"}}, {"name": "bn5a_branch2c/moving_variance", "shape": [2048], "dtype": "float32", "quantization": {"min": 0.007425349205732346, "scale": 0.0007112999318861494, "dtype": "uint8"}}, {"name": "bn5b_branch2a/gamma", "shape": [512], "dtype": "float32", "quantization": {"min": 0.39774012565612793, "scale": 0.004044647777781767, "dtype": "uint8"}}, {"name": "bn5b_branch2a/beta", "shape": [512], "dtype": "float32", "quantization": {"min": -1.382709545247695, "scale": 0.00709081818075741, "dtype": "uint8"}}, {"name": "bn5b_branch2a/moving_mean", "shape": [512], "dtype": "float32", "quantization": {"min": -4.960612519582113, "scale": 0.035687859853108725, "dtype": "uint8"}}, {"name": "bn5b_branch2a/moving_variance", "shape": [512], "dtype": "float32", "quantization": {"min": 1.6245973110198975, "scale": 0.02873849027297076, "dtype": "uint8"}}, {"name": "bn5b_branch2b/gamma", "shape": [512], "dtype": "float32", "quantization": {"min": 0.34943196177482605, "scale": 0.004707350099787993, "dtype": "uint8"}}, {"name": "bn5b_branch2b/beta", "shape": [512], "dtype": "float32", "quantization": {"min": -1.863582505198086, "scale": 0.010772153209237492, "dtype": "uint8"}}, {"name": "bn5b_branch2b/moving_mean", "shape": [512], "dtype": "float32", "quantization": {"min": -1.2159251255147596, "scale": 0.008385690520791446, "dtype": "uint8"}}, {"name": "bn5b_branch2b/moving_variance", "shape": [512], "dtype": "float32", "quantization": {"min": 0.09389364719390869, "scale": 0.0011790023130529067, "dtype": "uint8"}}, {"name": "bn5b_branch2c/gamma", "shape": [2048], "dtype": "float32", "quantization": {"min": 0.5736075043678284, "scale": 0.00891353172414443, "dtype": "uint8"}}, {"name": "bn5b_branch2c/beta", "shape": [2048], "dtype": "float32", "quantization": {"min": -2.6330751645798776, "scale": 0.012479029216018378, "dtype": "uint8"}}, {"name": "bn5b_branch2c/moving_mean", "shape": [2048], "dtype": "float32", "quantization": {"min": -0.4197201464690414, "scale": 0.004465107941160015, "dtype": "uint8"}}, {"name": "bn5b_branch2c/moving_variance", "shape": [2048], "dtype": "float32", "quantization": {"min": 0.003206176683306694, "scale": 0.00021551924155038945, "dtype": "uint8"}}, {"name": "bn5c_branch2a/gamma", "shape": [512], "dtype": "float32", "quantization": {"min": 0.36630937457084656, "scale": 0.0034622006556567025, "dtype": "uint8"}}, {"name": "bn5c_branch2a/beta", "shape": [512], "dtype": "float32", "quantization": {"min": -1.6685365265490961, "scale": 0.00948032117357441, "dtype": "uint8"}}, {"name": "bn5c_branch2a/moving_mean", "shape": [512], "dtype": "float32", "quantization": {"min": -2.134944433324477, "scale": 0.029245814155129824, "dtype": "uint8"}}, {"name": "bn5c_branch2a/moving_variance", "shape": [512], "dtype": "float32", "quantization": {"min": 1.9676108360290527, "scale": 0.07313845952351888, "dtype": "uint8"}}, {"name": "bn5c_branch2b/gamma", "shape": [512], "dtype": "float32", "quantization": {"min": 0.5163489580154419, "scale": 0.0032090930377735812, "dtype": "uint8"}}, {"name": "bn5c_branch2b/beta", "shape": [512], "dtype": "float32", "quantization": {"min": -1.8670849800109863, "scale": 0.011968493461608887, "dtype": "uint8"}}, {"name": "bn5c_branch2b/moving_mean", "shape": [512], "dtype": "float32", "quantization": {"min": -0.6359181035967434, "scale": 0.0041026974425596345, "dtype": "uint8"}}, {"name": "bn5c_branch2b/moving_variance", "shape": [512], "dtype": "float32", "quantization": {"min": 0.06622914969921112, "scale": 0.00113393857198603, "dtype": "uint8"}}, {"name": "bn5c_branch2c/gamma", "shape": [2048], "dtype": "float32", "quantization": {"min": 0.4347835183143616, "scale": 0.010346646168652702, "dtype": "uint8"}}, {"name": "bn5c_branch2c/beta", "shape": [2048], "dtype": "float32", "quantization": {"min": -3.884742021560669, "scale": 0.014257884726804846, "dtype": "uint8"}}, {"name": "bn5c_branch2c/moving_mean", "shape": [2048], "dtype": "float32", "quantization": {"min": -0.246233778256996, "scale": 0.0012959672539841894, "dtype": "uint8"}}, {"name": "bn5c_branch2c/moving_variance", "shape": [2048], "dtype": "float32", "quantization": {"min": 0.0013256424572318792, "scale": 0.00016640974847855522, "dtype": "uint8"}}, {"name": "bn_conv1/gamma", "shape": [64], "dtype": "float32", "quantization": {"min": 0.5126429200172424, "scale": 0.008454681611528583, "dtype": "uint8"}}, {"name": "bn_conv1/beta", "shape": [64], "dtype": "float32", "quantization": {"min": -2.6492998179267437, "scale": 0.03532399757235658, "dtype": "uint8"}}, {"name": "bn_conv1/moving_mean", "shape": [64], "dtype": "float32", "quantization": {"min": -3.5301476338330438, "scale": 0.026947691861320944, "dtype": "uint8"}}, {"name": "bn_conv1/moving_variance", "shape": [64], "dtype": "float32", "quantization": {"min": 184.10784912109375, "scale": 327.1789275524663, "dtype": "uint8"}}, {"name": "pyramid_classification_0/kernel", "shape": [3, 3, 256, 256], "dtype": "float32", "quantization": {"min": -0.08168254985528833, "scale": 0.0006095712675767786, "dtype": "uint8"}}, {"name": "pyramid_classification_0/bias", "shape": [256], "dtype": "float32", "quantization": {"min": -0.05948986078009886, "scale": 0.0006466289215228137, "dtype": "uint8"}}, {"name": "pyramid_classification_1/kernel", "shape": [3, 3, 256, 256], "dtype": "float32", "quantization": {"min": -0.16694913190953872, "scale": 0.001011812920663871, "dtype": "uint8"}}, {"name": "pyramid_classification_1/bias", "shape": [256], "dtype": "float32", "quantization": {"min": -0.10809938203470379, "scale": 0.0010495085634437261, "dtype": "uint8"}}, {"name": "pyramid_classification_2/kernel", "shape": [3, 3, 256, 256], "dtype": "float32", "quantization": {"min": -0.15243243142670276, "scale": 0.0010299488609912348, "dtype": "uint8"}}, {"name": "pyramid_classification_2/bias", "shape": [256], "dtype": "float32", "quantization": {"min": -0.10643419471441531, "scale": 0.0011958898282518574, "dtype": "uint8"}}, {"name": "pyramid_classification_3/kernel", "shape": [3, 3, 256, 256], "dtype": "float32", "quantization": {"min": -0.13883670813897075, "scale": 0.0011018786360235775, "dtype": "uint8"}}, {"name": "pyramid_classification_3/bias", "shape": [256], "dtype": "float32", "quantization": {"min": -0.09175746440887451, "scale": 0.0013493744766010958, "dtype": "uint8"}}, {"name": "pyramid_classification/kernel", "shape": [3, 3, 256, 720], "dtype": "float32", "quantization": {"min": -0.15644176707548255, "scale": 0.0010292221518123851, "dtype": "uint8"}}, {"name": "pyramid_classification/bias", "shape": [720], "dtype": "float32", "quantization": {"min": -4.569547653198242, "scale": 0.0003487792669558058, "dtype": "uint8"}}, {"name": "conv1/kernel", "shape": [7, 7, 3, 64], "dtype": "float32", "quantization": {"min": -0.6795903923464756, "scale": 0.005436723138771805, "dtype": "uint8"}}, {"name": "pyramid_regression_0/kernel", "shape": [3, 3, 256, 256], "dtype": "float32", "quantization": {"min": -0.08318583170572917, "scale": 0.0006116605272480086, "dtype": "uint8"}}, {"name": "pyramid_regression_0/bias", "shape": [256], "dtype": "float32", "quantization": {"min": -0.06589548798168407, "scale": 0.000748812363428228, "dtype": "uint8"}}, {"name": "pyramid_regression_1/kernel", "shape": [3, 3, 256, 256], "dtype": "float32", "quantization": {"min": -0.10395776267145194, "scale": 0.0006839326491542891, "dtype": "uint8"}}, {"name": "pyramid_regression_1/bias", "shape": [256], "dtype": "float32", "quantization": {"min": -0.14286500005161062, "scale": 0.0015361827962538776, "dtype": "uint8"}}, {"name": "pyramid_regression_2/kernel", "shape": [3, 3, 256, 256], "dtype": "float32", "quantization": {"min": -0.128922318185077, "scale": 0.0008830295766101164, "dtype": "uint8"}}, {"name": "pyramid_regression_2/bias", "shape": [256], "dtype": "float32", "quantization": {"min": -0.21648608469495587, "scale": 0.0020815969682207295, "dtype": "uint8"}}, {"name": "pyramid_regression_3/kernel", "shape": [3, 3, 256, 256], "dtype": "float32", "quantization": {"min": -0.18655008463298572, "scale": 0.0011958338758524727, "dtype": "uint8"}}, {"name": "pyramid_regression_3/bias", "shape": [256], "dtype": "float32", "quantization": {"min": -0.06703457832336426, "scale": 0.000798030694325765, "dtype": "uint8"}}, {"name": "pyramid_regression/kernel", "shape": [3, 3, 256, 36], "dtype": "float32", "quantization": {"min": -0.2730812603352117, "scale": 0.0020379198532478483, "dtype": "uint8"}}, {"name": "pyramid_regression/bias", "shape": [36], "dtype": "float32", "quantization": {"min": -0.019338284564368865, "scale": 0.0002148698284929874, "dtype": "uint8"}}, {"name": "res2a_branch1/kernel", "shape": [1, 1, 64, 256], "dtype": "float32", "quantization": {"min": -0.7857611695925395, "scale": 0.006603035038592769, "dtype": "uint8"}}, {"name": "res2a_branch2a/kernel", "shape": [1, 1, 64, 64], "dtype": "float32", "quantization": {"min": -0.724304352087133, "scale": 0.004416489951750811, "dtype": "uint8"}}, {"name": "res2a_branch2b/kernel", "shape": [3, 3, 64, 64], "dtype": "float32", "quantization": {"min": -0.39912714210211064, "scale": 0.003000955955654967, "dtype": "uint8"}}, {"name": "res2a_branch2c/kernel", "shape": [1, 1, 64, 256], "dtype": "float32", "quantization": {"min": -0.4230141310130849, "scale": 0.0030001002199509567, "dtype": "uint8"}}, {"name": "res2b_branch2a/kernel", "shape": [1, 1, 256, 64], "dtype": "float32", "quantization": {"min": -0.3178653465766533, "scale": 0.002192174803976919, "dtype": "uint8"}}, {"name": "res2b_branch2b/kernel", "shape": [3, 3, 64, 64], "dtype": "float32", "quantization": {"min": -0.2513786672377119, "scale": 0.0023062263049331367, "dtype": "uint8"}}, {"name": "res2b_branch2c/kernel", "shape": [1, 1, 64, 256], "dtype": "float32", "quantization": {"min": -0.2533792046939625, "scale": 0.0021114933724496877, "dtype": "uint8"}}, {"name": "res2c_branch2a/kernel", "shape": [1, 1, 256, 64], "dtype": "float32", "quantization": {"min": -0.21575730758554795, "scale": 0.0018599767895305858, "dtype": "uint8"}}, {"name": "res2c_branch2b/kernel", "shape": [3, 3, 64, 64], "dtype": "float32", "quantization": {"min": -0.1971036409630495, "scale": 0.0015643146108178531, "dtype": "uint8"}}, {"name": "res2c_branch2c/kernel", "shape": [1, 1, 64, 256], "dtype": "float32", "quantization": {"min": -0.2750343584546856, "scale": 0.0024556639147739786, "dtype": "uint8"}}, {"name": "res3a_branch1/kernel", "shape": [1, 1, 256, 512], "dtype": "float32", "quantization": {"min": -0.46362240594976084, "scale": 0.004332919681773466, "dtype": "uint8"}}, {"name": "res3a_branch2a/kernel", "shape": [1, 1, 256, 128], "dtype": "float32", "quantization": {"min": -0.3435811137451845, "scale": 0.002545045287001367, "dtype": "uint8"}}, {"name": "res3a_branch2b/kernel", "shape": [3, 3, 128, 128], "dtype": "float32", "quantization": {"min": -0.41139964215895714, "scale": 0.003265076525071088, "dtype": "uint8"}}, {"name": "res3a_branch2c/kernel", "shape": [1, 1, 128, 512], "dtype": "float32", "quantization": {"min": -0.38899922370910645, "scale": 0.003241660197575887, "dtype": "uint8"}}, {"name": "res3b_branch2a/kernel", "shape": [1, 1, 512, 128], "dtype": "float32", "quantization": {"min": -0.17745095590750376, "scale": 0.0014911845034244013, "dtype": "uint8"}}, {"name": "res3b_branch2b/kernel", "shape": [3, 3, 128, 128], "dtype": "float32", "quantization": {"min": -0.19325275841881248, "scale": 0.0014640360486273673, "dtype": "uint8"}}, {"name": "res3b_branch2c/kernel", "shape": [1, 1, 128, 512], "dtype": "float32", "quantization": {"min": -0.359963217903586, "scale": 0.0027269940750271667, "dtype": "uint8"}}, {"name": "res3c_branch2a/kernel", "shape": [1, 1, 512, 128], "dtype": "float32", "quantization": {"min": -0.3836726043738571, "scale": 0.002951327725952747, "dtype": "uint8"}}, {"name": "res3c_branch2b/kernel", "shape": [3, 3, 128, 128], "dtype": "float32", "quantization": {"min": -0.33011725322872987, "scale": 0.0027976038409214393, "dtype": "uint8"}}, {"name": "res3c_branch2c/kernel", "shape": [1, 1, 128, 512], "dtype": "float32", "quantization": {"min": -0.3070441414328183, "scale": 0.002132250982172349, "dtype": "uint8"}}, {"name": "res3d_branch2a/kernel", "shape": [1, 1, 512, 128], "dtype": "float32", "quantization": {"min": -0.3071400497473923, "scale": 0.0026028817775202735, "dtype": "uint8"}}, {"name": "res3d_branch2b/kernel", "shape": [3, 3, 128, 128], "dtype": "float32", "quantization": {"min": -0.2666858498372284, "scale": 0.0018649360128477508, "dtype": "uint8"}}, {"name": "res3d_branch2c/kernel", "shape": [1, 1, 128, 512], "dtype": "float32", "quantization": {"min": -0.28603006998697916, "scale": 0.0022346099217732747, "dtype": "uint8"}}, {"name": "res4a_branch1/kernel", "shape": [1, 1, 512, 1024], "dtype": "float32", "quantization": {"min": -0.35390782566631546, "scale": 0.003024853210823209, "dtype": "uint8"}}, {"name": "res4a_branch2a/kernel", "shape": [1, 1, 512, 256], "dtype": "float32", "quantization": {"min": -0.2529404766419355, "scale": 0.0023420414503882913, "dtype": "uint8"}}, {"name": "res4a_branch2b/kernel", "shape": [3, 3, 256, 256], "dtype": "float32", "quantization": {"min": -0.29061853979148117, "scale": 0.001911964077575534, "dtype": "uint8"}}, {"name": "res4a_branch2c/kernel", "shape": [1, 1, 256, 1024], "dtype": "float32", "quantization": {"min": -0.3381931785274955, "scale": 0.002890539987414491, "dtype": "uint8"}}, {"name": "res4b_branch2a/kernel", "shape": [1, 1, 1024, 256], "dtype": "float32", "quantization": {"min": -0.2274026870727539, "scale": 0.0018950223922729493, "dtype": "uint8"}}, {"name": "res4b_branch2b/kernel", "shape": [3, 3, 256, 256], "dtype": "float32", "quantization": {"min": -0.474884770898258, "scale": 0.002760957970338709, "dtype": "uint8"}}, {"name": "res4b_branch2c/kernel", "shape": [1, 1, 256, 1024], "dtype": "float32", "quantization": {"min": -0.4562472642636767, "scale": 0.0029435307371850107, "dtype": "uint8"}}, {"name": "res4c_branch2a/kernel", "shape": [1, 1, 1024, 256], "dtype": "float32", "quantization": {"min": -0.37641757329305015, "scale": 0.002767776274213604, "dtype": "uint8"}}, {"name": "res4c_branch2b/kernel", "shape": [3, 3, 256, 256], "dtype": "float32", "quantization": {"min": -0.18711438500413707, "scale": 0.0017166457339829089, "dtype": "uint8"}}, {"name": "res4c_branch2c/kernel", "shape": [1, 1, 256, 1024], "dtype": "float32", "quantization": {"min": -0.29802704839145433, "scale": 0.002159616292691698, "dtype": "uint8"}}, {"name": "res4d_branch2a/kernel", "shape": [1, 1, 1024, 256], "dtype": "float32", "quantization": {"min": -0.2051826785592472, "scale": 0.0019541207481833067, "dtype": "uint8"}}, {"name": "res4d_branch2b/kernel", "shape": [3, 3, 256, 256], "dtype": "float32", "quantization": {"min": -0.22390757097917444, "scale": 0.0015768138801350313, "dtype": "uint8"}}, {"name": "res4d_branch2c/kernel", "shape": [1, 1, 256, 1024], "dtype": "float32", "quantization": {"min": -0.2221569958855124, "scale": 0.001806154438093597, "dtype": "uint8"}}, {"name": "res4e_branch2a/kernel", "shape": [1, 1, 1024, 256], "dtype": "float32", "quantization": {"min": -0.23350561927346625, "scale": 0.0021620890673469096, "dtype": "uint8"}}, {"name": "res4e_branch2b/kernel", "shape": [3, 3, 256, 256], "dtype": "float32", "quantization": {"min": -0.15661476786230125, "scale": 0.0015205317268184588, "dtype": "uint8"}}, {"name": "res4e_branch2c/kernel", "shape": [1, 1, 256, 1024], "dtype": "float32", "quantization": {"min": -0.2000929587611965, "scale": 0.0018700276519737992, "dtype": "uint8"}}, {"name": "res4f_branch2a/kernel", "shape": [1, 1, 1024, 256], "dtype": "float32", "quantization": {"min": -0.1693540577210632, "scale": 0.0020404103339887133, "dtype": "uint8"}}, {"name": "res4f_branch2b/kernel", "shape": [3, 3, 256, 256], "dtype": "float32", "quantization": {"min": -0.3119569859083961, "scale": 0.0023107924882103414, "dtype": "uint8"}}, {"name": "res4f_branch2c/kernel", "shape": [1, 1, 256, 1024], "dtype": "float32", "quantization": {"min": -0.2465370181728812, "scale": 0.002181743523653816, "dtype": "uint8"}}, {"name": "res5a_branch1/kernel", "shape": [1, 1, 1024, 2048], "dtype": "float32", "quantization": {"min": -0.6280276529929217, "scale": 0.004186851019952811, "dtype": "uint8"}}, {"name": "res5a_branch2a/kernel", "shape": [1, 1, 1024, 512], "dtype": "float32", "quantization": {"min": -0.21882202660336214, "scale": 0.002232877822483287, "dtype": "uint8"}}, {"name": "res5a_branch2b/kernel", "shape": [3, 3, 512, 512], "dtype": "float32", "quantization": {"min": -0.19124190334011526, "scale": 0.0017873075078515446, "dtype": "uint8"}}, {"name": "res5a_branch2c/kernel", "shape": [1, 1, 512, 2048], "dtype": "float32", "quantization": {"min": -0.32946611642837526, "scale": 0.003230059964984071, "dtype": "uint8"}}, {"name": "res5b_branch2a/kernel", "shape": [1, 1, 2048, 512], "dtype": "float32", "quantization": {"min": -0.33667301313549863, "scale": 0.0035439264540578805, "dtype": "uint8"}}, {"name": "res5b_branch2b/kernel", "shape": [3, 3, 512, 512], "dtype": "float32", "quantization": {"min": -0.24147107659601696, "scale": 0.002136912182265637, "dtype": "uint8"}}, {"name": "res5b_branch2c/kernel", "shape": [1, 1, 512, 2048], "dtype": "float32", "quantization": {"min": -0.2135905013364904, "scale": 0.001825559840482824, "dtype": "uint8"}}, {"name": "res5c_branch2a/kernel", "shape": [1, 1, 2048, 512], "dtype": "float32", "quantization": {"min": -0.2856175925217423, "scale": 0.0030384850268270454, "dtype": "uint8"}}, {"name": "res5c_branch2b/kernel", "shape": [3, 3, 512, 512], "dtype": "float32", "quantization": {"min": -0.17607011923602983, "scale": 0.0013543855325848448, "dtype": "uint8"}}, {"name": "res5c_branch2c/kernel", "shape": [1, 1, 512, 2048], "dtype": "float32", "quantization": {"min": -0.13220843953244826, "scale": 0.0016322029571907194, "dtype": "uint8"}}]}]}